mlruns/259183567906258607/models/m-c27030ac26644b239fa2845e6afe4926/artifacts/data/model.pth (torch, 132837 bytes, 9 tensors)

weight_ih_l0 f4 [200, 3]
000000 99 2e a3 3e c2 ad e4 bd 1c 0a a3 bd 4d d4 26 3d
       0.3187149 -0.11165954 -0.079609126 0.04072981
000010 5a 4a 0a 3e f6 ac 0d be 35 e2 b5 3d 20 b8 6f 39
       0.13504925 -0.1383551 0.08881036 0.00022861408
000020 52 24 09 be 1f 77 b4 3e ff 8d 47 3e 0f 37 0f 3e
       -0.13392761 0.35247132 0.19487761 0.13985847
000030 76 82 76 3e 59 b5 30 3e 00 92 3f 3c 9b 03 8e 3e
       0.24073204 0.17256679 0.011692524 0.27737126
000040 16 11 87 3e 74 8b cd 3d e9 80 a4 bc 9c 7d ae 3d
       0.26380223 0.10036364 -0.020081 0.08520052
000050 99 ba 01 3e 95 c2 1e 3e 16 9e d4 3d 42 12 f6 3d
       0.12668838 0.15503915 0.10381715 0.12015201
000060 51 0d 14 3c 1c cc cd 3b f5 bb 08 be 21 b6 ce bd
       0.009036378 0.0062804352 -0.1335295 -0.10093332
000070 b2 3e 46 bd 43 35 01 be 85 9a 2d 3e d4 86 05 3e
       -0.048399635 -0.12617974 0.16953476 0.13039714
000080 d8 7b 2f 3d 1a 81 19 3e b2 f0 1b 3e 5b e4 03 3e
       0.042842716 0.14990655 0.15228537 0.1288008
000090 63 5a b5 3d 65 6b 91 3c 96 e1 8e 3d 24 a0 93 bd
       0.088551305 0.017751405 0.06976621 -0.07208279
0000a0 c9 42 73 3d 20 4e ae 3b 18 0f 41 3d 49 1d d2 bd
       0.059389863 0.005319372 0.047133535 -0.10259492
0000b0 da 04 0d be d1 52 87 3e 88 9d c0 3b e2 d3 91 bd
       -0.13771382 0.2643037 0.005878154 -0.071204916
0000c0 ba 45 03 3e 3d a6 b7 3d 30 cf 93 bc fc a1 43 3e
       0.12819567 0.08967254 -0.01804313 0.19104761
0000d0 ab 5f 0b bd ec 85 e7 bd 44 a6 0c 3e 47 bb 14 be
       -0.034026783 -0.113048404 0.137353 -0.14524566
0000e0 70 a0 96 bc d8 39 3d bc f5 85 fd bd 7c 18 a9 bd
       -0.01838705 -0.011549436 -0.12379066 -0.08256623
0000f0 05 43 5e 3e 5e aa a9 bd db a1 84 bd d2 54 ad 3e
       0.21705253 -0.08284448 -0.06476184 0.33853775
000100 7a a3 29 3e 1a 13 f6 3d c6 56 c0 3d b0 14 02 3d
       0.16566268 0.12015362 0.09391551 0.03175801
000110 6a 77 a5 3d 9d ae f0 3d ec ea 24 3d 7a 2d 38 bd
       0.08079417 0.11752055 0.0402631 -0.044965245
000120 f8 b7 6e bd e6 c4 ec bd c0 e2 a4 3c 39 00 0c be
       -0.058280915 -0.11560993 0.020127654 -0.1367196
000130 e5 67 c8 bd c0 90 b0 3d 41 28 05 3d 81 a1 15 be
       -0.09785441 0.08621359 0.032509092 -0.1461239
000140 8c 11 c2 bd 17 cd 09 3e 25 7a ca 3c 76 48 c0 bd
       -0.09476003 0.13457142 0.024716446 -0.09388821
000150 d9 b3 b7 3d c8 18 13 be fa 9a ee 3d b9 d9 18 3e
       0.0896985 -0.14364922 0.11650653 0.14926805
000160 ca 6d b4 bc 44 5b 44 3d 69 fd ab 3d 7a fe 91 3d
       -0.022025008 0.0479386 0.083979435 0.07128616
000170 24 0b 38 3d a9 76 7e bd 84 a3 af bc 64 f9 0f 3d
       0.0449325 -0.062124882 -0.021440275 0.035149947
000180 63 d4 b5 bd 43 a8 4e 3b 30 e1 50 bc 42 69 2e 3e
       -0.088784 0.0031533397 -0.012749001 0.1703234
000190 f2 d8 bf bc 55 cf 8c bd 1a 3f fc 3d 8c 1b e9 3d
       -0.023418877 -0.06875483 0.12316723 0.11382207
0001a0 c0 fc 6c bb 6c 3b 08 3e f6 ed 5a 3d 9e 01 f7 3d
       -0.0036161393 0.13303918 0.053449593 0.12060855
0001b0 54 bd 29 3e 5e 24 28 3c c2 0d 07 be e1 fa 7e 3e
       0.16576129 0.010262577 -0.13188842 0.2490039
0001c0 53 c8 55 3d 6a 65 e6 bd eb 6c 47 3c 49 58 a4 3d
       0.052192997 -0.11249812 0.012171964 0.080246516
0001d0 b1 99 04 3e 29 a8 c5 3c 4e e7 9e 3d 13 02 08 3e
       0.12949254 0.024128037 0.077589616 0.13282041
0001e0 2a 21 68 3e 61 9c 8e bb e6 19 ac bd 44 1a 1e 3e
       0.22668901 -0.004352138 -0.08403377 0.15439707
0001f0 e6 0c 18 bd dc 38 c8 3d 17 10 52 bd 30 fe d3 3d
       -0.037121676 0.0977647 -0.051284876 0.10351217
000200 22 11 02 bd 68 b8 45 3e 58 6d a9 3d 00 df 76 3c
       -0.03175462 0.19308627 0.08272809 0.015067816
000210 0f 56 85 3d b8 c9 cd 3d 80 34 02 bc d1 84 98 3e
       0.06510555 0.100482404 -0.007947087 0.2978883
000220 85 c6 2f bd f8 d5 a0 3d 8c 0a dc 3d ed fb 8c 3d
       -0.042913932 0.07853311 0.10744199 0.068839885
000230 c8 11 da 3d dc 08 a2 3d 7d 12 2f 3d 4d 1f 03 3e
       0.10647923 0.07911846 0.04274224 0.12804909
000240 da 04 25 3d ba e5 a7 bd ed 69 95 bd 68 0e cd 3d
       0.04028783 -0.08198114 -0.07295594 0.100125134
000250 14 b4 8f bc aa 28 ea 3d 81 05 2d 3d f6 a1 e1 bd
       -0.017541923 0.11433537 0.042241577 -0.1101722
000260 fa 43 cd 3d 10 4f 0b 3e 63 57 df 3d 4a dd 61 bd
       0.10022731 0.13604379 0.109053396 -0.05514268
000270 8a 43 8a bd de b9 cb 3c 87 ae f2 bd b5 ab 7e 3d
       -0.06751163 0.024868902 -0.11849695 0.06217547
000280 07 28 73 3b 16 94 cb bd 1b af f0 3d 7e f6 0c bc
       0.0037102716 -0.099403545 0.11752149 -0.00860369
000290 6c 05 29 bd 4d 94 d4 bc 6d 9d 13 3e 83 b5 0d 3e
       -0.041264936 -0.025949622 0.14415522 0.13838772
0002a0 3c 11 d5 bd fe a7 a3 3d 36 97 fc 3d 88 12 aa bc
       -0.10403678 0.07991026 0.12333529 -0.02076079
0002b0 03 fe c5 3d a4 04 be bc 3e 83 04 3e 2a 05 e2 bc
       0.096675895 -0.023195572 0.1294069 -0.027590353
0002c0 e6 f8 f1 bd 55 38 17 3e a6 bd f5 bd 14 8e 56 3d
       -0.11815052 0.14767583 -0.11999063 0.05238159
0002d0 59 e0 55 3e ff f0 9f 3c ee a8 d0 3d 83 d7 29 3e
       0.20886363 0.019524096 0.10188471 0.16586117
0002e0 27 06 c3 3c 4a 45 fd 3d 04 72 ec 3c 5c 1f a9 3d
       0.023806645 0.123667315 0.02886296 0.082579345
0002f0 80 60 43 bc 96 75 26 bb 86 bd 3d 3d 0c 83 01 3d
       -0.011924863 -0.0025399677 0.04632332 0.031619117
000300 a9 91 74 bc 86 9f a9 bd e6 95 ac bd 81 18 5b 3e
       -0.014927306 -0.0828238 -0.08427028 0.21396066
000310 85 64 48 bd b8 22 4a 3d ca fa 16 3d fd 04 53 bd
       -0.048923988 0.049349517 0.036860265 -0.05151843
000320 68 9f 03 3d 37 64 16 be 8e 13 20 be 10 a5 f5 bc
       0.032134444 -0.14686666 -0.1563246 -0.029985934
000330 7d 49 72 bd 82 d7 e8 bd 90 24 9a bc a3 e8 c0 bc
       -0.059152115 -0.1136923 -0.018816262 -0.02354843
000340 d8 01 a2 bd 00 0d 8e 3b dc ee 87 bd 1c 2a 46 3d
       -0.07910508 0.004335046 -0.06637356 0.048380002
000350 90 c2 97 bc 1d 9f 61 3e e1 cd 48 3e 2a bf 67 bd
       -0.018525392 0.22033353 0.19609787 -0.056578793
000360 91 df b1 bd 2c 8c 47 bc 14 ad 8f bc 68 7e 82 bc
       -0.0868522 -0.012179416 -0.017538585 -0.015929416
000370 f4 43 fa bd 5a ad dd 3d 6b 3f 3b bd 4a ff 6e 3c
       -0.12219992 0.1082408 -0.045714777 0.014587233
000380 80 45 05 bd 73 d7 ea bc 8c 99 cb bd 2e e4 9b 3d
       -0.032536983 -0.028667187 -0.09941396 0.07611881
000390 02 15 98 3c bc ea e3 bd a4 d9 6d 3d 01 ac fa 3d
       0.018564705 -0.111287564 0.058068886 0.122398384
0003a0 c3 68 08 3e 0e 3a 8a bd 27 d7 8d bd 70 b2 e5 3d
       0.13321213 -0.06749354 -0.06925803 0.11215675
0003b0 e0 33 99 bd 45 de a2 3d 8f 9c ad bd 6e c1 eb 3d
       -0.074805975 0.07952551 -0.08477127 0.11511503
0003c0 81 04 48 3e e2 a5 9c bd 18 49 df 3c b2 66 7d bc
       0.19532968 -0.07648827 0.027256534 -0.015466379
0003d0 fb d5 8d 3d 80 55 96 3a 88 fb 41 bc 87 f8 4d 3d
       0.06925579 0.0011469573 -0.011839755 0.050285842
0003e0 66 3f 1d bd 0c 56 9d bd a7 78 19 bd d0 de 9f bd
       -0.03839054 -0.07682428 -0.03746858 -0.0780617
0003f0 e3 d5 f3 3d a3 53 99 3d 40 72 fd 3c cd 1b 11 3d
       0.1190603 0.074866556 0.030938268 0.035426904

weight_hh_l0 f4 [200, 50]
000000 c8 7d ed 3d 14 32 3a 3e 7d 85 d7 bd 9f af 1e 3e
       0.115962565 0.18183166 -0.10523508 0.15496682
000010 19 0f 2f 3e 0e 7b 21 3d a7 99 d7 bd 8b 8d 6c 3e
       0.17095603 0.039423995 -0.10527354 0.2310087
000020 4d 7d 12 3e cd b6 55 3e 87 95 38 be 11 14 96 bc
       0.14305611 0.20870514 -0.1802579 -0.018320115
000030 7a 16 5d be 86 8a 72 be 66 ef 69 3e 02 02 7c 3d
       -0.21590605 -0.23685655 0.2284523 0.061525352
000040 8a a2 27 bc f7 65 82 be bd 2c 60 bd 76 ba 5c be
       -0.010231623 -0.25468418 -0.054730166 -0.21555504
000050 34 e6 11 bc 2a 01 65 be 77 be b9 bd ec 90 52 be
       -0.008904982 -0.22363725 -0.090695314 -0.20563096
000060 ab 1b f3 bd 73 02 4b 3e 35 03 01 be 66 ea 49 be
       -0.118705116 0.19825153 -0.1259888 -0.19718322
000070 c8 d3 5f 3c 33 64 46 3e f2 f6 19 be 07 59 15 be
       0.013661332 0.1937416 -0.15035608 -0.14584742
000080 5b 48 91 3c 7c f1 39 3e 98 7d 71 be ef f5 48 bd
       0.017734697 0.18158525 -0.23583066 -0.049062666
000090 fd c5 5f 3c d0 c4 9c 3e e3 67 6d 3d 25 c8 2d be
       0.013658044 0.30618906 0.057960402 -0.1697088
0000a0 12 02 d5 3b 4f e7 22 3e e8 4e b8 bd f4 6f 88 be
       0.006500491 0.1590855 -0.08999425 -0.26647913
0000b0 cb c0 eb bd 12 43 a6 bc 68 57 e3 bd f7 17 90 3d
       -0.11511382 -0.020295653 -0.11100656 0.07035821
0000c0 09 58 13 be 22 b5 79 3e a6 fc a4 3d a2 9e 6e bd
       -0.14389051 0.24385503 0.08056001 -0.058256753
0000d0 b7 44 bc b9 38 2d ff bc e3 df ed bd 51 6a 43 be
       -0.0003590935 -0.031149492 -0.11614969 -0.19083525
0000e0 68 02 45 bd 41 91 d7 bd ca cf 9e bd dd be da 3d
       -0.048097998 -0.10525752 -0.07754476 0.106809355
0000f0 6c 07 f5 3c 75 20 cb 3d e5 12 0b be 60 98 08 be
       0.029910766 0.099183 -0.13581426 -0.13339376
000100 2c 36 33 bc 44 12 97 bd 88 38 0d be 07 3c d6 bd
       -0.010938209 -0.07376531 -0.13791096 -0.10460668
000110 78 14 c1 3d 74 52 ee bd 5f 66 27 3d 34 0e 2c 3e
       0.09427732 -0.116368204 0.040869113 0.16802293
000120 8f 0d 34 3d 93 7d 73 bd a7 4e f3 3d 5e 62 b7 3d
       0.043958243 -0.05944593 0.11880236 0.08954309
000130 9a e2 a5 3d 71 a6 c8 3d 2e 7c 28 3d 30 c1 39 bb
       0.080998614 0.09797371 0.041134052 -0.0028343908
000140 b9 07 f4 3d 5e 70 0b 3e 63 b0 ec bd 0d 50 d0 bd
       0.119155355 0.13617083 -0.115570806 -0.101715185
000150 ce af 02 bd 45 16 ff 3c f3 f5 85 3c 17 87 80 3d
       -0.03190594 0.031138549 0.01635263 0.06275766
000160 0a de 00 3d 12 86 a8 3d 36 73 81 bd 8c 3f 24 bd
       0.031461753 0.08228697 -0.06320803 -0.040099666
000170 d9 72 b1 3d b8 fc c1 3d 58 b9 0b 3d 6d 59 c2 3d
       0.086644836 0.094720304 0.034112304 0.09489713
000180 b3 08 0b 3e 9a 88 0a be a5 ad 39 bc 86 b8 d6 3d
       0.13577537 -0.13528672 -0.011332904 0.10484414
000190 c1 6b c9 bd 31 e8 85 bd 3d ae 9c bd aa cb 33 3c
       -0.098350056 -0.065384276 -0.07650421 0.01097385
0001a0 75 f9 1b 3d 17 d8 03 be 83 7b 47 3d b4 39 07 be
       0.038079698 -0.128754 0.048701774 -0.13205606
0001b0 70 53 fd 3d 91 be de bd 5c a9 9b b7 ff 4b 9b bd
       0.1236943 -0.108761914 -1.8556304e-05 -0.075828545
0001c0 5c 55 be 3d 30 1e 96 3d ab 41 08 3e 67 31 11 be
       0.09293625 0.073299766 0.133063 -0.14179002
0001d0 e4 8c 96 bc cb df 1a be f8 2a 6d 3d 76 8b 73 3d
       -0.018377729 -0.15124433 0.057902306 0.059459172
0001e0 a9 ef b0 bd 0c 88 9e bd f9 1d e7 3c f6 14 08 be
       -0.086394615 -0.07740793 0.028212534 -0.13289246
0001f0 21 56 03 be 55 34 7d bc 74 26 42 bd 40 f4 3f 3b
       -0.12825824 -0.015454371 -0.047399953 0.0029289871
000200 3b 28 f0 bc 2e 1d 91 b9 43 98 1b bd 2f 82 2a bd
       -0.029316058 -0.00027678296 -0.037987005 -0.04162806
000210 36 bb ca bd 53 13 0a be 57 7e 73 3c 55 d4 eb 3d
       -0.09898989 -0.13483934 0.014861665 0.115151085
000220 7c e2 4e 3d ae b6 f3 bb 32 ca bd 3c b5 55 31 bd
       0.05050896 -0.0074375486 0.023167703 -0.043294627
000230 50 6a 69 3d 9e 15 79 3d 13 79 a4 3d 66 c9 b4 bd
       0.056986153 0.06081163 0.080309056 -0.08827476
000240 99 d2 e2 bd c5 a3 b9 3d f9 c8 00 be d0 ea 80 3d
       -0.110753246 0.0906444 -0.12576665 0.06294787
000250 3a 62 3b 3b a4 ba 2f 3d 5d a6 ab 3d b0 2a 77 3e
       0.0028592483 0.042902604 0.08381341 0.24137378
000260 f0 e4 a0 be 08 41 53 3e d9 98 8a 3e 51 8b f4 3a
       -0.31424665 0.20630276 0.27069739 0.0018657242
000270 74 5d 9c bd 95 14 ab 3e 02 20 9b 3e af 94 2d 3e
       -0.07635012 0.3341414 0.30297858 0.1695125
000280 89 37 b8 bd fc ab 57 be 15 f9 76 be 98 54 9e be
       -0.089949675 -0.210617 -0.24118455 -0.30923915
000290 ae f2 92 3e c9 57 8c 3e 52 ab 54 be 2c ed b0 bd
       0.28700775 0.27410725 -0.20768479 -0.08638987
0002a0 1b 83 ba bd c5 cd a1 be 10 3d 04 be 6f 8a 82 be
       -0.09107038 -0.31602302 -0.12913918 -0.2549624
0002b0 4b 4c d8 bc 26 90 9a be 85 6b 26 be b4 06 8f 3d
       -0.026403567 -0.30188102 -0.16251953 0.069837004
0002c0 ad 74 b7 be eb 4d 92 be 13 4f 97 3e 48 73 18 3e
       -0.35831204 -0.28575072 0.29552516 0.14887726
0002d0 37 10 a1 be c8 e1 a1 be 9c e8 05 3e fb 98 52 3e
       -0.31457683 -0.3161757 0.13077015 0.2056617
0002e0 a4 4f 7a be 4b c4 67 be 43 89 77 3e 2b 18 23 3e
       -0.24444443 -0.22633474 0.24173455 0.15927188
0002f0 a6 4f 14 3e 5a 04 4b be c5 66 1d 3e e5 a3 4d 3e
       0.14483508 -0.19825879 0.15371235 0.20082052
000300 11 f0 81 be 63 4b 65 be 82 88 71 be 94 92 6a be
       -0.2537847 -0.22392039 -0.2358723 -0.22907478
000310 38 b8 24 be 6f b3 15 3e eb 9f fc bd 1e a0 d4 3d
       -0.16085899 0.1461923 -0.123351894 0.103821024
000320 21 cb 44 3e 26 25 91 3e dc e8 67 be 3f 04 6c 3c
       0.19218113 0.28348655 -0.22647423 0.014405309
000330 5b 48 aa 3d 3c 67 c8 bc a5 b9 81 3b 5e ec d0 3c
       0.08314582 -0.024463288 0.003958898 0.025503334
000340 48 5a 02 3e 7d 92 ea 3d db 5e 3c 3b 19 65 26 be
       0.12729752 0.11453722 0.0028743062 -0.16249503
000350 90 ca 19 bd 13 30 06 bd 21 2d 13 3c c1 a2 92 3e
       -0.037546694 -0.03276069 0.008982928 0.28639796
000360 21 12 8f be 68 90 94 be 20 59 cc bd 44 a0 01 be
       -0.2794352 -0.29016423 -0.09977937 -0.12658793
000370 fb 5b 4e bd 8e 25 0a be 7b a0 03 be d3 af 1f be
       -0.05038069 -0.13490888 -0.12854187 -0.15594415
000380 6b 24 5f be 82 83 18 3e b8 e6 0c be e4 62 0a be
       -0.21791236 0.14893916 -0.13759887 -0.13514286
000390 9d b6 ae 3d e3 6e 1a 3d cf 51 2a bd ff b6 12 bd
       0.085309245 0.037703406 -0.041581925 -0.03581905
0003a0 15 55 ad 3c 55 eb 10 3d c2 1f 1f be 62 04 1d be
       0.021158734 0.03538068 -0.15539458 -0.15333703
0003b0 e8 b4 ee 3d ab 64 4c 3e 64 23 4e 3e 0b 78 90 bd
       0.11655599 0.19960277 0.20130688 -0.070541464
0003c0 c5 04 f6 3d df 56 1d 3e 20 38 1d bd 8e 43 8e be
       0.120126285 0.1536517 -0.038383603 -0.27785915
0003d0 bb 83 92 b9 2f d9 bd bd db 38 3f be 49 29 9f 3c
       -0.00027945437 -0.0926994 -0.18674032 0.019428866
0003e0 3c 83 7e bb ee 61 8b 3e 0d cc 0d 3e 00 46 c6 3e
       -0.0038835546 0.27223152 0.1384737 0.3872528
0003f0 f1 d8 bd be 70 96 03 3e a0 8d b6 3e be 15 a0 bd
       -0.37079576 0.12850356 0.35654926 -0.07816647

bias_ih_l0 f4 [200]
000000 a4 14 45 3d e7 86 2e 3d bb 91 08 3e f0 86 a5 3d
       0.048115388 0.04260912 0.13336842 0.08082378
000010 2b 37 51 3e a7 01 c4 3e 84 33 dd bc 94 31 f4 3d
       0.20431201 0.3828251 -0.027002104 0.11923519
000020 1d 56 92 3d fb 53 25 3c cf 06 bc 3c 17 f6 23 3e
       0.07145331 0.010090823 0.022952465 0.16011845
000030 fc da 96 bc 7d 68 ef bd 21 a4 3d bd 32 d7 73 bc
       -0.018414967 -0.116898514 -0.046299104 -0.0148828495
000040 68 77 03 3e b1 bb 81 3e 60 1a 50 3e 87 f8 ab b9
       0.12838519 0.2533851 0.20322561 -0.0003280083
000050 74 67 d1 bd 0d a0 e5 3d 11 13 29 3e b3 ab 3f bd
       -0.1022481 0.11212168 0.1651118 -0.046794605
000060 db 6a 78 3d 0f 39 ac bd 76 98 78 3d ef 2f 8d 3c
       0.06064878 -0.084093206 0.060692273 0.01723477
000070 84 88 13 be 4d b5 16 3e bc a3 e5 3d 99 1a 01 be
       -0.14407545 0.14717598 0.112128705 -0.12607802
000080 ad fa de 3c 56 93 ec bd 2b 1a c6 bd 81 2c 9f bd
       0.02721914 -0.115515396 -0.0967296 -0.0777216
000090 47 69 53 3d 41 75 0a 3e 74 82 43 bc 80 57 31 3e
       0.051614072 0.13521291 -0.011932958 0.17318535
0000a0 08 71 26 3e f9 28 fa 3c 43 ee 30 3d a3 de 25 3e
       0.16254056 0.030537115 0.043195974 0.1619821
0000b0 2b f7 db 3d 35 61 d2 3d ef 3f 45 bb df 87 20 3e
       0.10740503 0.10272447 -0.0030097922 0.1567683
0000c0 82 9b 65 3b 3f 34 fc 3c f6 ce e8 bb 46 cd bf 3d
       0.0035035317 0.030786632 -0.00710475 0.09365325
0000d0 00 ae f2 bb 0b 40 2a be f4 b7 bb bd 58 b9 93 be
       -0.0074059963 -0.16625993 -0.09165946 -0.28852344
0000e0 07 1b 5a 3d dd ee 0c 3d b9 27 c2 bd 00 d3 fb bd
       0.05324843 0.034407485 -0.09480233 -0.122961044
0000f0 f0 e4 0f 3e b3 42 91 bd 3b 82 e9 bd 39 85 cb 3d
       0.14052176 -0.070928 -0.114017926 0.099375196
000100 46 a7 e4 3c c5 bd 5e bd ab a6 24 bd e5 97 71 3d
       0.027911793 -0.054380197 -0.04019801 0.05898275
000110 67 4a b9 bd e2 11 c6 bc cc dc 99 3d 0e 98 b2 bb
       -0.09047394 -0.024178449 0.07512817 -0.0054502552
000120 0d 72 41 bd 66 e7 03 be 8f a8 af bd 2b 07 31 3d
       -0.047227908 -0.1288124 -0.08577072 0.043219727
000130 06 25 7a bc 54 52 c7 bb ca 08 4a be 1f 34 81 3d
       -0.015267616 -0.0060828123 -0.19729915 0.063087694
000140 67 21 8e bc fb 6c 40 bd 7e eb bf bc 79 ad 06 be
       -0.017349912 -0.046978932 -0.023427721 -0.13152112
000150 b6 bd e5 bd 35 ed e6 bd 64 96 04 be 1f 97 7c 3d
       -0.11217825 -0.112757124 -0.12947994 0.061667558
000160 73 ec 03 3e d6 75 80 3c 1b 43 b5 bd ef 3b ea bd
       0.12883167 0.015681189 -0.0885069 -0.11437213
000170 06 e2 32 3d 33 6c e1 3d b5 71 e0 bd c0 9d 06 be
       0.043672584 0.110069655 -0.10959188 -0.13146114
000180 2c 70 8a bd d9 22 80 3c e3 64 f9 3c 41 85 11 bd
       -0.06759676 0.015641617 0.030443614 -0.03552747
000190 7f 4a 5c bc 9c 79 da 3d 90 09 21 be de c1 ed bd
       -0.013445496 0.106677264 -0.15726304 -0.11609243
0001a0 28 d0 a7 bd a4 a3 0e 3c 27 39 98 bb 32 0b fc 3d
       -0.081939995 0.008706007 -0.004645485 0.12306823
0001b0 52 77 15 3e e8 8d 35 3d ad 9b 03 be 04 a0 ed bc
       0.14596298 0.044324785 -0.12852354 -0.029006965
0001c0 a2 1f d6 bb c2 a5 61 bd 8f 97 76 bc 8a a2 9e 3c
       -0.0065345326 -0.05508972 -0.015050783 0.019364614
0001d0 c6 45 bf bd fb 0a ce bd 21 12 a6 bd a2 1d c6 bd
       -0.0933948 -0.10060688 -0.081089266 -0.09673621
0001e0 77 24 c4 bd 92 96 38 be 13 91 28 bd b9 6b 56 bd
       -0.095772676 -0.18026188 -0.04115398 -0.052348826
0001f0 66 78 99 bd 1b 1d d3 3d c4 73 56 3d 9f 80 a2 bd
       -0.07493667 0.10308286 0.052356496 -0.07934689
000200 a2 53 81 3d f1 9b d5 3c 68 b9 b7 3d b2 9d 01 bd
       0.0631478 0.026075335 0.0897091 -0.03164453
000210 ea 34 8d bc ad 0c b1 3a 9a 01 d1 bd c0 8d f6 bd
       -0.017237145 0.0013507806 -0.102053836 -0.120387554
000220 53 f5 dc 3d 8d 56 39 3b c7 21 96 bd c4 e5 35 bd
       0.107889794 0.0028280348 -0.07330661 -0.044408575
000230 f7 22 b8 3c 0f 08 d6 3d a1 7f 56 3d c9 b2 13 be
       0.02247761 0.10450756 0.05236781 -0.1442367
000240 59 cb 07 be 23 12 7c 3d af b2 b3 bd ce 80 1a bd
       -0.13261165 0.061540734 -0.087743156 -0.037720494
000250 13 e5 a4 bd 9b ea 4e 3d 62 13 80 3d be ad b3 bd
       -0.08051505 0.050516706 0.06253697 -0.08773373
000260 fe 24 13 3e c7 41 28 3e eb b9 9d 3d 79 c7 dd 3e
       0.1436958 0.16431342 0.07701477 0.43316248
000270 12 44 7d 3d 0d be aa bc 0b 7c a3 3d d9 17 ae bd
       0.061832495 -0.020842576 0.07982644 -0.08500642
000280 6e 88 03 3e 4f 5f 67 3c 27 c9 8c bd 5b ef 4f bd
       0.12845013 0.014121844 -0.06874304 -0.050765377
000290 60 c9 08 3d 99 dc ae bd d6 a1 3b 3e 51 74 1d 3e
       0.03339517 -0.085381694 0.18323454 0.15376402
0002a0 38 15 85 3d a0 ab a2 bd 93 3d ce bd d1 28 cd 3d
       0.06498188 -0.07942891 -0.10070338 0.10017551
0002b0 9b bd 55 bb ad 2a c3 bd f2 2f 8b bd 86 a1 01 3d
       -0.0032614234 -0.09529624 -0.06796254 0.03164818
0002c0 0a 04 00 bd 15 2c d7 bd a6 98 5c 3d 13 4f e6 3d
       -0.031253852 -0.10506455 0.053856514 0.11245551
0002d0 e5 ee b8 3c a1 82 87 bc 8f 9b d7 3d 7f fd de bd
       0.022574851 -0.01654178 0.10527717 -0.10888194
0002e0 05 3e 27 3d f4 c8 b4 bd 2e d2 89 3c 83 71 9a 3e
       0.04083063 -0.08827391 0.016823854 0.30164728
0002f0 5f 5f 98 3d db 17 b5 bc 11 68 24 3e 4f d9 d2 3c
       0.074400656 -0.022106102 0.16055323 0.025738386
000300 a0 1c 78 bd 5b 18 f7 3d e3 aa 09 bd 65 73 4e bc
       -0.060574174 0.12065192 -0.033610236 -0.012600754
000310 a6 60 79 bd c7 dc 6a bd d8 fc 92 bd 0c 93 07 3e
       -0.060883187 -0.057339456 -0.07177132 0.13239688

bias_hh_l0 f4 [200]
000000 52 bb 62 3d 45 a7 f7 bd 83 ff 4a bd 38 77 8d 3e
       0.055354424 -0.12092451 -0.04956008 0.2763002
000010 fa c3 e6 3d 1b ea 98 3e 4c 5b 17 bd af da ff 3d
       0.11267848 0.29866108 -0.0369523 0.124928825
000020 6a 39 81 bd af 23 e1 3d 96 49 14 3e 7d 02 12 3e
       -0.06309779 0.10993134 0.14481196 0.14258762
000030 61 5e e7 3d 9f 25 a8 bd 75 d9 05 3e 87 d5 2c bd
       0.11297298 -0.08210301 0.13071235 -0.042195823
000040 8a 3c 77 3e 4d 19 fb 3d 1f 9f 8a 3d 22 47 e8 3c
       0.24144188 0.12260685 0.06768631 0.028354231
000050 b3 07 16 3e 87 0c 60 3e 53 ed 14 3e 2b d3 aa 3d
       0.14651375 0.21879779 0.14543657 0.08341058
000060 5f 1c 08 3e 13 27 fa 3d ac 4b 26 bc e5 12 90 3d
       0.13292073 0.12214484 -0.0101498775 0.07034854
000070 22 ef ad bd 53 e1 d3 bc 18 7a e3 bd bf 93 fc bd
       -0.084928766 -0.025864279 -0.11107272 -0.12332868
000080 c6 60 82 bd cb 00 5b 3c 7b 8d e8 3c a3 3d f9 bd
       -0.06366114 0.013366888 0.028387776 -0.121699594
000090 2d 11 69 bd cc b0 b3 3e 0b d1 bd bc 3f 5b cd 3d
       -0.056901146 0.35095823 -0.023170969 0.100271694
0000a0 ac b8 c7 3d 22 cd 3a 3d 71 8f 0a bd 71 96 8b bd
       0.0975202 0.045605786 -0.033828203 -0.06815804
0000b0 83 41 b6 3d 2d a5 19 3e 86 28 34 3e 45 2f dc 3d
       0.08899214 0.15004416 0.17593583 0.107512034
0000c0 e7 68 e7 bd 7c ac b6 3c 5e 40 e3 3c 37 4d 82 bd
       -0.112993054 0.022299044 0.027740654 -0.06362384
0000d0 f3 50 82 3d e9 a0 48 bc b9 01 0e be e9 24 0e be
       0.06363096 -0.012245395 -0.13867845 -0.13881268
0000e0 65 d6 09 be e4 bb cc bd 8d e3 d7 3c 66 65 c5 3d
       -0.13460691 -0.09996775 0.026353622 0.09638481
0000f0 e7 62 4d bc 37 a8 da bd 1d e7 c1 3d 05 91 35 bd
       -0.012535787 -0.10676616 0.094679095 -0.044327755
000100 1e 28 c3 bd 75 ee d3 3b f6 85 be bd 76 ab b3 bd
       -0.09529136 0.0064676353 -0.09302895 -0.08772938
000110 3e ad a2 bc ce 5c 12 be 33 3c b1 bc 49 7b f7 3c
       -0.019857999 -0.14293215 -0.02163515 0.030210154
000120 f8 32 5a bc 29 41 e7 bd 67 5c eb bd a9 a5 f0 3d
       -0.013317816 -0.11291725 -0.11492234 0.11750347
000130 f3 8a f3 3d d2 73 c6 3d 48 dc 7a 3d 07 da 9a 3d
       0.11891737 0.0969006 0.061245233 0.07561117
000140 59 6d 03 3d fb f5 2a bd 72 6f a2 ba 52 5d 13 bd
       0.032086704 -0.04173849 -0.0012392832 -0.03597767
000150 d2 db 05 be a2 1d 34 3d ed 6a 7c 3d bf bb 39 be
       -0.13072136 0.043973573 0.06162541 -0.18138026
000160 19 20 e2 3d e5 5d 15 3e 0d 37 a3 3d 9f fd 96 bd
       0.110412784 0.14586599 0.079694845 -0.07372593
000170 c3 86 e2 bb ca 34 fc 3d 56 76 f5 bd 1c cd e4 3a
       -0.0069130375 0.12314756 -0.119854614 0.0017456147
000180 cb 79 b7 3d 0b bb e3 3d f1 44 d8 bd 92 28 e0 bc
       0.08958777 0.1111966 -0.105600245 -0.027363095
000190 1d 0a 10 3d c4 69 b4 3d de 61 04 be fd ea 0b 3e
       0.035165895 0.08809236 -0.12927958 0.1366386
0001a0 1d fc 2f 3d 84 c8 5d bb 57 85 4e bd 3f 83 bb 3d
       0.042965043 -0.003384144 -0.05042013 0.091558926
0001b0 e5 54 db 3d 26 19 bc bc 87 0f 8d 3d b5 2e 06 be
       0.10709552 -0.02296121 0.06887727 -0.13103755
0001c0 64 25 1d be 01 ba 8e bd b7 39 de 3d 19 69 51 3d
       -0.15346295 -0.06969071 0.10850852 0.05112562
0001d0 4a f5 c9 3a 75 86 22 3c a9 1f bf bd 90 d9 cd bd
       0.0015408185 0.009919752 -0.093322106 -0.100512624
0001e0 97 f9 14 be 16 98 36 3d 68 68 9d 3c bb e9 70 bd
       -0.14548336 0.044578634 0.019214824 -0.058816653
0001f0 f2 6a c4 bd 6f 28 cd 3d 4c be c8 3d 2c 0a 13 be
       -0.09590711 0.10017478 0.09801921 -0.14359349
000200 f6 54 dd 3d 72 ab 04 3e 95 2f 19 be 0a 1f 1c be
       0.10807221 0.12956026 -0.14959557 -0.15246215
000210 43 f1 0a 3e 81 35 b7 3d 1c c9 19 be fc 16 cb bd
       0.13568597 0.08945752 -0.15018123 -0.09916493
000220 9f fe f5 3d 2a 3e 52 3d 73 6d a5 3d c2 81 22 be
       0.12011456 0.051328816 0.080775164 -0.15869811
000230 9b cb 5c 3c a4 22 50 3d 7f 1f f1 bd ba d2 54 3d
       0.013476278 0.050814286 -0.117735855 0.051958777
000240 05 35 69 3d ef d9 fd bd 01 ca ed bd 21 de e0 3d
       0.05693533 -0.12395083 -0.11610795 0.10979868
000250 73 f2 b6 3b 36 a9 62 3b 9d d7 41 3d cc 90 00 3e
       0.0055831014 0.003458572 0.047324765 0.12555236
000260 60 e2 bf bc d9 10 87 3d f9 b0 27 3e 85 3c 97 3e
       -0.023423374 0.0659501 0.16376103 0.2953836
000270 1b bd e2 bd 56 3a d3 3d a5 14 ad 3d d7 47 1b be
       -0.11071225 0.10313861 0.08451203 -0.15164123
000280 00 b3 22 3e a3 a6 ec 3b 01 e6 e2 3d b9 25 0f 3e
       0.15888596 0.007222013 0.11079026 0.13979234
000290 02 19 2a 3e 10 ca 47 3d 8c 64 fc 3c 87 bf 97 3e
       0.16611102 0.048776686 0.030809663 0.2963831
0002a0 af 6a 27 3d 96 8f 83 3c fd c4 85 3d 0d c5 cc 3d
       0.040873226 0.016059678 0.06531713 0.09998522
0002b0 db 65 1b 3e ad c5 bd bd 36 cc 9f 3d 6b 1a b5 39
       0.15175574 -0.09266219 0.07802622 0.00034542693
0002c0 3a bd 91 3d 68 e7 01 3e 65 24 38 3d 11 20 e2 3d
       0.0711617 0.1268593 0.044956584 0.110412724
0002d0 a7 d4 1a bc 99 69 20 3c a2 48 0f be 6b ae a9 3d
       -0.009450114 0.009790801 -0.13992551 0.08285221
0002e0 08 51 f0 3d ca 7b 0d 3e e5 a6 85 3d 09 9b 6a 3e
       0.117342055 0.13816753 0.06525973 0.22910704
0002f0 d5 75 89 bd 59 55 d7 bc cb 6b 37 3e 21 6a 34 3e
       -0.06711928 -0.026285814 0.17912214 0.1761861
000300 2b 1d 0a bc 1d 07 a4 bd 4c dc 7c 3b 86 a5 10 3e
       -0.008429806 -0.08009169 0.0038583456 0.14125642
000310 0c f9 87 3a 0b 08 27 3e 8e df 0a 3e 92 82 20 3e
       0.0010373904 0.16311662 0.13561842 0.15674809

weight_ih_l1 f4 [200, 50]
000000 8e 84 36 3e 5d 32 3b 3e 25 72 b9 bd dc 93 24 3d
       0.17824003 0.18280931 -0.090549745 0.040180072
000010 d2 1d 04 3e 4c 58 af bd b1 25 d8 bd 98 a6 c4 bd
       0.12902 -0.08561763 -0.10554064 -0.09602088
000020 03 03 ce bd bc 1b 98 bd 9e b8 fc bc a3 09 16 be
       -0.10059168 -0.07427165 -0.030849751 -0.14652114
000030 46 2c c9 bd 8f 92 2c bd 83 fe 44 3e b8 c6 51 3e
       -0.098228976 -0.042131957 0.19237714 0.20485961
000040 65 45 c3 3d a2 a8 c6 bd 62 87 2d bd 6f 5b 1f bd
       0.0953472 -0.09700133 -0.04236544 -0.038905557
000050 5b 6f 88 bd 03 ba a6 bd 4a 3a 91 bd 17 b6 c9 bd
       -0.06661864 -0.08140948 -0.07091196 -0.09849184
000060 62 9d 68 bc c1 8c 7b bd 81 74 b8 3d 29 53 b1 bd
       -0.014197679 -0.06141353 0.09006596 -0.0865844
000070 55 94 d5 bd f3 14 34 bd 74 28 b5 3d 44 80 18 be
       -0.10428683 -0.04396529 0.088456064 -0.1489268
000080 11 fa 00 3e 79 9a 8c 3d ab 8b ec bb bf 85 80 bc
       0.12595393 0.06865401 -0.007218798 -0.015688775
000090 6f f7 b3 3d 7c b0 81 bd a6 b0 35 3e 3a c2 6b 3d
       0.087874286 -0.0633249 0.17743167 0.057558276
0000a0 f3 17 24 bd 12 6f 84 bc 56 09 68 bd 66 d7 dd bc
       -0.040061902 -0.016166244 -0.05664953 -0.027080249
0000b0 5a 4a cc bd 58 ea ba 3d f3 f6 22 be 35 22 3a bd
       -0.09975119 0.09126729 -0.15914516 -0.04544278
0000c0 85 e6 1d be 85 96 f9 3b cb 0a 50 3e 8a fb 8a 3e
       -0.15419967 0.0076168203 0.20316617 0.27145034
0000d0 48 1c ab bd ac 25 d4 3e e3 23 2a 3e a1 f4 cb 3e
       -0.083550036 0.4143499 0.16615252 0.39835075
0000e0 3b a2 82 be 1a ff 83 3d c7 a4 5d 3e c4 9d 1f 3d
       -0.25514397 0.06445141 0.21644889 0.038968816
0000f0 81 dc 85 bd 0b b7 9a be e0 5a 04 bd 0b 34 58 be
       -0.065361984 -0.30217776 -0.032313228 -0.21113603
000100 a8 98 21 3e 57 b2 95 3e fb ac fa 3d 3b 2a 20 3e
       0.1578089 0.29237625 0.12240025 0.1564111
000110 fe c9 48 bc bf 20 6b be b7 c9 fe bc 67 6f 74 be
       -0.01225519 -0.2296171 -0.031102045 -0.23870622
000120 c6 db e2 bd 47 9f f4 bc 78 51 89 be d8 fb 83 3e
       -0.11077075 -0.029861106 -0.26819968 0.2577808
000130 99 7a ab bd b2 c0 37 be 34 c8 7a bc d4 d1 0c 3e
       -0.08372993 -0.17944601 -0.015306521 0.13751918
000140 b3 65 3c be a9 d5 00 be ee 08 3f 3e f1 ec 62 3e
       -0.1839817 -0.12581505 0.1865575 0.22160698
000150 ee 0e 6c bd 4d d1 26 be a1 46 49 3e 62 1c 5c 39
       -0.057631426 -0.1629078 0.19655849 0.00020991408
000160 d9 c7 23 3e 8f c4 a8 be e3 1e 64 3e 15 5e 62 3e
       0.15994205 -0.32962462 0.22277407 0.22106202
000170 66 67 1a be c2 91 a3 be 05 af ec bd bb 8a 19 be
       -0.15078506 -0.31947142 -0.1155682 -0.14994328
000180 a0 35 61 bd cc 2d 3b 3e 1d 4d 6a be 64 82 67 3e
       -0.05498278 0.18279189 -0.22880979 0.22608334
000190 61 b4 b7 bc a0 46 3b 3d 43 03 4e 3d f1 9a 44 3e
       -0.022424879 0.04572165 0.05029608 0.1919973
0001a0 cc 67 f3 3d 52 54 ad 3e 09 39 8a bd f3 7f 18 3d
       0.11885032 0.33853394 -0.0674916 0.037231397
0001b0 6e f9 11 3d d6 ee da 3d 95 23 cb 3d c4 8e 89 bd
       0.035638265 0.106900856 0.09918896 -0.067166835
0001c0 30 b4 f5 3d 37 76 af 3d ec 77 16 3e d4 2b 10 bc
       0.11997259 0.085674696 0.14694184 -0.008799512
0001d0 9c 78 e3 3d aa 81 06 3e 3c e7 0f 3e bf fc 64 3d
       0.11106989 0.131354 0.14053053 0.0559051
0001e0 f9 55 c3 bc 55 4e 13 3c ed a7 51 3e 85 fc b0 bd
       -0.023844706 0.008990844 0.20474215 -0.08641914
0001f0 e1 9c 09 3d cb 87 90 bd 32 14 07 3d b6 38 a1 3d
       0.033596877 -0.070571505 0.032978244 0.07872145
000200 80 6a 53 3d 20 2b bf 3d 20 99 12 be 0e 0f 56 3d
       0.05161524 0.09334397 -0.14316225 0.05226045
000210 e6 d4 65 3d e2 b2 88 3d cc ab 1d be cb 27 8e 3d
       0.05611124 0.06674744 -0.15397567 0.06941184
000220 ba 05 2d 3e 67 6c 0e be bc 50 91 3c 13 02 fd bc
       0.16896716 -0.1390854 0.017738692 -0.030884778
000230 fb fb fc 3d be b1 51 3e c2 87 05 3e 84 34 c5 bd
       0.12352749 0.2047796 0.13040069 -0.09629157
000240 97 90 0a be 32 01 13 3d f3 d0 0b 3c aa 4c 25 3e
       -0.13531719 0.03588981 0.008533704 0.16142526
000250 04 c2 bf bc bd 86 d4 3d 9d 6c 29 3e 4c 22 6a bd
       -0.023407944 0.10377262 0.16545339 -0.057161614
000260 c8 c4 9c bd 6e 5d 71 bc 95 2c 24 bd 15 cd 97 3e
       -0.076547205 -0.014731748 -0.04008158 0.29648653
000270 64 13 f4 bc cf 74 b1 bc a2 ae 5e 3d 23 96 0b bd
       -0.029794402 -0.021662144 0.05436576 -0.03407873
000280 51 1f 08 bb 50 63 c9 3d 16 8e 2e bd b1 4f e6 bd
       -0.002077062 0.098333955 -0.042615972 -0.11245669
000290 29 15 f9 3d 6a 66 ed 3d 08 d2 1a 3e dd b8 5e 3e
       0.12162239 0.115917996 0.15119183 0.21750207
0002a0 2a 2f 1f 3e 3d ee 08 3d d2 a9 6c 3d 43 fd 59 3d
       0.15545335 0.033430327 0.05777914 0.053220045
0002b0 a3 aa 76 bd 45 43 cd bd f8 5e c7 3c f7 f6 5f bc
       -0.060221326 -0.10022596 0.024337277 -0.013669721
0002c0 b7 ff 6f 3c 86 1b 67 3d 49 77 d9 3d 2f de f9 3d
       0.0146483695 0.056422733 0.10618455 0.12200581
0002d0 81 ff 8f 3d 25 93 83 bd 8c 68 11 be af 28 a9 3d
       0.070311554 -0.0642455 -0.14200038 0.08259713
0002e0 cb f2 02 bc 5f 60 86 3c fd e7 05 3d a7 6c 6f bc
       -0.007992457 0.016403375 0.032691944 -0.014613307
0002f0 73 8a c3 3d 97 88 1a be d8 78 39 bd b6 59 bf 3c
       0.095478915 -0.15091167 -0.04528126 0.023358207
000300 86 1f 28 bc 69 0e 32 bc be 84 12 bd b4 6f fd bd
       -0.010261422 -0.010867693 -0.035771124 -0.12374821
000310 88 47 08 3d b0 e0 f7 bd 72 95 09 3c 12 33 d0 bd
       0.033271343 -0.121034026 0.008397447 -0.10165991
000320 5c b1 b3 bd 04 d6 02 3e 6c 38 44 bd 6d 3b e7 3d
       -0.08774063 0.12776953 -0.04790537 0.112906314
000330 06 fe 8d bd af 05 1b 3d c3 5e 40 3d d2 df 62 bc
       -0.06933217 0.037847217 0.04696537 -0.013847308
000340 b7 a4 a9 bc 6e 80 a6 3d 88 04 09 be 88 6f 79 bd
       -0.020708425 0.08129965 -0.13380635 -0.06089738
000350 8b 6e cc bc 8b 0c 8c 3d e5 30 37 3d 23 62 fe 3c
       -0.024955055 0.0683833 0.044724364 0.031052655
000360 a8 f8 a1 3c 1b e3 f5 3d 3e ca ca bd d5 8d 44 bd
       0.019771889 0.120062076 -0.09901856 -0.047986824
000370 c4 c9 01 3e 51 4a a5 3d e2 5d d2 bc 14 6a c6 3d
       0.12674624 0.08070815 -0.025679532 0.096882015
000380 56 bc 8a 3d f5 d4 80 bd 5b 11 32 3e 28 39 d0 bc
       0.067742035 -0.06290618 0.17389433 -0.02541788
000390 ee e5 63 3d b9 a6 04 be c6 b8 d8 bd 79 fd 1e 3d
       0.0556392 -0.12954225 -0.10582118 0.03881595
0003a0 db b2 b7 3d 3c 26 c7 bd c7 e0 ec bd e9 fe 35 bc
       0.08969661 -0.097240895 -0.115663104 -0.011108139
0003b0 47 0d db bd 52 5e cb 3b a4 2b ef bd 3c 51 f4 3d
       -0.10695892 0.006206312 -0.11678246 0.11929557
0003c0 44 8d 51 bd 62 c7 13 3e 99 a6 ec bc 2b 92 de 3d
       -0.051160112 0.14431527 -0.028888034 0.10867723
0003d0 dd 3c f0 3c 68 a9 34 bd 4e 67 d1 bc e3 06 5a 3d
       0.029325897 -0.04410687 -0.025561955 0.053229224
0003e0 5f b4 7c 3d c4 cf 98 bd 7b 5b 29 3c 9c 66 0d be
       0.061695453 -0.07461503 0.010336752 -0.13808674
0003f0 fe 47 05 be 55 df 06 3e 1b 24 51 3e be 3f b5 3d
       -0.13015744 0.13171132 0.2042393 0.088500485

weight_hh_l1 f4 [200, 50]
000000 16 3b 21 be 94 05 1c 3e aa 28 2d be 6f a0 16 3e
       -0.15745196 0.15236503 -0.16910043 0.14709638
000010 28 c7 a4 ba 43 58 28 be 47 4a 2f bd a6 65 d6 3d
       -0.001257156 -0.16439919 -0.042795446 0.10468607
000020 fa 6c 53 bd d2 ac b1 3d ce a6 20 bc 41 da 23 be
       -0.0516176 0.08675541 -0.009805394 -0.16001226
000030 20 2e 26 bd 69 09 85 bc 58 51 f6 bd 76 e8 37 3d
       -0.040571332 -0.016239839 -0.12027234 0.044899426
000040 df a2 ad bc ea 0d e6 bd 86 52 33 3d 37 0a 1e bd
       -0.021195827 -0.11233123 0.043779872 -0.03858396
000050 60 e0 cf bd 34 4c c0 3d 15 f9 cb bd 21 61 d1 bd
       -0.10150218 0.093895346 -0.09959618 -0.10223604
000060 13 4b 66 bd 0e 36 64 3d db 58 b5 3d ce 70 d5 3d
       -0.05622394 0.055715613 0.088548385 0.104219064
000070 ce f1 9a 3d 26 2f 7c bd 00 21 9d bd 3a c9 af 3d
       0.07565652 -0.0615684 -0.0767231 0.08583303
000080 ca 71 74 bc 49 41 1b 3c 79 42 c5 3d d8 b8 a1 3c
       -0.014919708 0.009476014 0.09631819 0.01974146
000090 fd 8b 81 bd d8 65 47 3c da fb 7f 3a ee 37 69 3d
       -0.06325529 0.012170278 0.0009765007 0.056938104
0000a0 b8 54 25 3e 62 e2 80 3d c5 4d 83 3d ee cc 0a bd
       0.16145599 0.06293179 0.06411318 -0.033886842
0000b0 bd b2 68 bd 34 34 6a 3c d1 0e 9f bd 52 3a 3a be
       -0.056811083 0.014294673 -0.07766498 -0.1818631
0000c0 fe 2f f7 3d 83 8b 57 bd a7 e9 66 3d 5a a9 70 3e
       0.12069701 -0.052623283 0.056375172 0.23502102
0000d0 9c 23 1e be 95 70 25 3e 11 76 89 3e f2 00 7b bd
       -0.15443271 0.16156228 0.2684789 -0.0612802
0000e0 a5 fa 8a be ba 5d 5d 3e 38 be 61 3e 21 c1 6b be
       -0.27144352 0.21617785 0.22045219 -0.23022892
0000f0 b3 17 3e 3d 37 39 87 be e1 31 60 be f0 ac 4e be
       0.04640932 -0.2641084 -0.21894027 -0.20183158
000100 b2 24 82 be 81 0e 59 bd a6 1e 55 3e 06 3b ea bd
       -0.2541862 -0.052992348 0.20812473 -0.11437039
000110 ac 9a 1c bd fe 62 93 3e c0 98 dc bd 11 d1 b4 bb
       -0.038233444 0.28786463 -0.10771322 -0.0055180867
000120 36 ea ce 3d 32 23 ab bd 78 79 15 be ca 26 37 3e
       0.10103266 -0.08356322 -0.14597118 0.1788589
000130 c4 a6 78 3e c9 98 7f be 41 ff 39 3e 4d 20 56 be
       0.24282366 -0.24960627 0.18163778 -0.2091076
000140 71 b3 39 be 22 1a 72 3d 38 a1 3a bd 3f 19 33 be
       -0.18134858 0.059106953 -0.045563906 -0.174901
000150 9d ea 38 bc fe 35 02 be e5 54 70 bc 9f 07 bb bd
       -0.011286405 -0.12715909 -0.014668678 -0.09132313
000160 ef e8 17 be 34 f7 67 3e b8 f3 04 3e a5 56 23 3d
       -0.14834951 0.22652894 0.12983596 0.039877553
000170 e4 e2 6f 3c 22 e8 31 3e 04 17 8f be 60 01 a5 be
       0.014641497 0.17373708 -0.27947247 -0.32227612
000180 0d b5 1b bd ec 57 87 be 95 f5 02 3e 44 90 a8 3c
       -0.03801446 -0.26434267 0.12788995 0.020576604
000190 cf 64 2d 3d cc 90 76 be 72 a1 2a 3c 0a 78 04 be
       0.042332467 -0.24078673 0.010414468 -0.12936416
0001a0 f3 4f fe bc 9e fa ab 3d df 0a 86 bd 4d 9c 5b be
       -0.031043982 0.08397411 -0.06545042 -0.21446343
0001b0 e6 29 8a 3c d3 ef bc bd a1 30 b8 bd e4 4f ca 3d
       0.016865682 -0.0922543 -0.0899365 0.09878519
0001c0 2d ca 03 be 22 92 1c bc 7a 9a de 3c b2 78 16 3e
       -0.12870093 -0.009556325 0.02717327 0.14694479
0001d0 89 f9 7b bd 42 45 88 bc b6 53 63 be b4 2a ef 3d
       -0.061517272 -0.016634587 -0.22199902 0.11678067
0001e0 38 bc d0 bd 6d 96 92 3d 39 0a 6f be 26 32 52 bd
       -0.1019215 0.07157598 -0.23343743 -0.051317357
0001f0 ea 57 2f 3c f1 5e 61 bd 08 48 84 3c 58 5a 93 bd
       0.010702113 -0.055022184 0.016147628 -0.07194966
000200 03 b3 05 3e 7b 52 c4 3d e2 d5 e2 bd 4e cc 1e be
       0.13056569 0.095860444 -0.11075951 -0.15507624
000210 ec 34 51 bd a8 f3 3b 3d 25 98 89 bb 45 c0 23 3d
       -0.05107586 0.045886666 -0.0041990452 0.039978284
000220 c4 d2 06 bc cc 41 92 bd 80 ae 8c bd 2d 62 5b 3d
       -0.008228961 -0.07141456 -0.06869221 0.053560425
000230 13 69 57 3d b8 a7 51 3b 12 c8 0b be 57 80 ff bd
       0.05259044 0.0031990837 -0.1365054 -0.12475651
000240 2e a4 d1 3c df 99 7d bc c0 2b d8 bd 1d 7e 05 bb
       0.025590982 -0.01547858 -0.1055522 -0.0020369359
000250 6b b8 dd bd 28 36 93 3d 2b c1 19 be 95 3d 5c bb
       -0.108261906 0.07188064 -0.15015094 -0.0033606042
000260 4c 18 e6 3d be 4f 79 3d d9 c9 b2 bd 13 c7 e9 bc
       0.11235103 0.060867064 -0.08729906 -0.028537309
000270 e6 51 fa bd 27 7f f5 bd e9 c4 2b 3d f9 9c e0 3d
       -0.12222652 -0.11987143 0.041935835 0.1096744
000280 2d 07 07 be a5 58 95 bc 58 c7 40 3d 0c bb a3 3d
       -0.13186331 -0.018230746 0.04706511 0.07994661
000290 46 69 5e 3a 9b 6c 19 bd 8c ef e0 bb 99 c3 d9 3d
       0.0008484315 -0.03745709 -0.0068644937 0.106330104
0002a0 cc 31 8d bd e5 6e a4 3c 90 03 ec bd 8e c2 2f bd
       -0.068942636 0.02007241 -0.11524117 -0.04291015
0002b0 22 62 23 be 4c 28 00 be ab 2d 64 3d 41 5b e3 3d
       -0.15955403 -0.12515372 0.055707615 0.1110139
0002c0 bc f2 d3 bd 31 0d d3 bd be af cd bd 79 de 96 3d
       -0.10349032 -0.103052504 -0.10043286 0.07366652
0002d0 3d 1e 31 be 70 a6 92 3d 58 50 c0 3d 25 c3 f6 3d
       -0.17296691 0.07160652 0.09390324 0.120489396
0002e0 2b 7d 88 3d 2c 45 7b 3d 21 8b db bd f5 70 c4 3d
       0.06664499 0.061345264 -0.10719896 0.09591857
0002f0 41 99 ce bd 9e 40 e5 bd 96 fe 18 be 90 ce b8 3d
       -0.100878246 -0.111939654 -0.14940867 0.09023774
000300 14 a8 a8 3d 6f 6d 4a bd 5c ef 3d 3d a9 f7 89 3d
       0.08235183 -0.04942077 0.04637085 0.067366906
000310 c4 d3 00 bd 92 d6 a4 bd d0 fa a1 bd be 66 3a 3d
       -0.031451955 -0.080487385 -0.07909167 0.04550814
000320 a1 97 b0 bd 0a 96 3f be c9 98 02 bd 66 3d 8e bd
       -0.08622671 -0.18709579 -0.03188399 -0.069453046
000330 f0 24 0c be 71 81 56 bd 6b b1 8e bc 90 e0 1c be
       -0.13685966 -0.05236954 -0.017418584 -0.15320039
000340 c1 81 8f bd 25 6b 32 3d e3 49 7b 3d 76 9f ed bd
       -0.070071705 0.043559212 0.06134976 -0.116026804
000350 0c 45 12 3e fc 06 b3 3c 86 5a 33 bd 0d 34 60 bd
       0.14284152 0.021853916 -0.0437875 -0.05473714
000360 68 62 8e bd 03 d4 0b 3d a5 4f 73 be c3 19 e8 bb
       -0.06952363 0.034137737 -0.2376085 -0.007083149
000370 7d d2 3a be 9f 0f e0 bc db 32 29 be 17 0a 4d 3c
       -0.18244357 -0.027351199 -0.16523306 0.012514613
000380 e2 c8 27 3d 53 cc c3 bc cf 03 ca 3c 69 62 04 3e
       0.04096306 -0.02390114 0.02466002 0.12928165
000390 e1 52 ec bc ed 7f 45 3e d8 f4 3d 3d fc 24 04 3c
       -0.028848113 0.19287081 0.04637608 0.008065458
0003a0 2e df 9f bd 19 c4 83 bc 94 25 e8 3d c0 c6 d3 bd
       -0.0780624 -0.016084718 0.113352925 -0.10340643
0003b0 68 4e 2d bd 3b fa 83 bc e5 f7 46 3d 0f a6 a9 3d
       -0.042311102 -0.01611053 0.048576254 0.08283626
0003c0 c4 66 d9 3c 44 ab ce bc f9 16 5c bd ac 17 94 bd
       0.02653826 -0.02522815 -0.053732846 -0.072310776
0003d0 8d b2 b3 bd 82 70 2c 3e 21 9f fd bd a4 c0 c5 3d
       -0.0877429 0.16839793 -0.12383867 0.09655884
0003e0 de db 37 be 63 93 23 3e fe d9 ae bd 66 c7 fa bd
       -0.17954966 0.15974192 -0.085376725 -0.122450635
0003f0 78 7b 57 bd bd ab df 3d 82 7c d6 bd 00 bc d2 bd
       -0.052607983 0.10921428 -0.10472967 -0.102897644

bias_ih_l1 f4 [200]
000000 88 91 2c 3e d5 cd 20 3e 37 77 ca 3d 42 a4 c6 bd
       0.16852391 0.15703519 0.0988602 -0.096992984
000010 ac 41 24 3d e7 4d 17 3d 4c 0c 19 bd c7 85 35 3d
       0.040101692 0.036939528 -0.037365243 0.044317033
000020 60 7c 1d bd 1a dd 46 bb 38 a5 52 bd 2d 58 58 3d
       -0.03844869 -0.003034419 -0.051427096 0.052818466
000030 67 e5 b5 3d d2 30 08 3c 65 ba 3d 3e a3 70 df 3c
       0.08881646 0.008312421 0.18528135 0.027275389
000040 37 6b 91 3d 0f e6 32 bc a1 fe 3d 3e 15 2a 61 3d
       0.07100528 -0.010919108 0.18554164 0.054971773
000050 56 15 aa 3c c3 b2 0c 3d c9 c2 3f 3d 7b 9c 9d 3d
       0.020762127 0.034350168 0.04681662 0.07695862
000060 7c 18 96 bd 30 74 cc bd 8d fd 00 3d b0 d7 da bd
       -0.07328889 -0.099830985 0.031491805 -0.106856704
000070 c5 c9 f1 3d f5 0d 82 3e 84 b8 9a 3c f5 41 8a bd
       0.118060626 0.25401273 0.018886812 -0.067508616
000080 53 5c 86 3c f6 e8 14 3e bd 5c 67 3d e1 63 04 be
       0.016401445 0.14541993 0.056484926 -0.12928726
000090 02 37 14 ba 9d 0b 02 3c 14 e3 b2 bc 5e 42 20 3e
       -0.0005653949 0.007937339 -0.021836795 0.15650317
0000a0 77 e5 eb 3d 76 04 a9 bd 13 95 1b bd 50 34 7e 3d
       0.11518376 -0.08252804 -0.037983965 0.062061608
0000b0 2b 57 d3 3c 66 9e 8d 3d 90 44 22 bc 4a 45 11 3e
       0.0257984 0.06914978 -0.009904042 0.14186588
0000c0 3a 20 2f 3d e8 b0 13 3e d0 9c 5b bd 27 07 76 3d
       0.042755343 0.14422953 -0.053616345 0.060065415
0000d0 8f 8c c3 bd 38 85 eb bd fe a5 7e 3d 33 2d d7 bd
       -0.09548294 -0.11500019 0.06217002 -0.10506668
0000e0 46 42 a4 3d f8 f3 18 be 09 3f d2 3d db 9f 07 be
       0.08020453 -0.14936817 0.10265929 -0.13244574
0000f0 f9 0b 12 be 72 38 3e 3d d1 7c 81 bd 58 73 fa 3d
       -0.1426238 0.04644055 -0.06322635 0.12229031
000100 75 71 28 be d9 48 72 bc 8d 81 b1 bd a7 75 61 3d
       -0.1644953 -0.014787876 -0.08667288 0.055043843
000110 39 f0 d3 3d 98 e2 a5 3d 5f 08 eb bd a1 f8 78 bb
       0.10348553 0.0809986 -0.11476206 -0.0037989991
000120 76 a4 00 be 16 b6 e7 bc 93 8d de bd 1f b9 d6 bd
       -0.12562737 -0.028285068 -0.10866847 -0.10484528
000130 fb 6f 64 bd 2d ff b3 ba 88 8f 2c bb 3b a9 49 bd
       -0.055770855 -0.0013732665 -0.0026330668 -0.049233656
000140 e2 bf d3 bd aa cd 59 3d 52 ae cc bd 8e 26 19 3d
       -0.10339333 0.053174652 -0.099941865 0.037390284
000150 22 7b 5f 3d 52 bb cc bd 00 ce 0a be cd 2c f2 bd
       0.054560788 -0.09996666 -0.13555145 -0.11824951
000160 da ed 9a 3d f1 28 89 bd 21 98 be bd 92 03 05 3d
       0.07564898 -0.06697262 -0.0930636 0.032474108
000170 56 1d ff bd 5b 4c 9a bb 8b 3e a0 bd 30 e4 b9 bd
       -0.12456767 -0.0047088093 -0.07824429 -0.090767264
000180 9b 66 69 bd c0 9c 91 bd ae 15 04 be d5 ef 06 bd
       -0.056982618 -0.07109976 -0.12898895 -0.032943565
000190 83 a2 d5 bd 13 c8 70 bd b4 b2 96 bd 06 36 81 ba
       -0.10431387 -0.058784556 -0.07358304 -0.0009858019
0001a0 33 e0 80 3d 37 c1 78 bd 7c 12 ab bd e8 4f 0f 3c
       0.062927626 -0.06073114 -0.08353135 0.0087470785
0001b0 8d b3 b5 3d 5f 9f 7f 3c 9b 43 55 bd ca 9f d5 bd
       0.08872137 0.015601962 -0.052066427 -0.10430868
0001c0 3a 3d e3 bd 8d a0 c1 3d c1 72 df 3b 8c d7 32 bd
       -0.110956624 0.09454451 0.0068190997 -0.043662593
0001d0 a5 fd 9f 3c 69 1b 47 39 37 8b 4c 3d 76 17 19 3e
       0.019530127 0.0001898833 0.049937453 0.14950356
0001e0 4c e5 e9 3b 6e 32 5b 3d cd 99 7d bd ee 2b 8e bd
       0.00713793 0.05351489 -0.061914254 -0.06941973
0001f0 57 75 9b 3d db 77 7d 3d 58 ae 8d bd 7d a2 b9 bd
       0.0759074 0.06188188 -0.06918019 -0.09064195
000200 2a 64 12 3e d0 11 88 3d 53 86 af bd 77 6c 5b 3d
       0.14296022 0.066440225 -0.08570542 0.053570237
000210 b3 27 19 be 8d 20 e8 bd b0 2c 14 be 5b 6c 87 bd
       -0.1495655 -0.113343336 -0.14470172 -0.06612464
000220 e1 bb eb 3d 64 3a 1b be d4 c2 3c 3d 26 4e 96 bc
       0.115104444 -0.15158993 0.04608424 -0.018347811
000230 24 e4 13 3d b7 30 14 3e 99 95 a4 3d cb 08 7b 3c
       0.036106244 0.14471708 0.08036346 0.015321921
000240 2b dc e7 bd a3 dc 6b 3c 72 b8 47 3d 5d 37 96 3c
       -0.113212906 0.014395866 0.048759885 0.018336946
000250 07 65 bb bc 14 c4 54 3d 33 b1 9f bd 13 37 ef 3d
       -0.022875322 0.051944807 -0.0779747 0.116804264
000260 e4 60 44 3d eb 20 19 3d 57 44 8d bd 59 3e e7 3d
       0.047943965 0.03738491 -0.068978004 0.11291189
000270 a5 8e 68 bc 27 ca 0b 3d 0f e2 06 3d d1 c3 af 3d
       -0.014194165 0.034128334 0.03293043 0.08582271
000280 7a d2 35 bd f6 ad 52 bd b9 af 53 3d 68 cc 97 bd
       -0.04439018 -0.051435433 0.051681254 -0.07412034
000290 eb aa 34 3e 6c d9 f8 3d 33 37 b4 3d 6b 25 e2 3c
       0.17643325 0.12150845 0.08799591 0.027605733
0002a0 c2 0b 80 3d 51 c0 18 3d e8 ac 29 3d 86 13 a3 3c
       0.062522426 0.037292782 0.041424662 0.01990677
0002b0 89 13 44 bd 42 a9 fc 3c 46 b5 68 3d a4 c9 e2 3d
       -0.047870193 0.030842427 0.0568135 0.11073616
0002c0 36 a4 23 3d b8 42 cd bd 67 37 1c 3e de 44 ad 3e
       0.039951526 -0.10022491 0.1525551 0.33841604
0002d0 70 f4 93 bd 1e c5 d2 bc 65 9a 09 3e c6 c2 37 3b
       -0.07224357 -0.025728758 0.13437803 0.0028039678
0002e0 d2 de 9f bd 68 4d f8 bd d2 83 f7 bd d3 c4 50 bc
       -0.078061715 -0.12124139 -0.120856896 -0.012742239
0002f0 a6 44 b7 3b 83 3a d0 bb 4a a0 bb 3d 42 a2 ef 3d
       0.0055929003 -0.0063546314 0.09161432 0.1170087
000300 95 80 1e 3e 9d bb cd 3d 3f e5 97 3d 4b 10 3b 3e
       0.15478738 0.1004555 0.07416772 0.18267934
000310 aa ca aa 3d 7d 0d 92 3c 13 6b 1b bd 7d 80 36 3d
       0.08339436 0.017828697 -0.03794391 0.04455613

bias_hh_l1 f4 [200]
000000 df e3 06 3e 9e 92 05 3e 08 d2 4a bb 1e 5d 41 bd
       0.13172863 0.13044211 -0.0030947942 -0.047207944
000010 5e 30 97 3c 0b 13 db 3d 30 25 f0 bd ca 0e 0d 3e
       0.01845568 0.106969915 -0.11725843 0.13775173
000020 4c 40 e2 3d 3c 6c 06 bc 9b 70 d9 bd 32 45 b6 bd
       0.1104742 -0.008204516 -0.10617181 -0.08899917
000030 1e 00 ab 3d 74 f7 ca bd d3 77 9e 3d a6 a4 7b bd
       0.08349632 -0.09910479 0.077376984 -0.061436318
000040 a5 ac bc bd 89 b3 90 bd 53 a6 bd 3d 13 42 fd ba
       -0.09212617 -0.070654936 0.092602395 -0.001932206
000050 53 a2 e3 3d b1 bf 4a 3c 8f 2b 7c bb a3 85 c9 3c
       0.11114945 0.012374804 -0.0038478111 0.024599856
000060 fd 48 76 bd 8f 77 60 bd 2c 91 ba 3d 55 93 16 bd
       -0.0601282 -0.05480152 0.091097206 -0.0367616
000070 a3 84 ef 3d a5 11 8c 3e 59 92 25 3e 84 a0 b6 3d
       0.1169522 0.27357212 0.16169108 0.08917335
000080 f4 fe 0b 3c 4c 71 04 3e 25 7c a0 3d 79 5f ad 3d
       0.008544672 0.12933844 0.07836179 0.084654756
000090 27 5e 59 3c 22 7c 13 3e 29 24 13 3e e6 bf 24 3e
       0.013267077 0.14402822 0.14369263 0.16088828
0000a0 6a de 6a bc 02 d7 04 3e e1 86 94 bc d8 df ac bd
       -0.014335254 0.12972644 -0.018130722 -0.08441132
0000b0 cb 36 05 3e 10 5b 43 3e f8 ea 48 bd 76 c6 4a bc
       0.13009183 0.19077706 -0.04905221 -0.012376418
0000c0 2f 4b 1d bd 78 46 53 3e 76 d5 81 3d 78 e7 c7 bc
       -0.03840178 0.2063235 0.063395426 -0.024402365
0000d0 b2 05 02 be a9 0b 3d bd 0b d9 b2 3c fe 4f ed bc
       -0.12697485 -0.046153698 0.02183201 -0.028968807
0000e0 32 6b e3 3d f8 c1 0e be 31 37 c0 bd 7b 5c 2e bd
       0.1110443 -0.1394118 -0.09385527 -0.042568665
0000f0 74 e8 15 be 6d 26 c5 bd 66 3a 08 3e 7c 04 a0 bd
       -0.14639455 -0.0962647 0.13303527 -0.07813355
000100 5b 1c 13 3d 1b a3 26 be b1 f6 c3 3d 17 af d7 3d
       0.035915714 -0.16273157 0.09568537 0.105314426
000110 f1 2a b6 bc a8 d5 2e bc 2e 41 43 be 21 e5 93 3d
       -0.022237273 -0.010671057 -0.19067833 0.07221437
000120 9a e1 72 3d 96 fe ca bc 5d 0f 82 3d af 84 0f 3d
       0.05929718 -0.0247796 0.063505866 0.035038646
000130 bf 19 e9 bd 46 3e 88 bd 4c b3 ad 3d 6c df 9d 3c
       -0.11381864 -0.06652503 0.08481464 0.019271575
000140 c2 0e 19 be 02 a8 9e 3d 80 eb 92 bd cd 0e 88 3d
       -0.14947036 0.07746889 -0.07173824 0.06643448
000150 2b 0b aa 3d 13 11 11 be ac 48 c5 bd 51 78 24 3d
       0.08302911 -0.1416667 -0.09633002 0.040153805
000160 b8 9f f1 3d 0f 0b bb bd f1 d4 9b bd ba 20 07 3e
       0.11798042 -0.09132969 -0.07608975 0.13196078
000170 a4 ff ae 3d 8e 7a 61 bc 1e 82 3b 3d 04 74 9d 3d
       0.08544853 -0.0137621295 0.045778386 0.07688144
000180 25 5b aa bd ae 8e c7 bd 5b 18 17 3b 4d f4 f1 bd
       -0.08318166 -0.09744011 0.0023055288 -0.11814175
000190 78 e4 1e 3d 5b 3c 2d 3c 2d 38 16 be bd a5 a7 3d
       0.038792104 0.010573472 -0.14669867 0.08185909
0001a0 82 31 f0 3d 10 a4 73 3d 9a 42 eb bd 32 b8 65 bd
       0.11728193 0.059482634 -0.114873126 -0.056083865
0001b0 eb 15 d7 3d 2c 2b f8 3c e2 54 07 bd 4a 38 2f 3d
       0.105022274 0.030294023 -0.033039935 0.04277829
0001c0 72 c1 20 bc b0 06 51 bd ae 23 5c 3d f3 a4 a6 3c
       -0.009811746 -0.05103177 0.053744964 0.020342326
0001d0 6e 9a f1 3d 9b af ed bd b1 63 d4 3c e6 b1 bb bd
       0.11797033 -0.1160576 0.025926443 -0.09164791
0001e0 33 21 4f 3d a9 26 15 bd 56 7f da bd 98 4a cd bd
       0.05056877 -0.036413822 -0.10668819 -0.10023993
0001f0 88 20 46 bd 32 bf 10 3e af 10 78 3d 5b ff 0a be
       -0.048370868 0.14135435 0.060562786 -0.13573973
000200 bc 8b 6b 3d d6 ed 83 bd 89 fa d5 bd f6 28 b6 bd
       0.057506308 -0.06441848 -0.104481764 -0.088945314
000210 b7 9f 7b bd e8 38 40 3c 03 a5 00 3d ef 8d c9 bd
       -0.061431613 0.0117323175 0.031407367 -0.09841525
000220 d9 3c 64 3d 1e 8d 8d bd d5 f9 b7 bd 63 ff 0f 3e
       0.05572209 -0.069116816 -0.089831986 0.14062266
000230 97 70 ab 3d b1 e6 0f 3e de 68 3f bc 14 a7 af 3d
       0.08371084 0.14052846 -0.011682717 0.085767895
000240 d3 da 4e bd 3f 8b 11 3d 89 78 1e be a8 d2 40 bd
       -0.050501656 0.035533186 -0.15475668 -0.047075897
000250 ee 60 e7 bd 69 db 9a bd 57 9c 63 bd 7c d8 3b 3c
       -0.11297785 -0.075613804 -0.05556902 0.011465188
000260 86 b8 7b 3d ef 91 6f 3d e3 94 90 3d 10 b6 0c 3d
       0.061455272 0.058488782 0.07059648 0.034353316
000270 76 84 6e bd 1d 38 e8 3d 11 8b 8d bc a9 07 90 3d
       -0.058231793 0.11338828 -0.017278226 0.07032711
000280 3c 4e 1f bd 53 cb ac bd 95 d4 2c 3d 9a 3d db bd
       -0.03889297 -0.084372185 0.04219492 -0.10705109
000290 51 d7 1e 3d 80 35 03 3e 78 72 3a bd 30 c9 34 3d
       0.03877956 0.12813377 -0.045519322 0.04413718
0002a0 19 4d e2 3d 9d b1 e1 3c 7f b7 00 3d 10 5b fb 3c
       0.110498615 0.027550513 0.031424996 0.03068307
0002b0 85 c5 8e bd 40 b6 00 be f5 22 0b 3e 5c da 75 3c
       -0.069712676 -0.12569523 0.13587554 0.015005674
0002c0 82 2f 61 bd 44 07 76 3d d2 81 08 3c 42 65 69 3e
       -0.054976948 0.060065523 0.008331733 0.22792533
0002d0 5a 24 77 bd e5 43 52 bd 43 84 f8 3d 8c 92 f0 3d
       -0.060337402 -0.05133428 0.12134602 0.117467016
0002e0 e6 87 ee bd c0 ae 94 3d 00 19 9a bd dd 08 92 bd
       -0.11647014 0.072598934 -0.075242996 -0.07130597
0002f0 d3 50 04 3d d1 b9 09 bd 28 b7 fc 3d d1 89 02 3e
       0.032303642 -0.033624474 0.12339622 0.12747885
000300 d4 5b 84 bc cf e0 9c 3d 97 84 05 3e 5a 26 5e 3d
       -0.016157068 0.07660066 0.1303886 0.054235794
000310 9b 31 31 3d 0f b7 51 bd 85 ea a4 3d 73 95 90 bb
       0.043260198 -0.05119997 0.080525436 -0.004412347
