mlruns/259183567906258607/models/m-486a541b462244f8beb38cb9f816d3f8/artifacts/data/model.pth (torch, 133029 bytes, 9 tensors)

weight_ih_l0 f4 [200, 3]
0.10957612 0.032221884 -0.022029936 -0.18488696 -0.05046472 0.042148247 0.17566358 0.059209026
0.11330058 0.049832284 -0.118346445 -0.09169002 -0.07062334 -0.032168344 0.025041506 0.025583494
-0.051996034 -0.13834073 0.012036789 0.085403 0.03730291 0.12076921 -0.0058528264 -0.14020067
0.1302504 -0.11647793 0.036548153 0.0672745 -0.05905307 0.01076898 -0.08097587 -0.03919021
0.10324052 0.28648525 -0.07384881 0.05915299 -0.059542704 0.12954591 0.08166699 0.20646861
0.01972214 0.004534632 0.11635739 0.07386922 0.06743184 -0.05410827 0.01809054 -0.024917945
0.050747234 0.078979194 -0.07830202 0.14212039 0.0925594 -0.006257221 0.07303366 -0.14115217
-0.11918453 -0.055654753 -0.18892606 -0.0282394 -0.048428085 -0.12792526 0.11544089 0.21656367
-0.10288591 0.10967098 -0.049451437 -0.058122523 -0.08797358 0.034476332 -0.05532551 0.13165875
0.09422073 0.06503772 -0.11693377 0.26575264 0.013726961 -0.075714625 0.18838918 0.20034519
-0.025925674 0.011774783 -0.082415715 0.055204496 -0.035093877 -0.04847866 -0.058409043 -0.10107518
0.055809733 -0.049123906 0.06579342 -0.075221434 -0.08408663 0.2042443 0.05592981 -0.0013434589
0.06840447 -0.025263764 0.07195537 0.12690826 0.06685228 -0.11788601 0.18945505 0.09523882
0.0076520145 0.07204189 0.06237325 0.0585272 -0.061807618 0.052682962 -0.0008109659 0.24427804
0.12391502 -0.09928043 0.06628503 -0.0034646003 -0.029605143 0.09933465 0.08956629 -0.010653466
0.29510117 0.10393574 0.119352564 -0.01668115 0.093847975 0.018032864 -0.04022158 0.0943511
0.073248446 0.06201894 0.100741 -0.0072068274 0.11407182 0.043082394 -0.055035897 -0.026995962
-0.054094106 -0.04352969 -0.028159587 0.09592937 0.13819294 0.29450098 0.0002792338 0.092378646
0.051151536 0.05726222 -0.03373552 0.022003625 0.026858563 0.110614136 -0.06070075 -0.048986007
-0.05299653 -0.36420655 -0.13596009 -0.014211059 -0.0013495395 -0.01672486 -0.07674584 0.16369165
0.08155888 -0.022997089 0.105690196 -0.13968605 0.08762324 0.0830458 0.13642266 0.1411712
0.17881207 0.16151784 0.012044951 0.0037591646 -0.09232381 0.100372285 0.1568078 -0.004670501
-0.034904234 -0.08148645 -0.097008266 0.08686663 0.0032488047 0.021776902 -0.04503762 0.15782459
0.083732784 0.011245906 -0.12665933 -0.058682512 -0.063165404 0.097012274 0.061952736 0.12211697
0.21163651 0.0683884 0.006750509 -0.06618967 -0.091631174 -0.097950004 0.098585255 0.14338197
0.048377022 -0.015309879 -0.09561003 -0.1296777 -0.15774816 -0.02763894 -0.022507042 -0.2579358
-0.0810804 -0.0144459605 0.081898205 -0.036267404 0.06402317 0.16075194 0.16308835 -0.05630873
0.09115395 0.10233601 0.12842835 0.16683993 -0.10751112 -0.039219603 0.089488335 -0.10667039
0.0819543 0.0027995897 0.112513654 -0.013709798 -0.07645979 -0.06392059 -0.07631328 0.1891081
0.018653145 0.099788904 0.22058074 -0.12511586 0.12140681 -0.24895135 -0.065745935 -0.098364145
-0.020919193 0.014483421 -0.083452955 0.17330016 0.00883926 0.07599352 -0.03921069 -0.006471535
0.04840128 0.08335274 0.01306081 0.05744444 0.11046146 0.022372212 0.054406136 -0.01039548
00000000: 7269 e03d 18fb 033d 2078 b4bc 0253 3dbe
00000010: 18b4 4ebd a4a3 2c3d 27e1 333e 2a85 723d
00000020: 220a e83d f01c 4c3d 9f5f f2bd fac7 bbbd
00000030: f8a2 90bd f4c2 03bd d823 cd3c 7a94 d13c
00000040: cbf9 54bd 31a9 0dbe f435 453c c5e7 ae3d
00000050: f0ca 183d d955 f73d 11c9 bfbb c490 0fbe
00000060: 5c60 053e fb8b eebd 84b3 153d 37c7 893d
00000070: a2e1 71bd 6070 303c add6 a5bd ea85 20bd
00000080: c46f d33d 32ae 923e 0b3e 97bd 684a 723d
00000090: 0de3 73bd afa7 043e 0641 a73d 826c 533e
000000a0: 5390 a13c 4097 943b c94c ee3d bf48 973d
000000b0: b419 8a3d a2a0 5dbd 9d32 943c b820 ccbc
000000c0: 55dc 4f3d d8bf a13d cf5c a0bd 0288 113e
000000d0: c88f bd3d 6009 cdbb ac92 953d 328a 10be
000000e0: 0517 f4bd 3df6 63bd d575 41be 5056 e7bc
000000f0: 875c 46bd d7fe 02be 466c ec3d dec2 5d3e
00000100: d9b5 d2bd 2e9b e03d 978d 4abd e211 6ebd
00000110: 7e2b b4bd 0e37 0d3d 019d 62bd 8dd1 063e
00000120: ccf6 c03d 7f32 853d f97a efbd bb10 883e
00000130: 0ce7 603c 4510 9bbd 18e9 403e 4a27 4d3e
00000140: 1462 d4bc 05eb 403c 92c9 a8bd 1c1e 623d
00000150: 99be 0fbd 8f91 46bd 523e 6fbd 8100 cfbd
00000160: bf98 643d 2636 49bd b3be 863d b20d 9abd
00000170: 9c35 acbd 6b25 513e a816 653d 0017 b0ba
00000180: a517 8c3d f4f5 cebc 565d 933d 3df4 013e
00000190: d9e9 883d 386e f1bd 8100 423e 920c c33d
000001a0: c0bd fa3b b38a 933d 187b 7f3d 38ba 6f3d
000001b0: fc29 7dbd 17ca 573d 0097 54ba 0624 7a3e
000001c0: 28c7 fd3d 8a53 cbbd 72c0 873d 590e 63bb
000001d0: 7c86 f2bc f76f cb3d 886e b73d e08b 2ebc
000001e0: 8017 973e 43dc d43d 1e6f f43d e8a6 88bc
000001f0: 5e33 c03d a8b9 933c 62bf 24bd 263b c13d
00000200: 4803 963d 9207 7e3d 4c51 ce3d 4027 ecbb
00000210: 7d9e e93d 2a77 303d 526d 61bd a326 ddbc
00000220: c891 5dbd 304c 32bd efae e6bc 9e76 c43d
00000230: 7382 0d3e d5c8 963e 2066 9239 0431 bd3d
00000240: 4684 513d ca8b 6a3d 422e 0abd f240 b43c
00000250: 7d06 dc3c aa89 e23d 5aa1 78bd 8da5 48bd
00000260: e412 59bd 4879 babe 1f39 0bbe 80d5 68bc
00000270: 08e3 b0ba 9302 89bc ec2c 9dbd c99e 273e
00000280: 5808 a73d 6464 bcbc 1a74 d83d dc09 0fbe
00000290: d073 b33d eb13 aa3d 62b2 0b3e 2f8f 103e
000002a0: 831a 373e ef64 253e 3058 453c 515c 763b
000002b0: 4414 bdbd fc8f cd3d 3992 203e 010b 99bb
000002c0: bef7 0ebd 5ee2 a6bd 45ac c6bd 22e7 b13d
000002d0: e6e9 543b 7965 b23c 5e79 38bd c59c 213e
000002e0: 187c ab3d c040 383c fcb2 01be 135d 70bd
000002f0: dd5c 81bd 5fae c63d 27c2 7d3d 7618 fa3d
00000300: 3eb7 583e 380f 8c3d 6033 dd3b 738e 87bd
00000310: 20a9 bbbd 039a c8bd 11e7 c93d b9d2 123e
00000320: fc26 463d 49d6 7abc 31cf c3bd 3bca 04be
00000330: bc88 21be 0f6b e2bc b060 b8bc 2910 84be
00000340: 7b0d a6bd c0ae 6cbc 3fba a73d 218d 14bd
00000350: 941e 833d 289c 243e a200 273e fca3 66bd
00000360: ecae ba3d 8b95 d13d b982 033e 16d8 2a3e
00000370: ca2e dcbd bca4 20bd a945 b73d 0176 dabd
00000380: a8d7 a73d 5279 373b 8f6d e63d 109f 60bc
00000390: f396 9cbd cce8 82bd 234a 9cbd 8ea5 413e
000003a0: 7bce 983c 205e cc3d ebdf 613e 5f1e 00be
000003b0: 22a4 f83d 1aed 7ebe cea5 86bd 2473 c9bd
000003c0: ba5e abbc df4b 6d3c 62e9 aabd 9975 313e
000003d0: 8bd2 103c 7ea2 9b3d 639b 20bd 2c0f d4bb
000003e0: 6c40 463d d7b4 aa3d 02fd 553c dc4a 6b3d
000003f0: 9e39 e23d ee45 b73c f8d8 5e3d ce51 2abc

weight_hh_l0 f4 [200, 50]
-0.1442259 -0.006622475 0.084513955 0.005287116 -0.091126785 0.14303106 -0.12171397 -0.10979096
0.015553705 -0.029385913 -0.11428666 0.16374569 -0.047587648 -0.038069725 0.096423425 -0.086649194
0.115292944 0.061412238 -0.058332436 -0.24764602 0.081686154 -0.05084254 -0.09836655 0.029180592
-0.055069886 -0.092220195 -0.10125607 0.07347973 0.096387856 -0.079489805 0.027023708 -0.086126104
0.026618108 -0.0072284695 -0.049206257 0.017682329 0.12778518 0.033768356 0.05154499 -0.05744721
-0.07466194 0.112825535 0.11426719 -0.03884823 -0.05343431 0.029206384 -0.07709534 0.035457313
0.125781 -0.0586176 -0.10037308 -0.09828858 0.18003452 -0.43595266 0.40104145 -0.40430403
0.41875285 0.21094733 -0.33824113 -0.048013665 0.16413064 -0.21400686 0.21843393 -0.26055685
-0.28373358 0.2662381 0.26602077 0.20645896 0.29265648 -0.13779964 0.33017847 0.28771955
-0.35408852 0.2536869 -0.25361854 -0.21175501 0.11985626 -0.4241797 0.28490424 -0.0821306
0.42594218 0.3254626 0.18521754 0.34580082 0.18900184 -0.37472627 -0.3060008 -0.16717662
0.19018932 -0.2568723 -0.36115548 0.2758014 -0.15619649 -0.24741131 -0.40421334 0.33479053
-0.18787932 -0.25171286 0.15153849 -0.2620088 0.0051144008 -0.13797595 -0.08625825 -0.1321961
-0.03989217 0.09213924 -0.0634884 -0.0862972 -0.09427305 -0.06722069 -0.09223085 0.017245723
-0.12744956 0.038906515 -0.12003554 0.13333642 0.0296616 -0.10477152 -0.13389409 -0.092656605
-0.10251509 0.039885387 -0.1059974 0.097353466 -0.14604594 -0.03258067 -0.16857998 0.13720645
0.054348953 0.047325574 -0.022645636 0.043715898 -0.0657469 0.0029303443 0.03844519 -0.064799935
0.06245439 -0.07463836 0.07858329 0.0074738734 -0.09469221 0.02167495 -0.048665028 -0.025695203
0.03209134 -0.08165548 0.12198644 0.14069754 0.078323215 -0.056960743 0.09181632 -0.12752998
0.12239934 -0.09153007 0.012858799 0.041032054 -0.04486781 0.13237593 -0.070394374 0.0079001635
0.11246955 -0.11422328 -0.07631524 -0.10384652 -0.11295479 0.074027136 -0.031892065 0.031882208
-0.17622049 0.07345029 -0.0074026557 0.1272291 0.09900104 -0.048263982 0.08806085 -0.13734198
-0.11032174 0.10450051 0.031517293 -0.15239204 0.13794328 0.14081351 0.09359995 -0.027501555
-0.15392746 -0.06427612 -0.024792917 -0.042177275 -0.08131781 -0.09666035 -0.112525895 0.13543315
0.11335746 -0.007344035 -0.035660896 -0.07207902 -0.13068743 -0.010789745 0.07287261 -0.019083092
-0.1347733 -0.15593289 0.05998662 -0.034904096 -0.12732874 0.07221576 -0.104558356 0.124785684
-0.109970614 0.121892706 0.0658031 0.07566308 -0.054970857 -0.102117516 0.09803439 -0.05678409
-0.073656656 -0.11846491 -0.021553887 -0.07955706 0.095925964 -0.10213579 -0.015941344 0.049324665
0.054812353 -0.059587352 -0.24639605 0.009638401 0.05151853 0.13666719 -0.053033724 0.098944634
0.070412 -0.0878921 0.030166727 0.13767326 -0.06022541 -0.09037401 -0.13796078 0.09182091
-0.1036524 0.12296838 0.016195953 0.1255247 0.1383885 -0.10765456 -0.04755545 -0.10490165
-0.051371768 -0.053652927 -0.11262306 -0.14969778 0.03489656 0.059584565 -0.054841388 0.031394564
00000000: f4af 13be 5901 d9bb a715 ad3d 8b3f ad3b
00000010: aea0 babd bc76 123e 2d45 f9bd 15da e0bd
00000020: f8d4 7e3c baba f0bc 200f eabd f3ac 273e
00000030: 44eb 42bd 00ef 1bbd a579 c53d 2275 b1bd
00000040: b51e ec3d 668b 7b3d feed 6ebd eb96 7dbe
00000050: 124b a73d 4440 50bd 6774 c9bd 230c ef3c
00000060: f690 61bd f1dd bcbd 585f cfbd 8a7c 963d
00000070: ff66 c53d 8dcb a2bd d360 dd3c e262 b0bd
00000080: 380e da3c ccdc ecbb 808c 49bd 88da 903c
00000090: 1eda 023e b050 0a3d d720 533d c44d 6bbd
000000a0: 5ce8 98bd 1311 e73d eb04 ea3d 521f 1fbd
000000b0: efdd 5abd 3a42 ef3c 29e4 9dbd b03b 113d
000000c0: bccc 003e 0219 70bd 6790 cdbd 864b c9bd
000000d0: f85a 383e 3035 dfbe 4e55 cd3e f000 cfbe
000000e0: c666 d63e 9402 583e f12d adbe faa9 44bd
000000f0: dd11 283e 9d24 5bbe 25ad 5f3e b567 85be
00000100: 8745 91be 5c50 883e e033 883e fa69 533e
00000110: 12d7 953e 591b 0dbe 270d a93e fa4f 933e
00000120: 174b b5be 40e3 813e 4ada 81be 4ed6 58be
00000130: 3377 f53d 152e d9be f8de 913e 1734 a8bd
00000140: 1815 da3e 09a3 a63e aba9 3d3e ce0c b13e
00000150: b389 413e 1fdc bfbe 23ac 9cbe 5930 2bbe
00000160: fdc0 423e c484 83be 5fe9 b8be d735 8d3e
00000170: f9f1 1fbe 6459 7dbe 0df5 cebe aa69 ab3e
00000180: 7063 40be 82e0 80be e82c 1b3e 0426 86be
00000190: b496 a73b 9149 0dbe 2aa8 b0bd 6a5e 07be
000001a0: f965 23bd 7fb3 bc3d 3506 82bd 96bc b0bd
000001b0: 3b12 c1bd 00ab 89bd 87e3 bcbd e746 8d3c
000001c0: 2382 02be 705c 1f3d 31d5 f5bd 5889 083e
000001d0: e2fc f23c 7392 d6bd 881b 09be bfc2 bdbd
000001e0: 6ef3 d1bd dc5e 233d 2a15 d9bd 4161 c73d
000001f0: 118d 15be 4f73 05bd 3ba0 2cbe d97f 0c3e
00000200: 029d 5e3d 76d8 413d 5783 b9bc 710f 333d
00000210: 50a6 86bd 050b 403b b478 1d3d d4b5 84bd
00000220: 2dd0 7f3d ffdb 98bd 47f0 a03d 65e7 f43b
00000230: fded c1bd aa8f b13c fb54 47bd bf7e d2bc
00000240: 3572 033d fd3a a7bd 07d4 f93d 0413 103e
00000250: ec67 a03d ab4f 69bd 320a bc3d 3897 02be
00000260: 81ac fa3d 1e74 bbbd b6ad 523c 3a11 283d
00000270: 4fc7 37bd 8e8d 073e ed2a 90bd b06f 013c
00000280: 6f56 e63d e5ed e9bd 2a4b 9cbd 7cad d4bd
00000290: d754 e7bd 8a9b 973d 41a1 02bd eb96 023d
000002a0: 2573 34be 1b6d 963d fa91 f2bb 5848 023e
000002b0: 0fc1 ca3d 74b0 45bd 3f59 b43d 60a3 0cbe
000002c0: 5df0 e1bd 5d04 d63d 4718 013d a90c 1cbe
000002d0: 0141 0d3e 6b31 103e 55b1 bf3d f14a e1bc
000002e0: 299f 1dbe 33a3 83bd 841a cbbc 14c2 2cbd
000002f0: f489 a6bd ddf5 c5bd fa73 e6bd fdae 0a3e
00000300: f527 e83d 3ba6 f0bb 2911 12bd 2a9e 93bd
00000310: edd2 05be 78c7 30bc 3c3e 953d 2554 9cbc
00000320: 0302 0abe dfac 1fbe 88b4 753d 99f7 0ebd
00000330: 7762 02be dbe5 933d b122 d6bd a38f ff3d
00000340: 4638 e1bd e2a2 f93d c7c3 863d 3ff5 9a3d
00000350: 1f29 61bd fd22 d1bd 41c6 c83d 6f96 68bd
00000360: 4dd9 96bd bb9d f2bd c791 b0bc d0ee a2bd
00000370: d574 c43d 922c d1bd 6c97 82bc a908 4a3d
00000380: eb82 603d de11 74bd 3f4f 7cbe 62ea 1d3c
00000390: 1805 533d 7cf2 0b3e e439 59bd 7ca3 ca3d
000003a0: 2b34 903d c600 b4bd 3620 f73c 38fa 0c3e
000003b0: ebae 76bd 0216 b9bd 9745 0dbe 9a0c bc3d
000003c0: b647 d4bd d9d6 fb3d 60ad 843c 8c89 003e
000003d0: b7b5 0d3e fe79 dcbd 81c9 42bd add6 d6bd
000003e0: 346b 52bd 2cc3 5bbd eba6 e6bd 604a 19be
000003f0: b2ef 0e3d f20e 743d 5da1 60bd 9697 003d

bias_ih_l0 f4 [200]
0.02948026 0.25361267 -0.08930661 0.017261863 0.114376515 -0.07080929 0.05570448 -0.032608286
0.15676822 -0.098077096 -0.049592495 0.0973773 0.021853197 0.15707657 -0.107754245 0.07656081
0.016183887 -0.0061114533 0.14641155 0.14346892 0.033529207 -0.010675027 0.08348267 0.07215614
0.081833735 -0.052152045 0.2988041 0.051313393 -0.023491453 -0.043479476 0.016188094 0.06658208
0.020458171 0.34875718 0.10413282 -0.0699321 0.12946111 -0.05843118 0.032824267 0.064450435
0.0992114 0.055674117 0.044298295 0.08694092 0.011003267 0.0124736605 -0.016101547 0.041045394
-0.05361945 0.07250069 -0.111856066 0.012040907 -0.0031404402 0.087527834 -0.008782755 0.05873666
-0.09478709 -0.024066059 -0.09576455 0.02951363 0.08670955 -0.00043707856 -0.05460922 -0.14871441
-0.15203354 -0.116505355 0.014014564 -0.07197123 0.012271907 -0.13111155 0.07829332 -0.023898762
-0.034502033 -0.04012469 -0.029801471 0.11675959 -0.15091349 0.019165944 -0.0037758844 -0.033002794
-0.032306645 0.13091974 0.067199975 -0.10073576 0.06540355 0.057255846 -0.022332875 -0.0056877853
0.07520941 -0.109590866 -0.15628473 0.03164356 -0.082202375 0.13978976 0.13669409 0.015933817
0.0888405 -0.05516627 0.009703889 -0.0750455 0.03639286 0.041168053 0.06903299 -0.114291996
0.10846626 -0.11517447 0.051070195 0.10697268 -0.12066563 0.10069096 0.049159035 -0.02003247
0.03180347 -0.05920531 0.014589214 0.055904742 0.00053837296 0.06854423 -0.08109538 0.08418945
0.121529706 0.08790818 -0.07694009 0.10288894 -0.1114559 -0.05528081 0.045401018 0.04221799
-0.038586568 0.076233864 0.1217447 0.089643404 0.13638613 -0.08326893 -0.030921526 -0.08532841
-0.09151575 -0.14339869 0.018705465 -0.16716938 0.08740196 0.027931849 -0.09880883 0.08744593
-0.045593776 0.0773547 -0.13107352 0.1180233 0.11611165 -0.13489355 -0.075866625 0.20313637
0.069634035 -0.056459986 -0.14545524 -0.10670545 -0.040265013 0.025186 0.07100842 -0.045150977
0.009335057 0.13302466 0.03070833 0.08055864 0.13917811 0.08277429 0.0937177 -0.073156856
0.0954155 0.3576619 0.08218355 0.07943097 -0.11776349 -0.057428725 -0.028935533 0.07868503
0.44801715 -0.10480817 -0.015521706 0.10842129 0.05808262 0.13009809 -0.09706421 0.14902882
0.024919726 -0.03561944 0.010653393 -0.032138955 -0.122094065 -0.072587155 0.00881745 -0.039285373
0.016208567 -0.12046738 0.012426413 0.020143848 0.12416217 0.112926275 0.092079915 0.1498966
00000000: 9680 f13c 85d9 813e 62e6 b6bd c068 8d3c
00000010: 3c3e ea3d 7604 91bd 612a 643d 4490 05bd
00000020: d987 203e a5dc c8bd 8021 4bbd c06d c73d
00000030: 7a05 b33c aed8 203e 42ae dcbd eacb 9c3d
00000040: 1294 843c 9642 c8bb e9ec 153e 84e9 123e
00000050: ec55 093d 4fe6 2ebc f6f8 aa3d 99c6 933d
00000060: 7298 a73d 629d 55bd dafc 983e fe2d 523d
00000070: 2671 c0bc 8917 32bd e59c 843c 305c 883d
00000080: e597 a73c 4d90 b23e 9743 d53d 9038 8fbd
00000090: 7491 043e 8855 6fbd bd72 063d 97fe 833d
000000a0: 592f cb3d 8b0a 643d 2172 353d 150e b23d
000000b0: 0c47 343c 535e 4c3c 64e7 83bc 371f 283d
000000c0: 12a0 5bbd 3e7b 943d cb14 e5bd 3947 453c
000000d0: d8cf 4dbb cb41 b33d 8be5 0fbc da95 703d
000000e0: bc1f c2bd 2f26 c5bc 3420 c4bd 91c6 f13c
000000f0: c794 b13d b127 e5b9 ebad 5fbd 9748 18be
00000100: aeae 1bbe 5c9a eebd 589d 653c a765 93bd
00000110: 1c10 493c 1b42 06be 4058 a03d 56c7 c3bc
00000120: 0152 0dbd c959 24bd 3722 f4bc a71f ef3d
00000130: 1189 1abe e601 9d3c d474 77bb f02d 07bd
00000140: f953 04bd d30f 063e 24a0 893d 8d4e cebd
00000150: 4cf2 853d 1b85 6a3d 6ff3 b6bc 9a60 babb
00000160: 6407 9a3d 2d71 e0bd 1b09 20be ad9c 013d
00000170: b859 a8bd 0c25 0f3e 89f9 0b3e a387 823c
00000180: 02f2 b53d 07f6 61bd 0ffd 1e3c 75b1 99bd
00000190: ae10 153d d59f 283d 2b61 8d3d ec11 eabd
000001a0: 8f23 de3d 98e0 ebbd fb2e 513d 7e14 db3d
000001b0: 8b1f f7bd 1037 ce3d fc5a 493d 221b a4bc
000001c0: 5b44 023d 4481 72bd 9907 6f3c 5ffc 643d
000001d0: 9921 0d3a eb60 8c3d 5615 a6bd 856b ac3d
000001e0: 91e4 f83d 3409 b43d c492 9dbd 70b7 d23d
000001f0: fe42 e4bd 216e 62bd 6bf6 393d c5ec 2c3d
00000200: f30c 1ebd 8020 9c3d 4955 f93d f696 b73d
00000210: cea8 0b3e e788 aabd 244f fdbc a9c0 aebd
00000220: 9c6c bbbd 1bd7 12be 343c 993c 732e 2bbe
00000230: ccff b23d 55d1 e43c 495c cabd da16 b33d
00000240: 8ac0 3abd 246c 9e3d 2338 06be 33b6 f13d
00000250: f2cb ed3d 8921 0abe f65f 9bbd fb02 503e
00000260: 4a9c 8e3d 9642 67bd 38f2 14be 6388 dabd
00000270: edec 24bd df52 ce3c dd6c 913d 3bf0 38bd
00000280: 11f2 183c 9e37 083e 0990 fb3c eefb a43d
00000290: b584 0e3e 9185 a93d 11ef bf3d 43d3 95bd
000002a0: 3469 c33d 761f b73e d94f a83d b4ac a23d
000002b0: fc2d f1bd 623a 6bbd 360a edbc 9e25 a13d
000002c0: 8162 e53e aaa5 d6bd c14e 7ebc fb0b de3d
000002d0: 0be8 6d3d 6f38 053e 9ac9 c6bd 039b 183e
000002e0: 7424 cc3c b1e5 11bd 928b 2e3c 23a4 03bd
000002f0: 740c fabd 93a8 94bd 1177 103c b3e9 20bd
00000300: d4c7 843c 9ab7 f6bd 2798 4b3c b604 a53c
00000310: bc48 fe3d e445 e73d 6594 bc3d 7f7e 193e

bias_hh_l0 f4 [200]
-0.08189497 0.30315214 -0.006617542 0.07794258 0.07165788 -0.077427015 0.16898628 0.15489708
-0.10609157 -0.12501658 0.08177081 -0.028595656 -0.039086152 0.17145252 0.16541389 0.011698736
-0.120584555 -0.04557061 0.21194406 0.31287766 -0.020011911 -0.08899443 0.02335221 0.13002065
0.06630102 -0.10509238 0.17445114 0.13941693 0.011231319 0.20373207 0.08593822 0.0062215873
-0.017210843 0.15828666 -0.03048048 -0.057257406 0.08080501 0.12141599 -0.049987078 0.12282809
0.2091063 -0.100231126 0.07863607 -0.11517493 -0.03009152 0.072985105 0.015501083 0.20320413
-0.053041294 -0.06409996 -0.14391367 -0.018623468 0.042269062 0.09419104 -0.014609876 -0.06727963
0.07939397 0.039660577 0.14010707 0.09623631 -0.11579325 -0.15472193 -0.024108088 -0.14709188
-0.031911965 -0.07680051 -0.004579926 -0.07941293 -0.027427534 -0.18773802 0.054529484 -0.062830396
0.04327673 0.073663406 -0.022400582 0.089934446 -0.19108059 0.12864144 -0.103392445 -0.10480818
-0.017034197 0.09959364 0.09089494 -0.023840917 0.01320933 0.08274488 0.061756786 0.14585768
-0.13502751 -0.07935131 -0.017318651 0.11669309 -0.015826572 -0.10949901 -0.13035153 -0.08875569
0.014128747 -0.15926376 0.07567107 -0.09200566 0.09237972 0.0052275006 0.13389298 -0.08276133
-0.00011885218 -0.06876856 0.031932894 0.11369021 -0.1494689 -0.102173895 0.14630479 -0.071974285
0.03802227 0.093502015 0.10655891 0.13225971 0.12165989 0.008763206 -0.075972214 -0.093916215
-0.038174804 0.061931737 -0.11057629 0.018728876 -0.13117482 -0.09807813 -0.10058706 -0.030095287
0.09721513 0.048021626 -0.074340574 0.0922305 0.0068774875 0.09255146 0.110426776 -0.14682065
-0.022181666 -0.07494046 0.08762863 0.07971944 0.017770639 0.06928332 -0.13117577 -0.111751765
-0.13768771 0.13957593 -0.07586932 -0.02121622 0.09333722 -0.1601053 -0.077389106 0.26636136
-0.1237221 0.120875895 -0.08163709 0.056977868 0.0016295506 -0.11180995 0.097442426 -0.11369122
0.14134167 0.067401595 0.06321565 0.0817996 -0.0077602523 0.096923836 -0.11619718 -0.091553815
0.211596 0.39135936 -0.09591708 0.04194741 0.07571444 -0.06343879 -0.11159299 -0.105440035
0.2026687 -0.0899079 -0.122842684 0.18004398 0.06288562 -0.030467276 0.11241165 0.2002096
0.06135812 0.08681299 -0.0922474 -0.0069792573 -0.03654429 -0.098555095 0.2511949 0.09329787
-0.14319347 0.07193273 0.14243664 0.11995195 0.047956355 0.11438693 0.09355957 0.020588947
00000000: 8db8 a7bd c236 9b3e f7d7 d8bb 5ca0 9f3d
00000010: 5ec1 923d 0e92 9ebd bd0a 2d3e 579d 1e3e
00000020: 8946 d9bd 5904 00be 7477 a73d 7041 eabc
00000030: cd18 20bd 4091 2f3e 4262 293e 0eac 3f3c
00000040: 09f5 f6bd 3fa8 3abd dd07 593e 8031 a03e
00000050: 05f0 a3bc b642 b6bd 224d bf3c 2224 053e
00000060: d4c8 873d ac3a d7bd 52a3 323e 50c3 0e3e
00000070: 9103 383c 249f 503e 6100 b03d 75de cb3b
00000080: c1fd 8cbc e615 223e 33b2 f9bc be86 6abd
00000090: 197d a53d f2a8 f83d 40bf 4cbd 4b8d fb3d
000000a0: f61f 563e fa45 cdbd f30b a13d d5e0 ebbd
000000b0: 7e82 f6bc 3779 953d 41f8 7d3c be14 503e
000000c0: d441 59bd d746 83bd 1b5e 13be 3e90 98bc
000000d0: 5322 2d3d 3be7 c03d 435e 6fbc e7c9 89bd
000000e0: 4e99 a23d 2173 223d 3a78 0f3e 8b17 c53d
000000f0: 0325 edbd 6d6f 1ebe 537e c5bc 419f 16be
00000100: 1fb6 02bd 9649 9dbd 3413 96bb 3fa3 a2bd
00000110: b5af e0bc 653e 40be 4f5a 5f3d 39ad 80bd
00000120: f142 313d d7dc 963d 6d81 b7bc 8d2f b83d
00000130: a1aa 43be 95ba 033e 6bbf d3bd aca5 d6bd
00000140: 4d8b 8bbc c0f7 cb3d 2027 ba3d 074e c3bc
00000150: f26b 583c 2676 a93d aff4 7c3d b75b 153e
00000160: a744 0abe f182 a2bd d8df 8dbc c9fc ee3d
00000170: baa6 81bc 0441 e0bd df7a 05be 8bc5 b5bd
00000180: 437c 673c 0a16 23be 6ff9 9a3d 776d bcbd
00000190: 9431 bd3d 744b ab3b 3e1b 093e c67e a9bd
000001a0: 4740 f9b8 88d6 8cbd 11cc 023d 6ad6 e83d
000001b0: 600e 19be 8c40 d1bd ecd0 153e 4167 93bd
000001c0: 3dbd 1b3d fc7d bf3d 8f3b da3d 176f 073e
000001d0: d228 f93d 8d93 0f3c 5297 9bbd 2557 c0bd
000001e0: 2f5d 1cbd 22ac 7d3d d275 e2bd 4d6d 993c
000001f0: b152 06be 30dd c8bd 9700 cebd 648a f6bc
00000200: ba18 c73d 53b2 443d df3f 98bd 58e3 bc3d
00000210: 8c5c e13b 9f8b bd3d 6f27 e23d 2758 16be
00000220: 53b6 b5bc 627a 99bd a476 b33d f243 a33d
00000230: bb93 913c 6ae4 8d3d f152 06be 1cde e4bd
00000240: 02fe 0cbe feec 0e3e 6061 9bbd a3cd adbc
00000250: 9627 bf3d a5f2 23be 2e7e 9ebd 8460 883e
00000260: 0362 fdbd c88d f73d 5931 a7bd a061 693d
00000270: a596 d53a 9dfc e4bd e58f c73d f1d6 e8bd
00000280: dfbb 103e d909 8a3d 3577 813d 8c86 a73d
00000290: b749 febb 0180 c63d c9f8 edbd 9180 bbbd
000002a0: 9fac 583e 4160 c83e 2d70 c4bd 0cd1 2b3d
000002b0: 2c10 9b3d 32ec 81bd de8a e4bd f2f0 d7bd
000002c0: 6288 4f3e a221 b8bd f294 fbbd 735d 383e
000002d0: 2dca 803d 8296 f9bc 1438 e63d bf03 4d3e
000002e0: a752 7b3d 02cb b13d 34ec bcbd 41b2 e4bb
000002f0: 77af 15bd 41d7 c9bd 9e9c 803e f412 bf3d
00000300: 4fa1 12be 7851 933d e9da 113e 5ea9 f53d
00000310: e26d 443d b243 ea3d 299c bf3d 27aa a83c

weight_ih_l1 f4 [200, 50]
-0.13287231 0.18057483 0.00029601852 0.10351921 -0.15233889 0.07276281 -0.13127254 0.099103436
0.050390165 -0.0027983359 -0.15963183 -0.17731678 -0.12125105 -0.13297372 -0.07707972 -0.12592925
0.056090683 -0.10429018 -0.057767957 0.09525537 0.029775843 -0.11623112 0.0053677503 0.12284216
0.13264908 0.103839144 0.36309817 0.06799821 -0.09719529 -0.2543977 -0.101878606 0.08163303
-0.014378139 0.3184539 0.10974538 -0.025759114 -0.059380565 -0.12177057 -0.12936923 0.06451928
0.008664838 -0.056091845 -0.037457988 -0.05673867 -0.11318256 0.14852446 -0.074606195 -0.21313104
0.007591124 -0.0045286394 -0.00477574 0.3009791 -0.07160669 0.051779516 0.021556033 0.036677577
0.12826824 0.13087115 -0.040888123 0.11402045 0.09554099 -0.058499034 -0.018686576 0.016920894
0.056939617 0.014799259 -0.021168526 0.06585106 -0.1938337 0.16779153 -0.11609595 0.1522195
-0.13177833 0.10051078 -0.046371102 0.028626649 0.3973431 -0.15337673 -0.111860715 -0.053198647
-0.011571992 0.08674271 0.018402461 0.21435395 -0.11693715 -0.02559267 -0.005790995 -0.081919976
0.09712891 0.01574972 -0.117456086 0.05211808 -0.02066283 0.036379088 -0.094013244 0.1100033
0.03646239 -0.056529257 -0.09950137 0.04069719 0.17416514 0.24272782 -0.10101784 -0.1326879
0.06886816 -0.13361534 0.12585248 0.15206896 -0.10996342 0.07257797 0.11318074 -0.18290983
-0.042631514 0.07475593 0.12500933 -0.07405353 0.018205976 0.10258151 -0.094627745 0.25664142
-0.034299094 -0.08420491 -0.14026128 0.07165802 0.04392041 0.08845947 0.35750166 0.111624874
0.1404103 -0.15652484 -0.1451082 0.06787972 -0.053977203 0.22377037 -0.13645291 0.09617235
-0.035458166 -0.048141472 -0.10818664 -0.11135102 -0.032106 0.059588008 0.049879663 0.06738906
-0.007154368 -0.023648119 -0.13130163 0.06327674 0.08142082 0.055942696 0.028244745 0.032344647
0.07356793 0.045082953 0.010959799 0.0132319275 0.05012116 -0.013135666 0.02795844 -0.05988617
-0.1029914 0.059748393 0.06006873 -0.010054048 0.053524997 -0.00586182 0.09529146 -0.058095064
-0.08508172 0.24444328 0.006292766 0.004643547 -0.013946989 -0.029221205 -0.100077234 -0.104513265
0.35302392 -0.051179804 0.073089436 -0.27941027 -0.1445261 -0.11012405 0.115353316 0.27271596
0.022550497 0.1334307 -0.08881792 -0.1263639 -0.065501764 -0.118603304 0.0061862166 -0.005357656
0.05039405 -0.115144 -0.09625841 -0.13488486 -0.05611008 -0.07268405 0.014671905 -0.08322532
0.14200656 0.2348045 0.14089108 0.08491598 0.1085225 0.04537802 0.107643746 -0.105983
0.072489485 0.13442133 -0.050567485 0.08070994 -0.103650615 0.027850622 -0.14573385 0.09404016
-0.11056713 0.048670046 0.03678567 0.17441462 -0.120766275 0.07947115 0.10177781 0.014699791
0.05512417 -0.07339389 0.24704397 -0.15563422 0.13264653 -0.08070658 0.088190176 -0.056369178
0.019729655 0.20319927 -0.10883604 -0.13165882 0.02692178 -0.09567334 0.10879001 -0.07285756
-0.14004001 0.037142657 0.06872352 -0.028136758 -0.07641478 0.1007772 -0.11892116 0.018583823
-0.059394453 0.12764348 0.07198316 0.12557282 -0.015134789 -0.14078116 0.11875764 -0.12797903
00000000: ae0f 08be 9ce8 383e ef32 9b39 e101 d43d
00000010: bafe 1bbe ab04 953d 4f6c 06be bef6 ca3d
00000020: eb65 4e3d 4964 37bb 8776 23be 8892 35be
00000030: 7852 f8bd 432a 08be f9db 9dbd 99f3 00be
00000040: 58bf 653d 1796 d5bd 189e 6cbd 3f15 c33d
00000050: 78ec f33c 950a eebd f4e3 af3b ac94 fb3d
00000060: 29d5 073e 9ea9 d43d 01e8 b93e a542 8b3d
00000070: 530e c7bd 6a40 82be bba5 d0bd 382f a73d
00000080: 4992 6bbc 640c a33e 30c2 e03d c704 d3bc
00000090: 0939 73bd d962 f9bd 5e79 04be af22 843d
000000a0: f7f6 0d3c 90c0 65bd 8c6d 19bd cf66 68bd
000000b0: 42cc e7bd cc16 183e 22cb 98bd 063f 5abe
000000c0: f7be f83b fb64 94bb d07d 9cbb ef19 9a3e
000000d0: 87a6 92bd c216 543d 4796 b03c 3a3b 163d
000000e0: c058 033e 1603 063e 4e7a 27bd 8e83 e93d
000000f0: ffaa c33d af9c 6fbd 9714 99bc b09d 8a3c
00000100: 8439 693d 9778 723c 9e69 adbc ecdc 863d
00000110: 577c 46be 8bd1 2b3e b7c3 edbd 6edf 1b3e
00000120: e6f0 06be 99d8 cd3d a0ef 3dbd 6f82 ea3c
00000130: 8e70 cb3e ca0e 1dbe 3b17 e5bd d3e6 59bd
00000140: 7498 3dbc 29a6 b13d c2c0 963c 9a7f 5b3e
00000150: bf7c efbd b8a7 d1bc 63c2 bdbb a9c5 a7bd
00000160: 86eb c63d 8f05 813c d18c f0bd c579 553d
00000170: 1845 a9bc 3d02 153d 048a c0bd 6949 e13d
00000180: 9659 153d 398b 67bd 60c7 cbbd 19b2 263d
00000190: 5958 323e a48d 783e 71e2 cebd 56df 07be
000001a0: c00a 8d3d 76d2 08be 79df 003e f7b7 1b3e
000001b0: 8034 e1bd c2a3 943d 4ecb e73d b74c 3bbe
000001c0: 629e 2ebd a319 993d 7202 003e 61a9 97bd
000001d0: b324 953c 4116 d23d 31cc c1bd 8166 833e
000001e0: 357d 0cbd a073 acbd a7a0 0fbe 71c1 923d
000001f0: e3e5 333d 3d2a b53d 750a b73e 959b e43d
00000200: b8c7 0f3e 0c48 20be 3e97 14be 8604 8b3d
00000210: 3317 5dbd 0f24 653e 50ba 0bbe 02f6 c43d
00000220: 953c 11bd fe2f 45bd f590 ddbd 010c e4bd
00000230: 9581 03bd 8e12 743d 9e4e 4c3d 4703 8a3d
00000240: 306f eabb b3b9 c1bc ef73 06be 3c97 813d
00000250: f5bf a63d 2b24 653d 8661 e73c d27b 043d
00000260: c8aa 963d e7a8 383d bb90 333c baca 583c
00000270: d84b 4d3d fa36 57bc 1909 e53c 334b 75bd
00000280: 28ed d2bd bbba 743d a10a 763d bcb9 24bc
00000290: 073d 5b3d 8314 c0bb 2b28 c33d 17f5 6dbd
000002a0: 533f aebd 574f 7a3e 8c33 ce3b e528 983b
000002b0: e981 64bc 4f61 efbc 4bf5 ccbd 0d0b d6bd
000002c0: 8dbf b43e eaa1 51bd eaaf 953d dd0e 8fbe
000002d0: a6fe 13be b888 e1bd 5c3e ec3d 6da1 8b3e
000002e0: d2bb b83c 0fa2 083e 2be6 b5bd 8a65 01be
000002f0: ca25 86bd 4ae6 f2bd bfb5 ca3b 478f afbb
00000300: fe69 4e3d 9ed0 ebbd 2123 c5bd 421f 0abe
00000310: afd3 65bd 60db 94bd 6e62 703c 0972 aabd
00000320: 2b6a 113e 9770 703e c045 103e 6ee8 ad3d
00000330: 0b41 de3d 4dde 393d 5374 dc3d 9d0d d9bd
00000340: 5e75 943d bfa5 093e da1f 4fbd 414b a53d
00000350: c646 d4bd fd26 e43c 413b 15be 2198 c03d
00000360: 0571 e2bd 3e5a 473d 92ac 163d bf99 323e
00000370: 4f54 f7bd c5c1 a23d e270 d03d 64d7 703c
00000380: e2c9 613d 894f 96bd 18f9 7c3e 945e 1fbe
00000390: 7ed4 073e 7e49 a5bd 0d9d b43d 5ee3 66bd
000003a0: 16a0 a13c 7813 503e 6ee5 debd 92d1 06be
000003b0: 118b dc3c 62f0 c3bd 4ccd de3d 5836 95bd
000003c0: a666 0fbe e622 183d ebbe 8c3d 0f7f e6bc
000003d0: 5a7f 9cbd 4764 ce3d f08c f3bd 1a3d 983c
000003e0: 9947 73bd f9b4 023e e86b 933d 2996 003e
000003f0: e8f7 77bc f028 10be 3537 f33d ef0c 03be

weight_hh_l1 f4 [200, 50]
0.10627571 -0.06488677 0.12585124 0.061389945 0.060267657 0.07844752 -0.021548698 0.09294334
0.13997127 0.06944963 0.11761565 0.18274072 -0.029624669 0.041281793 -0.023473911 0.062647715
0.2026001 0.017795289 0.026819706 -0.113503985 -0.023211095 -0.05718484 -0.006692529 -0.040017527
-0.016042868 0.044718917 -0.024944216 0.082991175 -0.13233723 0.12052269 -0.10602272 -0.014267965
-0.13169646 0.058528587 0.031552844 0.18766844 -0.031924456 0.13347289 -0.12253027 0.071733914
-0.015753549 0.0770406 0.028820883 -0.011224051 0.15402949 0.15901956 -0.00029447043 -0.08260884
-0.04634493 -0.159502 0.08464245 0.05932641 0.07025806 -0.029709384 0.06401354 0.0268463
0.0914674 -0.0002897947 0.085119426 -0.044779792 -0.11794089 -0.100197464 -0.08175128 0.0027609477
-0.059425548 0.124894544 -0.09345838 0.05476805 0.060715705 -0.11929835 0.10103613 0.06412753
0.05648174 0.060585164 -0.19001819 -0.11200768 0.033459533 0.11991323 -0.057931315 -0.054432627
0.06684319 -0.13406458 -0.11025486 -0.059342578 0.094704635 0.0323492 -0.1393239 0.09206595
0.025073785 0.0025363313 0.036022287 -0.046099026 -0.050252 -0.06867394 -0.05800897 0.042458136
-0.04189914 0.11618995 0.105634145 0.1344242 -0.1452045 -0.14396136 0.12992032 -0.061146084
-0.08464951 -0.060234275 -0.07108824 0.042736735 -0.0042905533 0.10458527 -0.14656617 -0.003667746
0.009857618 0.058116175 -0.049058214 0.032760777 0.31307578 -0.07610909 -0.066143885 0.07117137
0.035478983 -0.108125746 -0.00827551 -0.092975765 0.21136706 0.05736233 -0.058799073 -0.048922468
0.016265323 -0.097935505 -0.08807128 -0.015993126 -0.07890236 0.088496126 -0.00979005 0.08022197
-0.022040602 -0.05860012 -0.15238343 -0.07085796 0.1819373 -0.044072837 0.21643984 -0.0018608734
0.041027576 -0.11627565 0.029203968 0.09587046 0.1253577 -0.15544465 -0.09932187 -0.006199227
0.14849932 0.1510341 -0.06219754 0.15129878 -0.023709055 -0.019765968 -0.08226123 -0.041722663
-0.037303504 -0.025642054 0.11442212 -0.07002496 0.002831221 0.092968285 0.09238821 0.08138497
0.073105715 0.030054059 -0.111844055 0.05451177 0.08631641 0.05099153 0.18462639 0.022195298
0.010675664 -0.020294888 -0.12756726 -0.06101635 -0.120025754 -0.086435266 -0.019841168 0.08213713
-0.15713225 0.045890033 -0.026026938 -0.022161145 -0.13341475 -0.08789052 0.1362462 -0.02834163
0.27432823 0.07062246 0.09563039 0.006404117 0.047525287 -0.17543831 -0.021975337 0.020232089
0.03036282 -0.11840689 0.089330874 -0.040401086 0.03391768 0.073530905 -0.05809617 0.0920715
-0.06618531 -0.096611105 0.0680969 0.0036279617 -0.044826947 0.04424347 -0.057540108 0.048708607
0.12461017 -0.006305595 -0.040184412 0.034576565 -0.0001713048 0.027153404 0.042264856 -0.08016118
0.19661854 -0.12781402 0.010967267 -0.046783593 0.059321184 0.13509479 0.113797076 0.032538805
-0.061047062 0.04964616 -0.13311456 0.10433005 0.1027369 0.10792746 0.005489277 -0.04305733
0.08889156 0.0010662297 -0.03593712 0.11971303 0.061279766 0.019336473 0.04581278 0.07280592
0.11382956 0.11233338 -4.4936314e-05 0.059893854 -0.0835608 -0.026501918 0.07170393 0.039869092
00000000: 14a7 d93d 5be3 84bd 26df 003e 0674 7b3d
00000010: 38db 763d 18a9 a03d e586 b0bc 1459 be3d
00000020: a154 0f3e 9c3b 8e3d 79e0 f03d 6220 3b3e
00000030: 6faf f2bc 1917 293d 5c4c c0bc 724d 803d
00000040: 6776 4f3e 6dc7 913c 00b5 db3c c774 e8bd
00000050: 3225 bebc a73a 6abd 014d dbbb 6be9 23bd
00000060: 556c 83bc 2f2b 373d d057 ccbc 47f7 a93d
00000070: 6983 07be 9ad4 f63d 7122 d9bd 2fc4 69bc
00000080: 70db 06be acbb 6f3d 8e3d 013d 282c 403e
00000090: 38c3 02bd 1ead 083e 26f1 fabd 3be9 923d
000000a0: 960d 81bc 76c7 9d3d c619 ec3c 15e5 37bc
000000b0: e8b9 1d3e 06d6 223e 2763 9ab9 d32e a9bd
000000c0: 2ed4 3dbd 7e54 23be 0559 ad3d 4000 733d
000000d0: 75e3 8f3d 1861 f3bc 8819 833d c6ec db3c
000000e0: 4353 bb3d 96ef 97b9 1853 ae3d 046b 37bd
000000f0: fe8a f1bd 5434 cdbd 376d a7bd 04f1 343b
00000100: 3468 73bd b6c8 ff3d 1b67 bfbd 7654 603d
00000110: 08b1 783d b152 f4bd 08ec ce3d 4b55 833d
00000120: 6659 673d 2628 783d 2194 42be 4864 e5bd
00000130: dd0c 093d 1195 f53d 6349 6dbd bff4 5ebd
00000140: 15e5 883d 3a48 09be 4dcd e1bd 3411 73bd
00000150: 81f4 c13d 9880 043d edaa 0ebe 138d bc3d
00000160: 8a67 cd3c 9438 263b 1b8c 133d 55d2 3cbd
00000170: 0bd5 4dbd eca4 8cbd d09a 6dbd 95e8 2d3d
00000180: 6f9e 2bbd fff4 ed3d b756 d83d 7fa6 093e
00000190: 7db0 14be 9b6a 13be d509 053e 5174 7abd
000001a0: b95c adbd 37b8 76bd b696 91bd b70c 2f3d
000001b0: c597 8cbb cd30 d63d 7115 16be 915e 70bb
000001c0: d981 213c 3a0b 6e3d 44f1 48bd 2a30 063d
000001d0: 784b a03e 15df 9bbd 7276 87bd 4cc2 913d
000001e0: 6952 113d 0871 ddbd 0196 07bc 146a bebd
000001f0: 9b70 583e c3f4 6a3d 4cd7 70bd ed62 48bd
00000200: db3e 853c 6992 c8bd b75e b4bd 0404 83bc
00000210: 8f97 a1bd 753d b53d 7266 20bc 6b4b a43d
00000220: 7e8e b4bc ae06 70bd 670a 1cbe fa1d 91bd
00000230: c64d 3a3e b885 34bd 68a2 5d3e 8de8 f3ba
00000240: 880c 283d ee21 eebd 293d ef3c bb57 c43d
00000250: c55d 003e e22c 1fbe 4469 cbbd e322 cbbb
00000260: 3510 183e afa8 1a3e d9c2 7ebd 11ee 1a3e
00000270: 7e39 c2bc 3dec a1bc 9378 a8bd 62e5 2abd
00000280: 8fcb 18bd 490f d2bc 2556 ea3d 3f69 8fbd
00000290: 028c 393b 2866 be3d 0836 bd3d 2aad a63d
000002a0: 73b8 953d ee33 f63c 7f0e e5bd bc47 5f3d
000002b0: a8c6 b03d 7fdc 503d b30e 3d3e ead2 b53c
000002c0: fbe8 2e3c 7741 a6bc fea0 02be 48ec 79bd
000002d0: 10d0 f5bd f904 b1bd f289 a2bc 8337 a83d
000002e0: 47e7 20be 30f7 3b3d 7236 d5bc 4a8b b5bc
000002f0: e09d 08be f2ff b3bd 2084 0b3e b52c e8bc
00000300: c074 8c3e 82a2 903d ded9 c33d a1d9 d13b
00000310: e0a9 423d 1aa6 33be 9f05 b4bc c4bd a53c
00000320: 73bb f83c 507f f2bd 1bf3 b63d 9c7b 25bd
00000330: 44ed 0a3d 5f97 963d 40f6 6dbd fc8f bc3d
00000340: 2a8c 87bd 0bdc c5bd 6376 8b3d 19c3 6d3b
00000350: 769c 37bd a438 353d 2daf 6bbd ad82 473d
00000360: 9e33 ff3d 2a9f cebb 6998 24bd 28a0 0d3d
00000370: 48a0 33b9 d170 de3c ea1d 2d3d 8b2b a4bd
00000380: 5f56 493e aee1 02be 0db0 333c 27a0 3fbd
00000390: c5fa 723d 4a56 0a3e 710e e93d 6947 053d
000003a0: 7c0c 7abd c659 4b3d 2f4f 08be feaa d53d
000003b0: b967 d23d 1209 dd3d 65df b33b e25c 30bd
000003c0: c70c b63d bbc0 8b3a cd32 13bd 1b2c f53d
000003d0: 7e00 7b3d 8667 9e3c 2ea6 3b3d 451b 953d
000003e0: 791f e93d 0b0f e63d 007a 3cb8 4253 753d
000003f0: ed21 abbd 8d1a d9bc 83d9 923d c64d 233d

bias_ih_l1 f4 [200]
0.037788846 0.04864414 -0.041164435 0.024554249 0.0811889 0.11309907 0.052362904 -0.064732485
-0.107633255 0.11651578 0.13441299 0.046391558 0.05913309 -0.013135764 0.013731505 0.05455834
0.19549336 0.021156276 0.11116198 -0.0135049485 0.105568334 0.07429402 0.010347487 0.017954443
0.010134815 0.087295815 0.03500058 0.16219236 -0.0736526 -0.08814801 0.0041587246 0.013808016
0.14688234 -0.137235 -0.045686606 0.16034953 -0.08262362 -0.0478839 -0.021461029 0.016175313
0.035736512 -0.023891134 0.20216095 -0.14217028 -0.12564415 -0.03536057 0.06307794 0.0965483
-0.049865723 -0.04564911 -0.020838618 -0.14659092 0.08179985 0.100245014 0.021091081 -0.103521556
-0.07734299 0.07821173 0.1034101 -0.13485964 -0.09293022 0.09331322 -0.10893747 0.05973202
0.095565036 -0.16608602 -0.050405707 0.016621752 0.06324441 0.055699814 0.03082546 0.0069747893
0.15112229 -0.017414687 0.0012760962 -0.028183553 0.022393286 -0.097423784 0.13021214 0.123001136
-0.09373112 -0.14955318 -0.07989935 -0.12906556 -0.10710834 -0.1001776 -0.1185344 0.13466303
0.12095143 -0.13564424 -0.109077364 -0.11012798 -0.19056986 -0.14969993 0.06355261 -0.010056228
-0.12441277 -0.007773596 0.090813875 -0.0528662 -0.077468894 -0.051703215 0.013722841 -0.04616483
-0.1303667 -0.039654817 0.13304251 -0.034754448 -0.058499463 -0.029622361 -0.11545386 -0.12531501
0.10972171 -0.057947766 -0.067197524 0.087134354 -0.062859565 -0.07596436 0.10638869 -0.03674546
0.0060812174 0.0076342104 0.04596253 0.055985898 -0.07460324 -0.024408393 -0.050259426 -0.031909037
0.12051788 -0.11811781 0.15811391 0.004364785 0.091131724 0.044764437 0.16380237 -0.041009154
-0.023121893 0.098359294 0.14259009 0.038205776 -0.13857797 0.047868703 -0.024712492 0.042031687
-0.15794687 -0.08162674 0.15487736 0.10706372 0.07070964 0.04525949 0.007104835 0.08116151
0.11546018 -0.098840356 -0.11495186 0.057853293 0.015198651 -0.054228477 -0.11782415 -0.06663174
0.03280084 -0.11184245 0.12596546 -0.020275919 -0.114592075 0.13099168 0.30824763 0.026934339
-0.021349238 -0.06222735 -0.010779071 0.154853 -0.0022915516 -0.11510903 0.16936123 -0.041507132
0.02071114 0.018083027 0.021278622 -0.07324423 0.020200627 -0.105561174 0.13758883 0.12680738
-0.11041526 -0.10611894 -0.035729524 -0.12617595 -0.08836373 0.035122372 0.09542815 0.051876836
0.12812373 -0.026206473 0.12406863 0.009552908 -0.030587565 -0.11548334 0.001617135 -0.07740387
00000000: 7ac8 1a3d 143f 473d 0a9c 28bd fe25 c93c
00000010: 5e46 a63d 7ca0 e73d 7c7a 563d 7792 84bd
00000020: d36e dcbd d39f ee3d 8fa3 093e 1305 3e3d
00000030: 8a35 723d 6337 57bc 1bfa 603c 9178 5f3d
00000040: 692f 483e ed4f ad3c e4a8 e33d dc43 5dbc
00000050: 3634 d83d 7727 983d 8288 293c 3215 933c
00000060: 7f0c 263c 26c8 b23d c55c 0f3d c115 263e
00000070: 2dd7 96bd f286 b4bd e945 883b 043b 623c
00000080: 5368 163e 5587 0cbe e121 3bbd ab32 243e
00000090: 9336 a9bd e921 44bd 0acf afbc 1782 843c
000000a0: 7360 123d 57b7 c3bc 4803 4f3e 1695 11be
000000b0: dca8 00be 3fd6 10bd 022f 813d 1dbb c53d
000000c0: 0040 4cbd 90fa 3abd c0b5 aabc ee1b 16be
000000d0: ae86 a73d 424d cd3d 34c7 ac3c 1c03 d4bd
000000e0: 0066 9ebd 792d a03d adc8 d33d a518 0abe
000000f0: 3352 bebd 001b bf3d 9c1a dfbd 90a9 743d
00000100: 9ab7 c33d 7412 2abe 3776 4ebd 572a 883c
00000110: 4986 813d 7d25 643d ad85 fc3c c68c e43b
00000120: cdbf 1a3e 3fa9 8ebc af42 a73a 32e1 e6bc
00000130: 2072 b73c 1f86 c7bd 5556 053e 05e8 fb3d
00000140: 1af6 bfbd 7824 19be 45a2 a3bd c329 04be
00000150: 9e5b dbbd ea29 cdbd 2ac2 f2bd 1be5 093e
00000160: 62b5 f73d 53e6 0abe f463 dfbd c78a e1bd
00000170: bf24 43be f04a 19be df27 823d e1c2 24bc
00000180: 1fcc febd a6b9 febb a0fc b93d 3b8a 58bd
00000190: 03a8 9ebd c0c6 53bd c4d5 603c 5517 3dbd
000001a0: d97e 05be 176d 22bd 4c3c 083e ae5a 0ebd
000001b0: 229d 6fbd 98aa f2bc 1373 ecbd 9452 00be
000001c0: c7b5 e03d a35a 6dbd db9e 89bd 7f73 b23d
000001d0: 84bc 80bd 3493 9bbd 50e2 d93d 6882 16bd
000001e0: f344 c73b 6628 fa3b 3543 3c3d 7851 653d
000001f0: 95c9 98bd 1cf4 c7bc d4dc 4dbd 0db3 02bd
00000200: 14d2 f63d c0e7 f1bd 9de8 213e 7806 8f3b
00000210: 45a3 ba3d ea5a 373d cfbb 273e 37f9 27bd
00000220: 206a bdbc 9970 c93d 2303 123e a97d 1c3d
00000230: 62e7 0dbe f911 443d da71 cabc 6b29 2c3d
00000240: d3bc 21be ec2b a7bd 2c98 1e3e 3944 db3d
00000250: 37d0 903d 0462 393d adcf e83b 0138 a63d
00000260: 6376 ec3d d06c cabd e16b ebbd 93f7 6c3d
00000270: c303 793c ae1e 5ebd ca4d f1bd 3976 88bd
00000280: 2c5a 063d a80d e5bd 17fd 003e af19 a6bc
00000290: 40af eabd af22 063e a2d2 9d3e 67a5 dc3c
000002a0: 99e4 aebc 1be2 7ebd b39a 30bc c991 1e3e
000002b0: db2d 16bb 48be ebbd 086d 2d3e 6203 2abd
000002c0: 69aa a93c db22 943c 8150 ae3c 1201 96bd
000002d0: c97b a53c 7530 d8bd 16e4 0c3e cbd9 013e
000002e0: 6521 e2bd e354 d9bd 1f59 12bd 4534 01be
000002f0: 0bf8 b4bd 7adc 0f3d d56f c33d ce7c 543d
00000300: de32 033e f5ae d6bc b217 fe3d cd83 1c3c
00000310: c692 fabc 8882 ecbd 0cf6 d33a ec85 9ebd

bias_hh_l1 f4 [200]
0.05459391 -0.102013044 -0.079393774 -0.08689135 -0.11639035 -0.05956587 -0.09643261 -0.082251064
0.034792382 0.1661643 -0.024594942 -0.06114812 0.00041028968 0.026666638 0.06258133 0.041753355
0.2854368 -0.14650314 -0.05147726 -0.011197884 0.12193282 -0.086378805 0.15334633 -0.0032665953
-0.02697269 0.07483949 0.05959456 -0.032333437 -0.0014318641 0.10117282 -0.052229512 0.09020294
0.0028844953 0.12398501 0.055824574 -0.004097946 0.09549285 -0.038319375 -0.066913724 -0.07578238
0.2259592 -0.039261583 0.25889316 -0.07609152 -0.06542504 -0.0621777 0.10346136 0.012470604
-0.10462507 0.02918236 0.02144308 0.09031505 -0.041000124 -0.023831302 0.01561993 -0.02286166
0.1351239 -0.12779297 -0.07466609 0.05687311 -0.0395716 0.02622444 0.03860837 0.12266615
-0.13179907 0.1023129 -0.029438108 -0.14374925 0.05396792 -0.09737372 -0.035086952 -0.022267304
-0.045931906 0.025640657 0.017617201 -0.078609906 -0.07840048 0.057701677 0.03836592 -0.033711568
-0.12889561 -0.03049438 0.07764765 -0.021116517 0.13352789 0.013040234 -0.03137931 0.110000536
-0.04784887 0.037037633 -0.09931521 0.06962041 -0.06597592 0.04268504 0.08191871 0.11283824
-0.0073208255 -0.0987101 -0.11889528 -0.05633002 -0.047251362 0.024994286 -0.11395934 -0.021288192
-0.14881732 -0.028450113 0.027005697 -0.072415985 -0.12777868 0.042797666 -0.05685039 0.06287436
-0.011283657 0.15554874 0.0973992 -0.036531877 0.14000629 0.09792541 0.09974789 -0.04829659
0.087765634 0.15667322 0.0062933667 0.037547283 0.07318393 -0.054794986 -0.12966675 -0.04105775
0.0033686163 -0.0505606 -0.1180981 0.061432786 -0.10088497 0.0043902565 0.047862325 -0.0023001079
0.1576201 -0.15980464 0.026344415 -0.12306637 0.0071683745 0.06124397 0.010606474 0.08041965
0.08123402 0.044941295 -0.06628137 0.057197116 0.0012519843 -0.037064224 0.059887398 -0.08478541
-0.10127682 0.013693017 -0.11710111 0.041495524 0.13203233 0.12872294 0.094433084 0.16429402
-0.11623022 -0.048910826 0.004164013 -0.07281181 -0.10440597 0.022910733 0.29423642 -0.13127969
-0.07395969 0.0880676 0.07780717 0.13807349 0.040805504 -0.04432306 0.13914832 -0.052207053
-0.09094995 0.043675534 -0.05315881 0.08151825 -0.09453331 0.008983078 0.05175023 -0.09083648
0.104716145 -0.08658426 0.15230577 0.14056973 0.14212492 -0.07263607 0.13966016 0.04332844
0.062380172 -0.0503926 0.12448994 -0.11107033 0.035812877 0.0009976751 0.04556656 0.016224638
00000000: dd9d 5f3d 37ec d0bd 3499 a2bd 18f4 b1bd
00000010: 105e eebd 57fb 73bd 767e c5bd 3f73 a8bd
00000020: 7582 0e3d f926 2a3e 557b c9bc 7376 7abd
00000030: 261c d739 fe73 da3c a42a 803d 9105 2b3d
00000040: c624 923e eb04 16be d2d9 52bd 5477 37bc
00000050: eab7 f93d 5fe7 b0bd d206 1d3e 6014 56bb
00000060: d5f5 dcbc 7245 993d 6d19 743d 1170 04bd
00000070: 63ad bbba b233 cf3d 9dee 55bd 52bc b83d
00000080: cd09 3d3b daeb fd3d 4fa8 643d 1048 86bb
00000090: c191 c33d c7f4 1cbd 100a 89bd cb33 9bbd
000000a0: d961 673e c1d0 20bd a58d 843e dfd5 9bbd
000000b0: 90fd 85bd 0bae 7ebd 8de3 d33d 8151 4c3c
000000c0: ab45 d6bd d80f ef3c 66a9 af3c 19f7 b83d
000000d0: bfef 27bd dd39 c3bc bcea 7f3c 6048 bbbc
000000e0: eb5d 0a3e 29dc 02be 89ea 98bd c7f3 683d
000000f0: d415 22bd a3d4 d63c cf23 1e3d 6438 fb3d
00000100: 56f6 06be 6d89 d13d 3028 f1bc 0133 13be
00000110: 770d 5d3d df6b c7bd 56b7 0fbd ec69 b6bc
00000120: 1823 3cbd 5b0c d23c f351 903c 3bfe a0bd
00000130: 6e90 a0bd 9858 6c3d 9525 1d3d 2415 0abd
00000140: 36fd 03be 5acf f9bc bb05 9f3d 8cfc acbc
00000150: 89bb 083e b5a6 553c 9787 00bd f647 e13d
00000160: 2dfd 43bd c6b4 173d c665 cbbd 2595 8e3d
00000170: 621e 87bd 82d6 2e3d ffc4 a73d bc17 e73d
00000180: 89e3 efbb 8528 cabd 5e7f f3bd 4fba 66bd
00000190: a58a 41bd d1c0 cc3c 8463 e9bd 9364 aebc
000001a0: 9163 18be 3610 e9bc 0d3b dd3c d54e 94bd
000001b0: 6ad8 02be 9b4c 2f3d f4db 68bd 46c4 803d
000001c0: 16df 38bc 2b48 1f3e 3b79 c73d 73a2 15bd
000001d0: cf5d 0f3e 1e8d c83d 9f48 cc3d a5d2 45bd
000001e0: 78be b33d f26e 203e 9638 ce3b 2ecb 193d
000001f0: 75e1 953d b570 60bd 5cc7 04be 2c2c 28bd
00000200: 01c4 5c3b a218 4fbd 6bdd f1bd f2a0 7b3d
00000210: c79c cebd 24dc 8f3b 490b 443d 68bd 16bb
00000220: 2a67 213e d4a3 23be 3ed0 d73c 390a fcbd
00000230: afe4 ea3b f5da 7a3d c7c6 2d3c 0fb3 a43d
00000240: 065e a63d 5d14 383d 87be 87bd 8647 6a3d
00000250: 9f19 a43a a8d0 17bd 7d4c 753d f9a3 adbd
00000260: 396a cfbd ad58 603c b5d2 efbd 36f7 293d
00000270: 7c33 073e f2cf 033e 2266 c13d b13c 283e
00000280: 1c0a eebd b856 48bd 4672 883b 5c1e 95bd
00000290: ccd2 d5bd 4aaf bb3c 28a6 963e 2f6e 06be
000002a0: 2e78 97bd c95c b43d 5e59 9f3d 2363 0d3e
000002b0: ac23 273d 198c 35bd e67c 0e3e 10d7 55bd
000002c0: f843 babd 1ee5 323d 0dbd 59bd 0af3 a63d
000002d0: ae9a c1bd c32d 133c 0df8 533d 7a08 babd
000002e0: 6b75 d63d 1753 b1bd 0bf6 1b3e 83f1 0f3e
000002f0: 3289 113e 38c2 94bd 1303 0f3e 2a79 313d
00000300: 5a82 7f3d 7968 4ebd 95f4 fe3d d778 e3bd
00000310: 86b0 123d 6cc4 823a 00a4 3a3d 88e9 843c

weight f4 [1, 50]
0.119803354 0.04640594 -0.08524334 -0.12061315 -0.0677369 -0.11517318 0.08055421 -0.13636443
-0.13943969 -0.09004741 0.0492024 -0.08103085 0.14644378 -0.07209174 -0.13481666 -0.030427337
-0.2470897 -0.036451735 -0.072356604 0.09132076 0.15554522 0.061222192 0.084155835 -0.04403284
-0.1544603 -0.090155125 -0.02910333 0.072123304 0.16556917 -0.07167186 0.083016254 0.041238673
0.1686744 -0.12230509 0.018538944 -0.098422535 0.14938973 -0.15145402 0.094455056 -0.043141957
-0.10487269 0.10249413 -0.15078203 -0.12084943 -0.07879496 0.02035035 0.080476 0.14318842
-0.044712815 0.1625677
00000000: 765b f53d 2814 3e3d 0f94 aebd 0704 f7bd
00000010: a5b9 8abd ebdf ebbd 9bf9 a43d 1ea3 0bbe
00000020: 47c9 0ebe c76a b8bd 7588 493d 81f3 a5bd
00000030: 5cf5 153e d6a4 93bd 610d 0abe c042 f9bc
00000040: 1505 7dbe 6a4e 15bd b32f 94bd 6106 bb3d
00000050: 3f47 1f3e 1fc4 7a3d e559 ac3d c75b 34bd
00000060: d72a 1ebe 40a3 b8bd 1b6a eebc 62b5 933d
00000070: f78a 293e b2c8 92bd 6d04 aa3d e2e9 283d
00000080: fbb8 2c3e 177b fabd fcde 973c c191 c9bd
00000090: 9ff9 183e c316 1bbe a771 c13d 9fb5 30bd
000000a0: 7ec7 d6bd 71e8 d13d 9b66 1abe e87f f7bd
000000b0: 415f a1bd c7b5 a63c 9ad0 a43d fc9f 123e
000000c0: c924 37bd 2678 263e
