mlruns/259183567906258607/models/m-c162059b4d424c84a38dc803008a32fb/artifacts/data/model.pth (torch, 133029 bytes, 9 tensors)

weight_ih_l0 f4 [200, 3]
000000 af d8 06 3e ac 61 2e be 60 ff 4a bc a7 96 0f 3e
       0.13168596 -0.17029446 -0.012389988 0.14022313
000010 17 0d 9f 3c 85 8e 07 3e 13 0b c3 3d 4d ea 7e 3b
       0.019415421 0.1323796 0.095235966 0.0038896978
000020 b8 be 92 bc ab 02 33 3e a8 e5 3e 3e e2 25 c6 3d
       -0.017913207 0.17481486 0.18642294 0.09675194
000030 f9 f3 0b 3d 8d 7c 0c bd 48 b3 6d 3d fe 80 89 3d
       0.034168217 -0.03429847 0.058032304 0.067140564
000040 e0 1d e9 3d 6c 9f 16 3d 7e f5 1f 3e bf bc ac 3d
       0.11382651 0.03677313 0.15620992 0.08434438
000050 24 23 13 3d 22 41 5c 3e 7f 70 98 3d da 49 8f 3d
       0.035922185 0.21509221 0.07443332 0.06996508
000060 5e ed 89 3e bf 2c d3 3d e4 01 25 3d 88 75 e8 3d
       0.2693891 0.10311269 0.040285006 0.11350542
000070 f8 3c af 3d 5c 6b 42 3d 04 7f 39 3e c9 e9 6b 3d
       0.08556551 0.047465667 0.18114859 0.057596
000080 7a 52 de bd d3 11 73 3e e6 9a 6c bc e0 14 c6 bd
       -0.10855575 0.23737268 -0.014441228 -0.0967195
000090 c1 1a 23 3c 11 93 72 bd 1e fa 84 3d cd 0b 77 bd
       0.009955109 -0.059222285 0.064930186 -0.06031399
0000a0 07 d1 8b bd f8 ab 9c 3c 22 3a a0 3d 1f 04 f0 3d
       -0.06826978 0.01912497 0.07823588 0.11719536
0000b0 9a f3 bc 3d 10 a6 ad bd c1 28 4e 3d c0 a8 ed bd
       0.09226151 -0.084789395 0.050331835 -0.11604452
0000c0 e6 ad af 3d 25 d9 96 3d 00 79 0c 3d 43 29 09 3e
       0.0857809 0.07365636 0.034295082 0.13394646
0000d0 35 54 be bd 56 91 a4 3d bd 7d a7 3e 23 aa c2 bc
       -0.09293405 0.08035533 0.32713118 -0.023762768
0000e0 20 cb 97 bd 1a 14 6f 3e c0 0a 0a be b4 7a 08 be
       -0.0741179 0.23347512 -0.13480663 -0.13328058
0000f0 e4 a3 91 3c cb 5b 28 be ea d0 a1 3d ff f9 91 3e
       0.017778344 -0.16441266 0.07901175 0.28511044
000100 14 62 46 3d 22 bd 7b bd 9c 15 0f 3e f1 e1 ca bd
       0.04843338 -0.061459668 0.13973087 -0.09906376
000110 4d d5 0d 3e 20 5d d5 3d c6 a2 16 3d 0b f5 92 bd
       0.13850899 0.10418153 0.036776327 -0.071756445
000120 85 ad 35 3e 86 f7 2f bd 51 32 dc bd 18 f8 06 3d
       0.17741974 -0.042960666 -0.107517846 0.032951444
000130 a6 c2 92 bd 3e 9f fa 3d 6e c7 85 3e f0 ec 0f bc
       -0.071660325 0.12237404 0.26128715 -0.008784518
000140 a0 c8 74 3d b3 30 ef 3b 1d f0 9e 3d 40 61 e5 3c
       0.059761643 0.0072995066 0.07760642 0.028000474
000150 5d f8 fe bc e3 d8 9a bd 46 ef 8f 3d a8 f2 48 3e
       -0.031124288 -0.07560899 0.0702806 0.19623816
000160 7d 7c d9 bc 19 3f 00 3e 84 66 9a 3d 0f 1a bd 3d
       -0.026548618 0.1252407 0.075390846 0.09233486
000170 08 0c 45 bd 96 7f 09 3e 04 f2 9f 3d c9 53 0e 3e
       -0.048107177 0.13427576 0.07809833 0.13899149
000180 46 86 a9 3d 47 5a 04 3e a7 66 e7 bd 09 1b 13 3e
       0.08277564 0.12925063 -0.11298876 0.14365782
000190 e0 15 ed bb 94 ad 31 3d 5c 1f 87 3e 69 b6 c6 bc
       -0.0072352737 0.043378428 0.26391113 -0.024256902
0001a0 2e d1 11 bd 55 d0 a5 3d 15 7f a9 bd 8e 20 f2 3d
       -0.03559988 0.08096377 -0.08276192 0.118226156
0001b0 cc 85 32 3d a3 2b e9 38 d0 02 cd 3c 3d 4b 08 bd
       0.04358463 0.00011118434 0.025025755 -0.033274878
0001c0 36 b9 8b 3d 9a 05 b1 3d dd 67 34 3d 30 6e 83 3c
       0.068224356 0.086436465 0.044044364 0.016043752
0001d0 00 c4 e6 bb 9e 1c 33 3e 0a 09 ab 3d 45 70 05 3e
       -0.007042408 0.17491385 0.083513334 0.13031109
0001e0 4a dd 1e 3e 96 5f 12 3e ed b2 10 be c1 03 21 bd
       0.15514103 0.14294276 -0.14130755 -0.03931022
0001f0 b4 9b 13 3e 50 3c 2c 3c b1 36 b5 3e 41 47 ef 3d
       0.14414865 0.0105124265 0.3539329 0.116835125
000200 34 0f 3d 3d 7d c8 1d be 07 9c 8b bc 82 66 f0 3d
       0.046157077 -0.15408511 -0.017042173 0.11738302
000210 fa 78 a8 3d 28 6c 57 3e c5 dd c9 bd 73 f0 31 bb
       0.082261994 0.21037352 -0.09856752 -0.0027151376
000220 82 4b 87 bd 3e a9 e1 3d f6 a2 29 3b 13 c2 fe bb
       -0.06606199 0.110186085 0.0025884486 -0.0077746003
000230 e4 65 29 bd 10 d1 28 3d cf 32 0d 3e 60 87 33 3d
       -0.041356936 0.041215003 0.13788913 0.043830276
000240 7d 9f d5 3d c6 bf 0a 3e 40 72 ac bb a6 41 81 3d
       0.104308106 0.13549718 -0.005262643 0.063113496
000250 9a 58 05 be fe 64 01 be da b1 19 3e 2f 32 77 bd
       -0.1302208 -0.12636182 0.15009251 -0.060350593
000260 58 7e cd bd aa c7 f9 3d 83 83 d9 ba 20 ba d6 bc
       -0.10033864 0.12196286 -0.001659498 -0.026211798
000270 f6 bf 43 bd 0d ab ab 3d 10 d5 cd bc 2a 43 9f be
       -0.04779049 0.08382235 -0.02512601 -0.3110593
000280 56 31 dc 3c b0 70 bf 3d d3 dd 43 be 81 17 a7 3c
       0.026878994 0.09347665 -0.19127588 0.02039695
000290 ba f8 8d 3d 3d d2 ed 3c 9a c9 90 3d 66 d5 bf bd
       0.069322065 0.029030913 0.070697024 -0.093668744
0002a0 1a 9c 29 bc 8c 01 31 3c 2a 5c 95 3d c1 ab 2c 3e
       -0.010352159 0.010803591 0.072929695 0.16862394
0002b0 85 c3 40 3d a3 80 85 bd d8 15 92 3e 8c 5e c3 bd
       0.047061462 -0.06518676 0.2853229 -0.09539518
0002c0 06 20 c9 3d b6 58 85 3c c1 1b 0f be a4 0c 80 bd
       0.09820561 0.016277652 -0.13975431 -0.06252411
0002d0 f4 c1 d4 3d bc 8d fd 3d 78 cb 96 3d 91 5f 33 3d
       0.10388556 0.12380549 0.07363027 0.04379231
0002e0 22 6e 8b 3d 48 17 ef 3c 71 e5 13 3e d9 84 49 3d
       0.068081155 0.029185906 0.14442994 0.04919896
0002f0 6a bd 82 3d a5 1b ef 3a 3f 44 98 bd a6 7f b6 3d
       0.06383784 0.0018242492 -0.07434892 0.08911066
000300 a9 57 14 be a3 b6 9e 3c 35 8e 8d bd 0a 92 f4 3c
       -0.14486565 0.019374197 -0.069118895 0.029854793
000310 99 3a 40 bc d4 d8 fe bc be c7 ce bd 30 dd 4b be
       -0.011732721 -0.031109251 -0.100966915 -0.19908595
000320 fa b6 e9 3d 72 08 db 3d d9 cb 3d 3d 7a a2 33 bd
       0.11411853 0.1069497 0.046336982 -0.04385612
000330 67 9b 2f 3e 12 bb 0a 3d 9c b1 6a bd dd 9d 1f 3e
       0.17149125 0.03386981 -0.057298288 0.15587564
000340 77 b1 11 be 4c 9d 01 be d5 e3 ac bd ea a8 06 be
       -0.14227854 -0.1265766 -0.08441893 -0.13150373
000350 2f d6 82 bd 53 83 95 3d 65 94 ad 3b 30 eb 61 bc
       -0.063885085 0.07300439 0.005297231 -0.013788983
000360 28 bb 07 3e ab 99 19 bd 34 fc d0 bc 81 66 bd bc
       0.13254988 -0.037500065 -0.025510885 -0.023120167
000370 d3 1b dd ba d2 60 7d bd f3 16 6d 3e 12 09 dd 3d
       -0.0016869254 -0.061859913 0.23153286 0.10792746
000380 54 56 89 3d 89 09 48 3e 03 d9 25 be d6 0a 7d bd
       0.06705919 0.19534887 -0.16196065 -0.061777912
000390 43 51 16 bd 0c 9f 07 3e e4 be 73 bd 84 c8 94 3d
       -0.03669859 0.13244265 -0.05950822 0.07264808
0003a0 f2 79 6a 3d f7 8d ff bd ef 76 55 bc bb 0b 1e 3d
       0.057245202 -0.124782495 -0.013028844 0.038585406
0003b0 c0 56 1a 3d f1 6f 31 3d d3 43 18 be 2c fd 96 3d
       0.037680387 0.043319646 -0.14869623 0.073725075
0003c0 ea 28 de 3c b2 8d ba bd d0 d6 3a bc 43 34 c9 bd
       0.027119119 -0.091090575 -0.011403754 -0.09824421
0003d0 c3 bc f6 bc 0a 12 d2 bd 5f a6 0e 3d f4 34 08 be
       -0.030119305 -0.10257347 0.034826633 -0.1330145
0003e0 54 91 54 3d 30 eb 44 be 98 20 a6 bd 49 8c 06 be
       0.05189641 -0.19230342 -0.081116855 -0.13139452
0003f0 7b f8 79 3e 54 42 1f be 52 2a 9c 3d 68 61 a7 3c
       0.24411194 -0.15552646 0.076252595 0.02043219

weight_hh_l0 f4 [200, 50]
000000 20 76 ad 3d 66 5b 7d bd f8 99 37 bd a8 55 a4 bd
       0.08469796 -0.061854742 -0.04482457 -0.0802415
000010 17 6d d0 3d af 62 92 3d e1 b4 13 be 97 3c cd 3d
       0.10177057 0.07147729 -0.14424469 0.10021322
000020 94 5d bc 3d 81 9e 8d bc 68 45 92 bc 8d 1a 34 bd
       0.09197536 -0.017287495 -0.017855361 -0.043970633
000030 77 93 6d bd dc d2 99 bd 0c c8 b2 bd 8a af 74 3b
       -0.05800196 -0.07510921 -0.08729562 0.0037336075
000040 e0 a9 c8 3d 4b 4b 1b be ec 42 99 3d 77 b9 c4 3d
       0.09798026 -0.1516544 0.074834675 0.09605687
000050 e8 b9 ab bd 16 23 84 3c 2a 8c cb 3d 96 2a 27 3c
       -0.08385068 0.016130012 0.099388435 0.010203024
000060 97 17 08 be ba f2 c2 3d 0e 73 1f be 3f f0 7c 3d
       -0.13290249 0.09518953 -0.15571234 0.061752554
000070 4c 0d 97 bd 83 b7 c0 bd fb 5b e9 3d eb aa 82 3d
       -0.07375583 -0.09410002 0.11394497 0.06380256
000080 ce 27 74 bd 06 74 dd 3d e6 50 e4 bd af 8d 95 3d
       -0.059608273 0.10813145 -0.11148243 0.073024146
000090 9e 03 0f 3e 99 4f bf 3c df c3 fa bc 4b 39 1e be
       0.13966224 0.023353385 -0.030610977 -0.15451543
0000a0 4c 8c fd 3c 23 a1 6a 3d 2b 81 c8 bd 4c 4e 02 be
       0.030950688 0.05728258 -0.09790262 -0.1272518
0000b0 d3 fa 51 bd 38 3c fc 3d 8d d1 a3 3d 20 fc d9 3d
       -0.051264595 0.12316173 0.07998953 0.10643792
0000c0 c8 f0 95 bc a9 06 0d 3e 7c 86 89 bd 8a 75 10 3e
       -0.01830329 0.13772072 -0.06715104 0.14107338
0000d0 6a 50 a4 3d 18 79 48 bd d0 1c 7a 3d 78 24 a5 3c
       0.0802315 -0.04894361 0.061062634 0.020158991
0000e0 02 ad 70 bd 72 4d b3 bd 26 b1 dc bd 21 e7 24 bc
       -0.058758743 -0.08755006 -0.10775976 -0.010064871
0000f0 34 b3 91 3d 23 9a 9f bc b7 17 c8 bd a7 7e f2 bd
       0.071142584 -0.019482678 -0.09770148 -0.11840563
000100 49 8c 66 bc f8 81 bc 3d ad d8 92 3d fb 48 b1 bd
       -0.0140715325 0.09204477 0.07170234 -0.08656498
000110 c3 7b 0c 3c 5a 70 57 bd 7e 4b f8 bd 1d 56 0c 3e
       0.008574429 -0.05259738 -0.12123774 0.13704725
000120 34 c3 0c 3d c6 9e 2a 3d bf 5d cd bd bb c3 8b 3c
       0.034365848 0.041655324 -0.10027646 0.017061105
000130 1c 4c da bd 98 b6 c6 3d fa 6e 01 3e 67 45 74 3d
       -0.10659048 0.09702796 0.1263999 0.0596365
000140 e3 f7 f6 3c 67 d6 09 be e6 ed e9 bd 43 7e 19 be
       0.030147498 -0.13460694 -0.11422329 -0.14989571
000150 85 ce 9c bd a7 57 3a 3d ca 2b c8 bd 18 c5 0c 3c
       -0.07656578 0.045493748 -0.09773977 0.008591913
000160 75 e5 7d 3d 4c 14 a9 bd 75 ec 2f 3d c6 8a a1 3d
       0.061986405 -0.082558244 0.042950112 0.07887797
000170 fd e7 8d 3d 72 d0 0e be 20 b4 21 3e 24 a8 25 3c
       0.06929014 -0.13946703 0.15791368 0.010110889
000180 a4 5f 42 bd 4d 5c 0e be 61 a7 3d 3c b6 c9 a3 bd
       -0.04745449 -0.13902397 0.011575551 -0.07997458
000190 a1 c8 f5 bb e3 c2 b6 3d 73 b5 91 3c 37 5a a2 3d
       -0.0075007235 0.089238904 0.017786717 0.07927363
0001a0 8d 12 88 3d 1c f9 8e 39 a7 63 18 be 7b 4d 31 bd
       0.06644163 0.00027269952 -0.14881764 -0.04328678
0001b0 5e 76 c7 bd cd 2c 9a 3d e4 72 57 3d fa 82 1a 3d
       -0.097393736 0.07528076 0.052599803 0.037722565
0001c0 dc c9 a9 3d fe 33 02 be f2 21 ec bc 9d 20 c8 bd
       0.08290455 -0.12715146 -0.02882478 -0.097718455
0001d0 92 6b 77 bd 99 bb b4 3d 8f b6 ef bd ae f0 d7 3d
       -0.06040532 0.08824844 -0.11704742 0.10543953
0001e0 0d df 06 be 40 9d 6a bd 33 42 28 bc 16 2b 00 be
       -0.13171025 -0.05727887 -0.010269689 -0.12516436
0001f0 98 e4 ba bc 99 3f 07 be 5a c3 ba 3d ed c4 e9 3d
       -0.02281408 -0.13207854 0.091192916 0.11414514
000200 40 e5 e6 3d 64 07 ca bb fc ca 34 bd 33 56 0a 3e
       0.11274195 -0.006165432 -0.044138893 0.13509445
000210 e1 db fe bd 82 91 db bd fe b0 b3 3d e1 56 fe bd
       -0.12444282 -0.10721113 0.08773993 -0.124189146
000220 ff 97 89 bd 96 53 c7 bd 2b 6c 51 bd 30 f8 ad bd
       -0.06718444 -0.097327396 -0.051128548 -0.08494604
000230 ad 08 c0 3d 18 7b 0c 3e 2e 52 4e bd 4c a6 cc bd
       0.09376655 0.13718832 -0.05037134 -0.09992656
000240 78 09 b7 3d 4f c3 d6 bd f0 92 6b bd da 22 6a bd
       0.08937353 -0.10486471 -0.057513177 -0.057162143
000250 f0 62 ed bd 31 80 c6 3c c9 f2 a2 be 21 3a c5 be
       -0.115911365 0.024231048 -0.31825855 -0.3852091
000260 22 0c ff 3d e6 ad a0 be ed f2 92 be 89 69 95 3e
       0.12453486 -0.31382674 -0.28700963 0.2918208
000270 5a 43 31 3e 79 80 02 3e 86 af 05 3e 53 c1 8f be
       0.17310849 0.12744321 0.13055238 -0.28077182
000280 01 92 66 3e 01 d2 97 3e db ce b8 3e eb 9d a4 3e
       0.22516634 0.29652408 0.36095318 0.32151732
000290 5b 5d 83 be de 77 9c be 7b 4a 96 3e b9 60 2b 3e
       -0.25657162 -0.305602 0.293537 0.16736116
0002a0 07 ec ae be 62 6e 9f 3e d5 ea 45 be 5e 0e ad 3d
       -0.3416445 0.31138903 -0.19327863 0.08450006
0002b0 35 30 9a be 5b 4c 18 3e 37 f1 36 3e a6 e3 42 3e
       -0.30114904 0.14872877 0.17865454 0.19032153
0002c0 f8 db 41 be da 90 af be 43 f2 b7 3e e8 59 2c be
       -0.18931568 -0.342902 0.3592702 -0.16831172
0002d0 93 3a d5 bd 77 81 53 be 18 88 93 3e a3 0a 35 3e
       -0.10411563 -0.20654856 0.2881477 0.17679839
0002e0 fa 46 99 be ed 9c bf 3e 8a f4 34 be 1f 37 40 be
       -0.29936963 0.37424412 -0.17671409 -0.18771027
0002f0 98 03 41 3e e1 0a 77 3e 08 80 8b be 1d b7 cb be
       0.18849027 0.24125244 -0.27246118 -0.39788142
000300 b5 50 9a 3d b3 56 c6 3e 1e b0 0d be 7c aa 12 be
       0.07534925 0.3873802 -0.13836715 -0.14322847
000310 1a f6 2d be 1c 93 dc 3d 6d 5d 59 be c1 41 bd be
       -0.16988412 0.107702464 -0.21227045 -0.3696423
000320 c7 f2 b0 bd 91 28 9d bd f3 3d 64 3d 59 8d 3d be
       -0.08640056 -0.07673753 0.055723142 -0.18510951
000330 d9 51 07 be 2c 7d 68 3e db 89 77 3e f3 48 91 3e
       -0.13214816 0.22704 0.24173681 0.28375968
000340 4e 50 45 3e bc 50 92 bd fb f8 a5 3e 3c 29 c1 3d
       0.19268915 -0.07144305 0.3241652 0.09431693
000350 03 03 f9 3d 3b 58 af 3d e7 6d 69 bd 29 b3 43 be
       0.121587776 0.085617505 -0.056989577 -0.19111313
000360 3d 04 7c 3e ce 8e 44 3e f6 e6 79 be 4d ff 84 3e
       0.24610992 0.191951 -0.24404511 0.2597603
000370 70 17 d7 bd 71 46 7a 3e f4 1f 6c be 8d 2d 6e 3e
       -0.10502517 0.24440934 -0.23059064 0.23259564
000380 7c 84 c7 3d 92 0e 5a 3e 49 95 54 3d b9 da 61 be
       0.09742066 0.2129462 0.051900182 -0.22056092
000390 b5 63 9c 3e 8c d1 74 bd 2d 79 99 bd 6f 5f 80 be
       0.3054482 -0.059770152 -0.074938156 -0.2507281
0003a0 b8 eb 8e 3e 16 50 98 3d 46 1e ac be e1 35 70 3d
       0.27914214 0.0743715 -0.33616847 0.058645133
0003b0 e3 2e 81 be 2b 95 ff bd 81 97 93 3d 3f 00 dd 3d
       -0.25231084 -0.124796234 0.072066315 0.107910626
0003c0 f9 38 87 be 81 a0 8b be 80 55 89 bc 4e 9e 81 3d
       -0.26410654 -0.27270892 -0.016764402 0.06329022
0003d0 4d 1d 57 3d c9 23 0d be 71 43 5b be 01 97 b3 3e
       0.052518178 -0.13783182 -0.21412446 0.35076144
0003e0 0e 29 fc bd 52 c8 31 be 8c 59 e0 bc d4 9e ea bd
       -0.12312518 -0.17361572 -0.02738645 -0.11456075
0003f0 2f 16 63 bd 1c c1 25 be 44 5e 08 3d 9f 7e 19 3d
       -0.055441078 -0.16186947 0.033293024 0.03747427

bias_ih_l0 f4 [200]
000000 62 d2 dc bd e8 8b f9 3c bc da 0d be f7 25 cd 3e
       -0.10782315 0.03046222 -0.13852972 0.40068027
000010 01 5b 7d 3d 80 ac a8 3d 91 6d 16 3e 98 16 d4 bc
       0.061854366 0.08236027 0.14690234 -0.02588968
000020 1e 5c e6 3d dd 34 c2 bd 8e 69 30 3e d0 05 d9 3d
       0.11248039 -0.09482739 0.17227766 0.10596812
000030 4d 4e 2a bd 10 10 15 be ea b3 23 3d 10 82 05 3e
       -0.04157858 -0.14556909 0.0399665 0.13037896
000040 80 65 76 3d 92 35 9e 3e 2c 9a 90 bd 84 14 29 3e
       0.06015539 0.30900246 -0.07060656 0.16511732
000050 3d 19 d9 3d 65 85 9d 3d 90 f2 7f 3d 3b 7a ed 3d
       0.10600517 0.076914586 0.062487185 0.11595579
000060 34 9e eb 3d 1f 0d 1e bc ea 85 97 3e ae a9 d9 bc
       0.11504784 -0.009646683 0.29594356 -0.026570167
000070 75 be 9b 3d a4 3d 49 bd bf c1 74 bd b2 ff f9 3d
       0.07604686 -0.04913105 -0.059755083 0.12206973
000080 29 f1 2b 3e 12 5f 6c 3d 4c d7 bf bd 45 b7 36 3d
       0.16791214 0.057707854 -0.093672365 0.044608373
000090 b0 e5 b3 3d 4f ff bd 3d 17 bf 05 3e 4a 32 58 3e
       0.08784044 0.09277212 0.13061176 0.21112934
0000a0 f6 9a 85 3e f1 b9 01 3e fe 0f 40 3e f8 f3 2c 3b
       0.26094788 0.12668587 0.187561 0.0026390534
0000b0 f4 34 65 3c ae 8c dd 3d ab b8 1b 3d f4 90 50 3e
       0.013989676 0.10817848 0.03801791 0.20367795
0000c0 74 b3 5e 3e cc d8 b3 bd a5 90 c4 bd e6 43 10 3e
       0.21748143 -0.08781585 -0.09597901 0.14088401
0000d0 fe 14 a4 3d f3 19 09 be ed ce 89 3c 6d dd 67 3d
       0.080118164 -0.13388805 0.016822303 0.056607652
0000e0 a2 fa c8 bd 77 f1 64 bd 78 94 0a be 72 29 fb 3a
       -0.098134294 -0.05589434 -0.13533199 0.0019162132
0000f0 1c 1a aa 3d 78 d7 f1 3d 59 13 04 3e 38 41 ea bc
       0.08305761 0.118086755 0.12898006 -0.028595552
000100 85 e7 03 be 1c 7a eb bd 77 02 0a be d3 dd 35 be
       -0.12881286 -0.114979 -0.13477503 -0.177604
000110 31 0d ae bc 67 c4 61 bd 4f 0a 07 3e 6f df 93 bc
       -0.021246525 -0.055118944 0.13187526 -0.018050877
000120 8d 46 a7 bd 4d b1 82 3d c1 35 04 be 9f f3 d7 3d
       -0.08167753 0.06381474 -0.1291113 0.10544514
000130 cd ba f1 bd 49 e7 0a 3e c2 4f 9d bd 52 d2 89 3c
       -0.118032075 0.13564791 -0.07681228 0.016823921
000140 dc ca 1f bd 94 9a 8a 3d ea 46 c6 bd bf 62 88 3a
       -0.03901182 0.06767765 -0.096814945 0.0010405405
000150 ea 74 da bd 4d 55 0a 3e 6b ce 00 bb 78 53 e5 3d
       -0.10666831 0.13509102 -0.0019654285 0.11197561
000160 dc 90 ad 3a cd a0 1f be fb fc 43 be 7d 2a cb 3d
       0.0013242024 -0.15588684 -0.19139473 0.09920213
000170 ab 6c 5d be f2 de d7 3d 9a fa 3f 3c 7d f8 1a 3d
       -0.21623485 0.1054057 0.011717463 0.037834633
000180 e5 d7 91 bd 41 f1 28 be 54 26 63 bb 31 88 eb 3d
       -0.07121257 -0.16498281 -0.0034660297 0.11500586
000190 62 1d 33 bd 1e 65 59 bd b4 19 96 3d 4f 7d b9 3d
       -0.043729194 -0.05307495 0.07329121 0.09057104
0001a0 6b 17 e4 bd f8 31 1a 3e 18 d6 a3 bc b9 13 d7 3d
       -0.11137279 0.15058124 -0.019999549 0.10501809
0001b0 c8 3c 83 3d 30 3b 19 be 3b 5b cc ba 54 f1 d1 3d
       0.064080775 -0.14963984 -0.0015591154 0.10251108
0001c0 45 e7 64 3b df d4 e8 3d d6 a8 e4 bd f8 2b 08 be
       0.0034927886 0.11368727 -0.111650154 -0.13298023
0001d0 c9 fc 47 3d 7a 52 c1 3d 71 39 23 be 8c 3e 78 bd
       0.04882506 0.09439559 -0.15939881 -0.060606524
0001e0 49 ce e1 3d 54 43 aa 3d f0 32 00 be b3 3e 4a 3d
       0.11025674 0.08313623 -0.12519431 0.0493762
0001f0 52 60 fd 3d 42 3a 02 3d 78 9e 41 bd 58 33 ab bd
       0.12371887 0.03179384 -0.04727027 -0.083594024
000200 73 e6 ec 3d 5b b1 cc bd 92 76 84 3d ed 04 88 bd
       0.11567392 -0.09994765 0.06467928 -0.066415645
000210 52 e3 bc 3d 27 ad 14 3b 53 74 5c 3d b1 05 07 3e
       0.092230454 0.0022686215 0.053821873 0.13185765
000220 3c 3a b6 bd db f2 b2 bd a3 4a 6b 3c 72 88 63 3d
       -0.08897826 -0.08737727 0.0143610565 0.055550046
000230 23 db 68 3d 12 c1 fe bb dd e5 a7 bd f4 ba d9 bd
       0.05684961 -0.0077744806 -0.0819814 -0.106313616
000240 a1 d1 cc bd 0d b5 f3 bd 6b 7f 9e 3d fb b4 25 3d
       -0.10000921 -0.11899767 0.07739147 0.0404558
000250 7d 84 89 bd 74 bb ab 3d 73 f5 e6 3d b5 b0 96 bd
       -0.06714723 0.08385363 0.112772845 -0.07357923
000260 8b 65 c1 bd fa a0 8b 3e 80 c0 f6 3d d9 53 06 bd
       -0.09443196 0.27271253 0.12048435 -0.032794807
000270 ca ce ca 3d a7 8b 0e 3e e4 b4 c9 3d 71 0f a6 bd
       0.09902723 0.1392046 0.09848955 -0.08108414
000280 b5 4f 2c bd e8 1f 92 bd 02 7f 10 3e 12 fc ef 3d
       -0.042068202 -0.07134992 0.1411095 0.117180005
000290 a4 ac b3 bd dd 94 b4 3d 01 ed 8f bd 47 47 0d 3e
       -0.08773163 0.08817456 -0.07027627 0.13796721
0002a0 ab a3 b1 bc dd af 17 3e 7b e4 fa bd 14 4f 46 3e
       -0.021684488 0.1481318 -0.122506104 0.19366103
0002b0 dc cf f5 3d 90 c7 c8 3d e6 91 15 3d 61 f1 e8 bb
       0.12002537 0.098036885 0.036516093 -0.0071088527
0002c0 4d a7 57 3e 50 68 a9 3d ab c0 fa 3d 31 ee 11 bd
       0.21059914 0.08271849 0.1224378 -0.035627548
0002d0 5b 26 00 3e 44 66 ef bd 4f a4 83 3d 1d 37 81 3e
       0.12514631 -0.116894275 0.06427824 0.2523736
0002e0 3c 1e d2 3d d6 9f 11 bc 29 13 96 bd bb 6d 08 3e
       0.10259673 -0.0088882055 -0.07327873 0.13323109
0002f0 77 aa ed 3d d9 ad 21 3e 21 c5 31 3e eb f2 d1 bc
       0.11604779 0.15788974 0.17360355 -0.025628528
000300 c6 13 67 3e 3c b0 c7 bc 33 3c 10 3e 6a 09 3f 3d
       0.22566137 -0.024376027 0.14085464 0.046639837
000310 65 f2 db 3d 50 37 e8 3d 39 55 4c 3e 82 74 f0 bc
       0.107395925 0.11338675 0.19954385 -0.02935243

bias_hh_l0 f4 [200]
000000 bc d2 f7 bd 98 73 ef bc 1f b1 9d 3c c7 b7 62 3e
       -0.12100741 -0.029229924 0.019249497 0.22140418
000010 48 20 2d 3e 67 d9 2b 3e 6f df 1f 3d 92 dd cd 3d
       0.16906846 0.16782151 0.039031442 0.10052027
000020 dd f2 02 3e cb aa 0a 3e 2e af 05 3e ec 68 1f bc
       0.12787957 0.13541715 0.13055107 -0.009729605
000030 29 11 dd bb f1 ac fb 3d ea c7 15 bd 4b 7b 90 bd
       -0.0067464304 0.12288845 -0.036567606 -0.07054766
000040 f2 85 ab 3d a5 19 da 3d 52 05 78 3d ef 47 a9 3d
       0.083751574 0.106494226 0.06055195 0.08265673
000050 4e 8c 17 3e 0d c8 3b 3e 52 54 7b bd cc cf 5f bd
       0.14799616 0.18338032 -0.06135971 -0.05464153
000060 d4 58 9a bd 93 a9 f9 bd ee 31 89 3e 4f f0 bc bd
       -0.07536474 -0.12190547 0.26795906 -0.09225523
000070 5f 13 13 3e 80 b2 69 bd 04 43 da 3d b3 fb 03 bd
       0.14362858 -0.057054996 0.106573135 -0.03222246
000080 10 37 44 3d 26 51 53 3e de f0 cb 3d 3c c1 d7 3d
       0.047904074 0.20636424 0.09958051 0.105349034
000090 21 5b 52 bd 82 f9 e0 3d 85 77 c5 3a da fe da 3d
       -0.05135644 0.1098509 0.0015065527 0.1069314
0000a0 ef 1f 82 3d 22 ee 07 3e ac bb 8e 3e dd 32 60 bc
       0.06353747 0.13274434 0.27877557 -0.013684002
0000b0 06 fa 6d 3e 5e 76 4d bd 3f 94 01 bc 90 7a 81 3d
       0.23239908 -0.050161712 -0.00790888 0.06322205
0000c0 3e 3d c7 3d c6 f6 97 bb d9 c1 e0 bd 81 e7 a2 3d
       0.09728478 -0.004637572 -0.109744735 0.07954312
0000d0 16 df a3 3d c1 c8 20 be 41 f4 d3 bd e1 0a 94 3d
       0.08001535 -0.15701582 -0.10349322 0.072286375
0000e0 b7 21 52 bd ad a2 5e bd 84 06 10 be 18 06 bc 3b
       -0.051301684 -0.05435436 -0.14064986 0.005738031
0000f0 82 f3 e2 bd d1 ae c5 bd 27 93 84 bc 36 fe 34 bd
       -0.11081602 -0.09652484 -0.016183449 -0.044187747
000100 8c 63 cb 3d 06 38 d8 3d 4d 70 8a bd 8c 79 e1 bd
       0.099310964 0.105575606 -0.06759701 -0.11009511
000110 f8 1d c4 bd c6 96 50 bd d1 01 a8 bd 2f cb 52 bd
       -0.095760286 -0.05092504 -0.082034715 -0.051463302
000120 77 d7 ae 3d c7 0a f2 3d c4 68 74 3d 38 fd 10 3c
       0.085371904 0.11818462 0.059670225 0.008849435
000130 c7 dd b5 bc 55 05 4a 3d 06 ed 49 3d cb cd e5 bd
       -0.022200478 0.04932149 0.04929831 -0.112208925
000140 55 b5 86 bd 2b 40 68 3d 48 d3 e6 3d 7a 61 a6 bd
       -0.06577555 0.05670182 0.112707675 -0.08124061
000150 cb 92 0b bd 5c 10 b2 3d be 5a c5 3c 76 2e 11 3e
       -0.03407554 0.086945266 0.02409112 0.1417788
000160 1f 11 61 3c 2d a4 24 be 67 d8 34 bd 94 0a 9d 3c
       0.013736992 -0.16078253 -0.04415169 0.019170083
000170 28 9e 74 be 9a 01 1e bd ef b4 f4 bd 62 4f f2 3d
       -0.23888457 -0.038575746 -0.11948573 0.11831547
000180 b8 61 40 3c 6b ad 33 be 5e 37 8d 3d 2e 95 01 3e
       0.011742048 -0.17546622 0.06895326 0.12654564
000190 82 2e d7 b9 51 57 b4 bd 90 46 4b 3d 55 11 12 bd
       -0.00041042647 -0.08805717 0.04962784 -0.03566106
0001a0 c1 8f ae bc 35 3f 98 bc c7 ad fe 3d fb 07 96 3d
       -0.021308782 -0.018584827 0.12435489 0.07325741
0001b0 8c 07 c0 3c 08 09 96 bd 39 cc 05 3e 19 64 0f 3e
       0.023441099 -0.07325941 0.13066186 0.14003028
0001c0 c0 a6 ec 3d 3c 83 13 3e 9e 33 99 bd a8 de 9c 3d
       0.115552425 0.1440553 -0.07480548 0.07659656
0001d0 83 72 90 3d b7 22 3a bd a4 a2 59 3d d0 25 17 3d
       0.070530914 -0.045443263 0.05313362 0.036901295
0001e0 f2 47 c8 bd 90 b5 06 3c b6 a7 d1 3d 81 80 35 3c
       -0.097793475 0.008221999 0.102370664 0.011078001
0001f0 33 6f de bc ae 2d 12 3c 7c 4f 90 3d fb b5 17 be
       -0.027152633 0.008922024 0.070464104 -0.14815514
000200 ff 9f 64 3d e5 ed 3a ba cc 70 5c bd 32 d1 80 bd
       0.055816647 -0.0007130786 -0.05381851 -0.06289901
000210 4a ea f6 bd 72 bb 44 3c 24 fd 0f be 4a 35 ed 3d
       -0.12056406 0.012007581 -0.14061409 0.1158243
000220 a4 30 ad bd fa f6 03 bd 7f d8 55 3d 24 5d 79 bd
       -0.08456543 -0.032217957 0.05220842 -0.06087984
000230 c4 d1 e2 3c 58 af 8a bd c5 6c fc 3d 43 75 0a 3e
       0.027687915 -0.067717254 0.12325434 0.13521294
000240 15 e4 01 3d 60 93 65 bd 10 f0 94 bc 71 6c 69 bd
       0.031711657 -0.05604875 -0.018180877 -0.056988183
000250 1b 9b c8 bc eb 22 bb 3c 47 12 81 3d f3 4d 99 bb
       -0.024488023 0.022843799 0.06302314 -0.0046784817
000260 6f 44 e2 bd 7a b2 9f 3e ce 50 c8 3d 34 5f 07 3e
       -0.11048209 0.31190854 0.09781037 0.13219911
000270 93 ea 2b 3e 81 a9 86 bc fe 14 75 bd 22 a5 0e 3e
       0.16788702 -0.016438248 -0.059834473 0.1393018
000280 73 4c e4 3d 16 21 40 bd 9a 7a ed bb c2 4f 14 be
       0.11147394 -0.046906553 -0.0072472813 -0.1448355
000290 5a 05 fe bd 15 1d b0 bd dd d1 04 3e 3b a0 ba 3d
       -0.124033645 -0.08599297 0.12970681 0.09112593
0002a0 d2 4e 84 bd 6f 3b 49 3d 55 fd a5 bd 97 27 31 bd
       -0.06460346 0.049128946 -0.0810496 -0.043250646
0002b0 00 e5 ba bd 34 23 8e 3d 14 23 09 bc 40 b6 c7 3d
       -0.091257095 0.06940308 -0.00837018 0.09751558
0002c0 30 80 05 3e 5c 21 03 be b1 ae dc bc 9e e7 b1 3d
       0.13037181 -0.12805694 -0.026938768 0.086867556
0002d0 42 2a 49 3e f4 f5 a0 bd 28 03 ab ba 60 41 18 3e
       0.19645026 -0.07859412 -0.0013047205 0.14868689
0002e0 17 18 20 3d 17 a4 75 3d 8d 81 bc 3d 9c 4a 3c 3c
       0.039085474 0.05997094 0.09204397 0.011492398
0002f0 5b c4 eb 3d 1d 4b 5a 3e 03 86 83 3d 5d 13 b2 bc
       0.11512061 0.21317716 0.06422045 -0.021737749
000300 f0 3f 3f 3e 46 14 ad 3d 71 df 89 3d 54 28 07 3d
       0.18676734 0.084511325 0.06732071 0.032997444
000310 55 2e 26 3e 26 3a 0c 3e 68 75 90 3d e0 e5 84 3c
       0.16228612 0.13694057 0.070536435 0.016222894

weight_ih_l1 f4 [200, 50]
000000 2f 4c 04 be eb 33 7c 3c 1b 39 26 3d 75 4e 7c bd
       -0.12919687 0.015393238 0.040581804 -0.06159826
000010 eb 38 63 be cf cc 13 3e ae 4c 40 3e d8 59 8c 3d
       -0.22189681 0.14433597 0.18779251 0.06853074
000020 1f 76 0e 3e 4c a4 4e be 9d 0b 54 3e 7f ca 0d 3e
       0.13912247 -0.20179862 0.20707555 0.13846777
000030 c9 f2 b2 3d 81 39 d3 3d 2e c7 5a be 85 79 33 bb
       0.08737714 0.103137024 -0.21365044 -0.0027385664
000040 e5 a5 81 3d 23 47 a7 bd 84 6b 2e be 6c f1 22 bd
       0.0633047 -0.08167865 -0.17033201 -0.03978102
000050 11 94 87 3d 68 1a 25 bc c5 2b 37 be a4 9b dd 3c
       0.06620038 -0.0100770965 -0.1788779 0.027051754
000060 91 13 62 bc 86 c2 3e bc 90 53 86 be 5b 8c 96 bd
       -0.01379861 -0.011643058 -0.26235628 -0.073509894
000070 a5 da e1 3d 0d 80 a7 bd 00 44 9c bd a6 d7 ba bd
       0.11028031 -0.081787206 -0.076301575 -0.09123163
000080 ca 7b 46 3e 92 5d df 3b 96 40 ed bc dd 32 2b 3d
       0.1938316 0.0068165744 -0.028961461 0.041796554
000090 7f fa 62 be 62 36 44 bd c1 1c 65 bd a1 4b 16 be
       -0.22165869 -0.047903426 -0.055935625 -0.14677288
0000a0 17 f7 5b 3d 7b c5 9a be 35 80 df 3d 9d e1 8a 3e
       0.05370244 -0.3022879 0.109131254 0.27125254
0000b0 63 9f d9 3d f9 a3 11 be 8b 21 77 be 7f a6 4a 3e
       0.10626104 -0.14222707 -0.2413389 0.19790076
0000c0 35 71 c1 bd 88 93 d5 bd c3 d9 03 be fe 22 78 bc
       -0.09445421 -0.1042853 -0.12876038 -0.015145062
0000d0 35 13 41 3e 88 f7 c6 bd e9 2d 63 bd c4 cc 35 3e
       0.18854983 -0.097151816 -0.055463705 0.17753893
0000e0 9c 3f f6 bc 5d ee c7 3d a2 28 3d bd 02 6c 4a 3d
       -0.030059628 0.09762261 -0.04618133 0.04941941
0000f0 ff e8 7e 3d 7e 03 11 3e bb 2f a3 3c 07 b3 dc 3d
       0.06223392 0.14161488 0.01992022 0.10776334
000100 27 ab 71 bd d9 01 81 bd 35 9a 0a 3e f2 dd d2 3d
       -0.059001114 -0.062991805 0.13535388 0.10296239
000110 f2 c7 d8 bb 45 54 49 bd 53 7d 2a bd 0c 17 65 3c
       -0.006615632 -0.04915263 -0.041623425 0.013982546
000120 62 52 86 bd a4 7f aa 3d a8 11 f9 3d f3 d1 05 bd
       -0.06558682 0.08325127 0.12161571 -0.032670926
000130 1e c4 00 bc c3 1d 48 3b b3 d9 90 3d 60 5d 25 bd
       -0.007859258 0.0030535317 0.07072773 -0.040372252
000140 28 4a e1 bc 24 b5 e3 3c 3f 75 7f 3c 0c 18 a9 3a
       -0.02750118 0.027796336 0.0155919185 0.0012900843
000150 a6 c5 42 be e0 61 c0 3d 8b 76 24 3d 98 a8 81 3d
       -0.1902071 0.09393668 0.040152114 0.06330985
000160 c3 c5 12 3d 93 23 dd bd 36 fd 07 3d db f3 82 be
       0.03583313 -0.10797801 0.033200465 -0.25576672
000170 29 67 a9 3d 33 1e 5a 3e 58 03 96 bd f0 4a 4a bd
       0.08271629 0.21300583 -0.073248565 -0.049387872
000180 99 e8 ad bd 52 62 a8 3d dd 3d 38 be 7a b1 f9 bc
       -0.0849163 0.08221878 -0.17992349 -0.030480135
000190 3b f5 8a bd f1 c6 b2 3d d2 d1 7c 3d fe 05 0d 3d
       -0.06785055 0.08729351 0.061723538 0.034429543
0001a0 72 de c8 bd 17 57 47 3c c4 f5 80 3d 90 f0 1e 3d
       -0.09808053 0.01216676 0.06296876 0.038803637
0001b0 7e db 46 bd e8 6a 03 3e 89 38 5b 3d 2d 9f 9f bd
       -0.048549168 0.1283375 0.053520713 -0.07794032
0001c0 86 ef 04 be 55 7a 53 bd 5d c1 15 3d 61 ee e9 bb
       -0.12981996 -0.051630337 0.03656136 -0.0071390127
0001d0 d1 d5 5c 3d 73 60 3e bd 36 29 be 3d d8 e3 e8 bd
       0.05391485 -0.0464787 0.09285204 -0.11371583
0001e0 bc e7 b2 3d b8 8c d9 bd d2 83 28 3d d1 35 8d 3d
       0.08735606 -0.10622543 0.04114134 0.0689503
0001f0 db 0b 67 3c f8 d1 d9 3d ec ff 64 be 21 35 99 3d
       0.014101948 0.106357515 -0.22363251 0.07480837
000200 8b 99 ea bd 6d 25 c6 bd aa 3a 0d 3e ed 33 d9 3d
       -0.11455067 -0.09675107 0.1379191 0.10605607
000210 cd 49 86 bc be 86 23 bd 2b 4c 9b bd 77 37 2a bc
       -0.016392613 -0.039923422 -0.07582887 -0.0103892
000220 0d 45 03 3e d6 b0 7b 3d 56 a3 04 3d 9e 1a f3 bd
       0.1281931 0.06144794 0.03238233 -0.11870311
000230 2a af 5a 3e c9 97 a7 3d 24 51 40 3e a7 69 48 bd
       0.21355882 0.081832476 0.18780953 -0.048928883
000240 c8 dd 2a bd 97 53 d1 bd 28 27 a7 3d 85 15 6e bd
       -0.041715413 -0.102210216 0.08161765 -0.05812599
000250 29 e6 8a bd e5 df df 3c af a8 f4 bd 6c b4 27 be
       -0.06782181 0.02732844 -0.11946236 -0.16377419
000260 f4 28 89 3d 36 95 84 be cd 98 0f be 21 74 02 3e
       0.06697264 -0.2589509 -0.14023133 0.12739612
000270 35 f9 35 3e 4b 72 3b bb 45 b1 11 be f9 22 2c bd
       0.17770846 -0.002860206 -0.14227779 -0.04202554
000280 5c 1c a6 3d 74 4d bc 3d 2d c5 4d 3e 91 eb 5b 3e
       0.08110878 0.091944605 0.20094748 0.2147658
000290 75 03 3e be b7 38 ea bd c2 41 47 3e 32 89 3d be
       -0.18556006 -0.11436599 0.19458678 -0.18509367
0002a0 f5 fd 9f bd a9 d7 61 be b8 ee f0 bd 86 97 39 3d
       -0.0781211 -0.22054924 -0.11764282 0.04531052
0002b0 77 57 55 bd 83 c2 4b 3e 61 99 de bb 31 30 24 3e
       -0.052085366 0.19898419 -0.0067931865 0.16034009
0002c0 a7 52 81 be 35 36 48 bd 44 91 e7 3d 06 c8 66 3d
       -0.2525837 -0.04887982 0.11307004 0.0563431
0002d0 8c 58 4a 3d 60 03 7c be 77 2a 76 bd 28 ca b3 bd
       0.04940085 -0.24610662 -0.06009909 -0.087787926
0002e0 27 d7 05 3d 04 49 75 3c 84 4f 01 be ac 8d f9 3c
       0.03267589 0.014971022 -0.12627989 0.030463062
0002f0 24 65 00 3e 33 50 41 be 4d 87 12 3e 24 26 67 be
       0.12538582 -0.1887825 0.14309426 -0.22573143
000300 be 5c 51 3e 02 50 85 3e 4c 91 47 be 18 f5 c2 bc
       0.20445535 0.26037604 -0.1948902 -0.02379851
000310 b9 2e 2d be 15 ab 01 be 98 36 58 be b4 96 ed bb
       -0.16912355 -0.12662919 -0.21114576 -0.007250631
000320 0c c5 fa 3d df c2 c7 3d cc ee e5 3d 38 69 8c 3e
       0.12244615 0.097539656 0.112271875 0.27424026
000330 6f d4 8c 3d 13 f3 6b 3d 2d bf 29 3e b3 8b 44 3b
       0.06876456 0.05760486 0.16576834 0.0029990494
000340 46 00 a7 3b d8 9c 8e bd 5f 25 d7 bd 98 38 ca bd
       0.005096468 -0.06963509 -0.10505175 -0.09874076
000350 34 34 38 bd 1a 91 58 3c 20 49 85 3c 54 15 54 bd
       -0.04497166 0.013218189 0.01627022 -0.051778153
000360 d0 e4 f2 bc e7 76 37 bd 32 41 ef bd f4 b7 54 3e
       -0.029650122 -0.04479113 -0.11682357 0.20773298
000370 b1 4d 56 bd 5a 49 05 3e 54 7c 17 bc a9 fc 5f bd
       -0.052320186 0.13016263 -0.009245951 -0.054684315
000380 2f d5 ae 3d cf 5f f3 bd 69 b0 2a 3e f2 84 50 bb
       0.08536755 -0.118835084 0.16668858 -0.0031817523
000390 b7 68 8e bd 28 20 31 be ed a8 34 3d 60 7e 7d bd
       -0.069535665 -0.17297423 0.044106413 -0.0618881
0003a0 64 1c 29 ba 30 00 4c bd 6e 00 3f bd 60 11 a8 3d
       -0.0006451069 -0.049804866 -0.04663127 0.08206439
0003b0 e8 19 5f 3d d5 ad c6 bd 33 34 15 bd 55 ae 85 3d
       0.054468066 -0.097011246 -0.036426734 0.06527392
0003c0 41 ed 8c 3c 82 34 4f 3d f8 39 c7 be 3e e5 83 bd
       0.017202975 0.050587185 -0.38911414 -0.06440209
0003d0 91 86 3e bd 0c e4 d0 bd ce 84 2d bd ce f4 64 bd
       -0.04651505 -0.101997465 -0.04236298 -0.055897526
0003e0 61 d2 0a 3d 94 e4 4f bd 8c 47 8c bd 54 92 c9 3c
       0.03389204 -0.0507551 -0.06849584 0.024605907
0003f0 5a e9 df 3d 0c 21 7c 3e 23 96 0b 3e 08 5b 59 3c
       0.1093318 0.24621981 0.13631491 0.013266332

weight_hh_l1 f4 [200, 50]
000000 e8 c7 c8 bd 56 18 fe bd 47 1b 9d bd 0b 62 4b 3d
       -0.09803754 -0.124069855 -0.07671218 0.049654048
000010 27 cb 49 3e 66 33 15 bd 22 70 78 3c c3 f8 e8 bd
       0.19706403 -0.03642597 0.015163453 -0.113755725
000020 e1 ae 17 be 8a 01 b2 bc 3b ab 8d be 10 2c 49 3e
       -0.14812805 -0.02172925 -0.276697 0.19645715
000030 a5 7c 4a bd f5 e1 35 3c f8 e5 60 be fd a0 0c be
       -0.049435277 0.011101236 -0.21962726 -0.13733287
000040 48 19 fe 3d 74 8a 37 3e 92 b4 30 be d4 d7 81 be
       0.12407166 0.1792391 -0.17256382 -0.25359976
000050 36 9f 76 3c f4 a0 2c 3e 52 99 4d be e2 e3 ef 3d
       0.015052607 0.16858274 -0.20078018 0.11713387
000060 61 e6 0b bd 9a fd 55 bd 68 c0 fe 3c f1 c7 5d 3e
       -0.034155253 -0.052243806 0.031097606 0.21658303
000070 0d 7f 89 bd 75 ef 3f 3d 5c 1e 09 3e e2 94 b7 3d
       -0.06713686 0.046859223 0.13390487 0.08963944
000080 50 ff 00 bd f9 0c 04 b9 64 7d 44 3e e2 c5 3b be
       -0.031493485 -0.00012593334 0.19188458 -0.18337205
000090 da 04 4f 3d 05 5e 28 be a6 6a 58 3d 48 17 30 be
       0.050541736 -0.16442116 0.052836083 -0.17196381
0000a0 18 5f 10 3e 0e 89 75 bd 68 e8 20 bc e1 e9 e8 3d
       0.14098775 -0.05994516 -0.009821035 0.11372734
0000b0 8a 93 1f 3e 71 ab 86 bd eb 47 c9 3c fb fa 77 be
       0.15583625 -0.065756686 0.024570426 -0.24216835
0000c0 52 39 07 3c ab 55 fb bd 8e f7 af 3b 3f 93 68 bc
       0.008253412 -0.12272199 0.005370087 -0.014195262
0000d0 2b bc 1a be d8 c4 3d 3e cd 98 fd 3c c3 69 91 ba
       -0.15110843 0.18532121 0.03095665 -0.0011094142
0000e0 e1 58 47 bd 79 4a 1a 3d c1 83 b5 bd 9d 5d 01 3d
       -0.048668746 0.03766868 -0.08863021 0.031583417
0000f0 cb 5a ee 3c f5 58 9e bd 94 ac c7 3c b4 4d 33 be
       0.029096028 -0.07731811 0.024374284 -0.1751011
000100 d6 de db bd f2 d9 18 be d1 05 c7 3d 5f 15 81 3d
       -0.10735862 -0.1492689 0.09717906 0.06302904
000110 3b 8e 9e 3d e4 0d e6 bd 49 19 f1 bc 54 b0 07 3e
       0.07741972 -0.11233118 -0.029431002 0.13250858
000120 d4 9b d0 3c 81 c1 e1 bd 8d f8 8e bd ee 9f a3 3d
       0.02546493 -0.11023236 -0.06981001 0.079894885
000130 c9 c9 da 3d ea 93 11 3e 65 e4 49 be 2e f5 8d bd
       0.10683019 0.14216581 -0.19716032 -0.0693153
000140 86 8b 83 bd 9e 3c 0b 3e aa 72 af 3d 54 45 50 bd
       -0.06423096 0.13597342 0.08566792 -0.050847366
000150 63 53 a4 3d 94 db 74 3d be 66 69 3d 60 19 06 be
       0.08023717 0.05977972 0.05698275 -0.13095617
000160 bb 02 1b 3e dd cc 04 be 30 b4 f5 bc 84 85 e5 bd
       0.1513776 -0.12968774 -0.029993147 -0.11207107
000170 4a f5 6b 3d 4e 46 de bd c3 5b 75 3e 46 82 52 3b
       0.057606973 -0.10853253 0.23960786 0.0032121106
000180 7c b0 27 3e d1 23 9f 3d 32 ab 9a bd ef fc ca bd
       0.16375917 0.07770503 -0.07552184 -0.099115245
000190 52 5d 42 bd 0a 51 bb 3d d3 28 3f 3d 4f 58 e0 3d
       -0.04745228 0.09146316 0.046669792 0.109543435
0001a0 9a e1 f9 bc af 08 af 3d 4b 23 f9 3d f2 bd 82 bd
       -0.030503083 0.08546578 0.12164935 -0.063838854
0001b0 e2 55 08 be 7e 2f 10 3d c6 f9 65 3d 8d 07 b2 bd
       -0.13314012 0.035201542 0.056146406 -0.086928464
0001c0 d0 a2 28 3c 4c 2d e8 bc b3 20 77 3d 5d 35 c0 bc
       0.010292724 -0.028341912 0.06033392 -0.023462946
0001d0 c8 5e 54 bc 19 8c bd bd b6 15 5b bc 15 09 dd 3d
       -0.012962051 -0.09255237 -0.0133718755 0.10792748
0001e0 d1 c7 19 bd af 5b ed b9 41 58 a1 bd 65 b7 a6 bd
       -0.037544075 -0.00045272472 -0.07878161 -0.081404485
0001f0 15 fe 2e 3d 93 2d 1c be 50 da 89 3c 41 40 3e 3d
       0.04272278 -0.1525176 0.016827732 0.046447996
000200 0e cf 9b 3d fa bb b8 3d 13 7e 0b be e0 08 5d bd
       0.07607852 0.09020229 -0.13622312 -0.053963542
000210 8b c0 d6 bb 44 1c 82 bd 3a c7 46 bd 76 5d cd bd
       -0.0065537146 -0.063530475 -0.04852984 -0.10027592
000220 6d fb 77 bd ae 91 b8 3d 06 04 c2 bc 0f 71 f3 bd
       -0.060542513 0.09012161 -0.02368356 -0.118867986
000230 d6 1d e4 3c ba 19 77 bd 14 4f 1f be 47 29 03 be
       0.027846258 -0.06032727 -0.1555751 -0.12808715
000240 49 cf ea bd 2b d6 a2 3d 49 ce 5f bd d6 2b 72 3d
       -0.11465318 0.079510055 -0.05464009 0.059123836
000250 32 07 af bd b5 ab bd bd 3a 3d 1b 3e 38 d2 ea bd
       -0.08546294 -0.09261266 0.15160075 -0.11465877
000260 c5 55 00 be 70 a2 a0 3c 2f 0d ae 3d 7d d5 03 3d
       -0.12532718 0.019608706 0.08498608 0.03218602
000270 42 d7 0e bc fe a5 25 39 62 18 8a 3c 98 dd 88 3d
       -0.008718314 0.00015797463 0.01685733 0.06682891
000280 5b 1e 4a be 37 b0 a5 3d b9 94 7b 3c bb 3a 71 be
       -0.19738142 0.08090251 0.015355282 -0.2355756
000290 a0 bc 32 bd e4 f4 9c bc 2b e4 cb 3d 80 8a f8 3c
       -0.043636918 -0.019159742 0.09955629 0.03033948
0002a0 db b4 30 be df d9 3d 3c c3 c5 59 3d 99 ae db 3d
       -0.17256491 0.011587589 0.053167116 0.10726661
0002b0 22 e7 0e 3c 63 7d fa 3c 24 d3 15 be e8 5b 19 be
       0.008722099 0.030577367 -0.14631325 -0.14976466
0002c0 18 60 31 3e 45 6b 48 3e fb 37 25 bd 01 71 0f 3d
       0.17321813 0.1957217 -0.04033659 0.03501988
0002d0 02 af ac bd 44 7d 06 3e e6 6b 1c 3e c4 cb 01 3e
       -0.084318176 0.13133723 0.15275535 0.12675387
0002e0 75 6a 2f 3e 41 b5 29 be 3d 0e 95 bc 88 09 cb bd
       0.17130454 -0.16573049 -0.018195266 -0.09913927
0002f0 aa 86 0a bd 1f e6 85 bd ed d9 77 bd 9c ad e8 3d
       -0.033819832 -0.06538033 -0.060510565 0.11361238
000300 ad 5e 3c 3e cc 5a 6b 3c 39 c1 6f 3e 4a 76 18 be
       0.18395491 0.014364909 0.23413552 -0.14888874
000310 64 36 c4 3d e7 c1 c5 bd 83 d5 79 bd 40 cf e0 bc
       0.09580687 -0.096561246 -0.060994636 -0.027442575
000320 89 02 33 bd 62 5f 16 be 25 9d 9a bc f0 66 cc 3d
       -0.04370359 -0.14684823 -0.01887376 0.09980571
000330 7f 16 31 3c b0 b5 a0 bd 69 0c b6 3d 67 49 95 3d
       0.010808586 -0.07847154 0.08889086 0.07289391
000340 59 e3 64 bd ea 0a 60 bc 06 80 83 3d 2c eb 31 3c
       -0.055880878 -0.013674477 0.06420903 0.010859292
000350 79 d3 e5 3c 83 69 d6 bd fc 6d 06 3e 69 47 32 3e
       0.02805494 -0.104693435 0.13127893 0.17410053
000360 f5 a3 54 be 5c c2 f3 bb aa 7a 0a bc fa f8 8a 3d
       -0.2076567 -0.007438941 -0.008452097 0.0678577
000370 cf 5e f1 3d 4e a3 a7 bc de df 53 3c 29 09 aa 3d
       0.117856614 -0.020463612 0.012931792 0.083025284
000380 30 bd 91 bb 18 b1 d4 bd e5 7d e2 3d 57 36 47 bd
       -0.0044476017 -0.103853405 0.11059169 -0.048635807
000390 a5 89 11 3d 78 25 d8 3d 79 b6 c6 bd 1f 86 79 bd
       0.03553166 0.105540216 -0.09702773 -0.060918923
0003a0 9d 9e 80 be 5e 3d d9 3d 49 b6 7c bd ea 35 5a bd
       -0.25121012 0.10607408 -0.06169728 -0.053274073
0003b0 f9 98 52 3d ec a7 bd bd b7 74 d5 bd 9f 14 9a bc
       0.051415417 -0.09260544 -0.10422652 -0.018808661
0003c0 b0 9a 5e 3d 5d 54 b3 3c 3c fe 9a be 6e cf 02 3d
       0.05434674 0.021890813 -0.3027209 0.0319361
0003d0 a9 91 a5 bb 26 9f 32 bb 64 35 bc 3c 69 59 32 3e
       -0.0050527644 -0.0027255504 0.022974677 0.1741692
0003e0 61 ef 88 3d 70 6d 6c 3d d3 3f 50 3d 36 10 13 bd
       0.06686283 0.057721555 0.050842118 -0.03590413
0003f0 29 84 72 bc c6 13 18 3e 03 ad b2 bc ef 05 cd bd
       -0.014802017 0.14851293 -0.021811014 -0.10010897

bias_ih_l1 f4 [200]
000000 77 d3 2b 3e 8a 8a 01 3e 36 62 07 3e a2 b0 92 3c
       0.16779886 0.12650505 0.13221058 0.01790649
000010 55 36 0b 3d 41 ee 1c 3e f6 c4 03 3e 00 48 55 3d
       0.033987362 0.15325262 0.12868103 0.052070618
000020 34 b9 e9 3b 63 91 b0 bd 61 83 03 3d 19 df 06 be
       0.0071326736 -0.0862148 0.032107715 -0.13171043
000030 b1 77 75 bd 67 03 14 3e ca d7 04 3e 50 3e 82 3e
       -0.0599286 0.14454423 0.12972942 0.25438166
000040 11 df 93 3d b6 9a b3 bd 02 2c cc bd 02 a2 34 3e
       0.07220281 -0.08769743 -0.09969331 0.17639926
000050 66 b5 0b 3d 58 a1 45 bd 5f 7d 16 3e 13 01 e8 3c
       0.034108542 -0.048249573 0.14696263 0.028320825
000060 a7 9f ea 3d 56 5e 9a bd 65 32 7f bd 11 35 43 3c
       0.114562325 -0.075375244 -0.06230392 0.0119145075
000070 31 ce b5 bd 97 33 dd bd 3f 60 1d 3c 03 d7 50 3c
       -0.088772185 -0.108008556 0.009605466 0.012746575
000080 0d 93 21 3e 43 bb 95 bd d6 ce d0 bc cc 6d a1 bd
       0.15778752 -0.07311108 -0.025489252 -0.0788227
000090 f1 37 07 bd 33 e7 20 3e 29 d0 f1 3d 86 4e 74 3d
       -0.033012334 0.15713196 0.118072815 0.0596452
0000a0 dc 73 70 3d a2 d0 72 3d 1e 29 03 3e 23 ff a5 bb
       0.058704242 0.059281 0.12808654 -0.005065815
0000b0 61 d5 15 3d 1c 66 9a 3d b2 6f 16 3e 1d 4d bf 3d
       0.036580447 0.07539007 0.14691046 0.0934088
0000c0 80 14 36 bc 7f 80 06 3e f6 30 25 be 26 58 2b be
       -0.011113286 0.13134955 -0.16131958 -0.16732845
0000d0 dd cb ee bb 46 c1 55 3c 09 fb 0f 3e ec 64 2e bd
       -0.007287486 0.013046568 0.14060606 -0.042576715
0000e0 db ed 94 3d 23 77 ce 3c 17 51 19 be ed 7a d6 3d
       0.0727193 0.025203293 -0.1497234 0.10472665
0000f0 f6 dc 82 3d ec c5 95 3d f1 60 82 3d d3 33 0e be
       0.06389801 0.07313141 0.06366146 -0.13886957
000100 0a 84 7c bd 39 0e 1f be 60 8f ed bd b4 11 07 3d
       -0.06164936 -0.1553277 -0.11599612 0.032975867
000110 5f de dd bd 70 b7 c5 3d b5 ea 90 3d e2 9b da bd
       -0.108334295 0.096541286 0.07076017 -0.106742635
000120 f6 e1 fd bd 96 81 35 bd 59 23 1a be 74 51 f1 bd
       -0.12396614 -0.044313036 -0.15052547 -0.11783114
000130 28 f8 95 3d 64 e2 f6 bd 26 f4 17 3d e3 38 c7 bd
       0.07322723 -0.12054899 0.037098072 -0.09727647
000140 b8 b1 58 3c 2e 1f 77 bd 07 b2 8c bd 91 9f ea 3d
       0.013225965 -0.06033247 -0.068698935 0.11456216
000150 38 b7 89 3d 80 58 18 3d 32 42 20 be 91 57 e0 bd
       0.06724399 0.037193775 -0.15650252 -0.10954202
000160 3a a1 6d 3d 46 76 58 bd 32 28 49 3d 65 80 79 bd
       0.058015086 -0.05284717 0.0491106 -0.060913462
000170 44 cf 8a bc 9d 3b 16 be 4d 09 f1 3c 4b a7 7f 3d
       -0.016944535 -0.14671178 0.02942338 0.062415402
000180 50 e3 95 bb 91 9d 20 bd 05 c1 0a 3e 56 e2 1e 3d
       -0.004574217 -0.039212767 0.13550194 0.03879007
000190 ba 91 b6 3d 7a 29 b4 bd 22 ce 1f bd b9 10 8e 3d
       0.08914514 -0.087969735 -0.039014943 0.06936783
0001a0 9b 93 cd 3d f6 00 11 3e 20 10 82 bd 82 d6 56 bb
       0.10037919 0.14160523 -0.06350732 -0.0032781665
0001b0 4c 9a d3 3d 7d b5 bd 3c 45 f8 cb bd 85 a8 c3 3b
       0.10332164 0.02315783 -0.09959463 0.005971017
0001c0 c3 40 0d be 41 cf 44 bc d9 7f 4f bd ce b1 d3 bd
       -0.13794236 -0.012012304 -0.050659034 -0.10336648
0001d0 b2 95 f6 bd 4b 36 c1 bd ff fd 99 3d d1 14 b7 3d
       -0.12040271 -0.09434184 0.07519149 0.08939517
0001e0 91 cc a2 bd c9 08 ae 3d 59 e7 f2 3d 9e ff ea 3d
       -0.07949174 0.084977694 0.11860532 0.11474536
0001f0 cf 35 f1 bd f3 c1 4d bd f9 4b 14 3e f7 48 8e bd
       -0.11777841 -0.050233793 0.14482106 -0.06947511
000200 52 86 06 be 3e f9 8e 3d 73 cc 9b bd 87 30 05 3e
       -0.13137177 0.06981133 -0.07607355 0.13006793
000210 28 37 66 3d 9d 07 ab 3d 53 48 94 3d 37 1b 14 bd
       0.056204945 0.083510615 0.07240357 -0.036158767
000220 ce 8a e7 bc dd 55 f7 3c 60 c8 b9 3d 34 56 83 3c
       -0.02826443 0.03019231 0.090714216 0.016032316
000230 a6 c5 9b 3d d5 ad 9f bd 1d 51 90 bc 92 a2 97 bd
       0.07606058 -0.07796828 -0.017616803 -0.07404055
000240 38 3a bd 3d 9b ed 67 bd 74 09 d4 3d ad 2f dc 3c
       0.0923962 -0.056623083 0.103533655 0.026878202
000250 cb 6c 86 bd 83 0c 03 3c 35 7e a2 3d 32 9c 57 3d
       -0.06563719 0.0079985885 0.07934228 0.052639194
000260 1a d9 bd bc 30 9f c7 3d fd 37 af bd 5f ee f3 3d
       -0.023174811 0.097471595 -0.08555601 0.119107
000270 1c 9d a1 3c e7 e5 f3 bc ec 5f bb 3d 04 87 3e bd
       0.019728236 -0.029772712 0.09149155 -0.04651548
000280 af c5 2b 3e c4 bd a7 3d ba 44 24 bd ea 11 87 bd
       0.16774629 0.08190492 -0.040104605 -0.06595214
000290 ca f1 a7 3d 29 d2 6d 3e ff f2 a0 3d 9d e1 8b 3d
       0.082004145 0.23224701 0.07858848 0.06830142
0002a0 98 44 e1 3d 3a 9c 27 3e bf ff bf bd 8c c5 74 3c
       0.10999411 0.1636819 -0.093749516 0.014939677
0002b0 cf 68 e1 3d 95 aa db bd 75 3d 57 3d ee fc 37 3e
       0.11006319 -0.10725895 0.052548844 0.17967579
0002c0 8c e3 80 3d 98 d8 5a 3e bd 2f a0 bd 41 10 b3 3d
       0.06293401 0.21371686 -0.07821605 0.087433346
0002d0 88 c6 fe bb 81 d4 02 bd bf ad 50 bd 85 4b 4f 3d
       -0.0077751316 -0.03194094 -0.050946947 0.05060913
0002e0 c9 d3 ce 3c 57 63 49 bb e3 64 fa bd ce a4 b7 bb
       0.025247471 -0.0030729377 -0.12226274 -0.005604363
0002f0 90 72 af 3d 42 76 a3 bb 03 4c d7 bd ad 29 0c be
       0.08566773 -0.0049884627 -0.10512545 -0.13687773
000300 60 ff a2 3b 16 15 84 3c 38 d2 79 3d 76 a7 bf bc
       0.0049742907 0.016123336 0.060991496 -0.023395281
000310 33 5f 7e 3d a4 7b f9 3d a2 b6 0e bd 9d 35 9e bd
       0.062102508 0.12181786 -0.03484214 -0.0772507

bias_hh_l1 f4 [200]
000000 b7 49 17 3d 68 c1 f1 3d 26 46 8c 3c 92 24 f1 3b
       0.036935534 0.118044674 0.017123293 0.007359096
000010 af 79 35 3d 8e c5 f8 bc da 43 10 3e 5a 69 13 3e
       0.0443055 -0.030367639 0.14088383 0.14395657
000020 6d 80 2d bd 29 f5 65 bd 72 1f cf 3d 6b 51 0c bc
       -0.042358804 -0.056142006 0.101134196 -0.008564333
000030 08 43 22 ba 2b 12 6a 3d 40 72 90 3d 1b 6b 16 3e
       -0.0006189798 0.057146233 0.070530415 0.14689295
000040 2f 59 19 3d 2d 27 5c bd 99 51 db 3d 6b 84 4e 3e
       0.037438568 -0.0537483 0.10708923 0.20167701
000050 f0 ab a6 3d 24 4c d4 3c 61 68 ad ba 3c 15 1d bd
       0.08138263 0.025915213 -0.001322996 -0.03835033
000060 36 1c 75 bd 9d 6b 1a bc 32 97 99 bd 23 d9 1f 3e
       -0.059841357 -0.009425071 -0.07499541 0.15610175
000070 92 5b b9 3c 25 29 87 3d 69 dd a0 3d 6b ae ce 3d
       0.022626672 0.065996446 0.07854731 0.10091861
000080 90 90 9e bd 8a 13 88 bc 5d ac 16 bd e2 36 1c 3c
       -0.07742417 -0.01661088 -0.036785472 0.009534569
000090 85 e2 0f 3e 0d b0 2c bd f5 78 90 3d 14 f5 11 bd
       0.14051254 -0.042160083 0.07054321 -0.035634115
0000a0 c9 51 d0 3c 78 45 e3 bc 21 ba 6d 3e 49 ab eb 3c
       0.025429623 -0.027743086 0.23215534 0.028768199
0000b0 72 b3 9d 3d cb f7 60 3d b2 63 9c bd c4 b7 0d 3e
       0.07700242 0.054923814 -0.07636203 0.13839632
0000c0 e4 5a 13 3e 8b 3b d7 3d 10 c9 4a bd e2 8c ea ba
       0.14390141 0.10509404 -0.049508154 -0.001789477
0000d0 d5 63 69 bb 97 cb d3 bd db 8b 3d 3d 48 b8 99 3d
       -0.0035612483 -0.10341566 0.046275955 0.07505852
0000e0 13 0d 81 bc f3 ec 8b 3c 24 e1 c9 3d 31 e9 a0 bd
       -0.015753305 0.01708076 0.09857395 -0.07856978
0000f0 43 d3 9e bd e1 18 bf bc e7 7e c9 bd 31 bc a8 bd
       -0.07755139 -0.023327293 -0.09838658 -0.0823902
000100 82 dc cf bd 37 c3 90 bd 6e 6c bd 3d 36 b6 03 be
       -0.101494804 -0.07068484 0.09249197 -0.12862477
000110 ed 80 90 3d d0 f7 00 be 45 d0 f8 bd 3d f1 10 bd
       0.07055841 -0.12594533 -0.12149099 -0.035386313
000120 b8 44 47 3d 0c a1 53 bd 73 be 0b bc 12 c7 ce bd
       0.04864952 -0.05166726 -0.008529293 -0.100965634
000130 2a 85 de bd 0a 61 03 3d 7f c2 81 bd 62 c2 50 3d
       -0.10865243 0.032074966 -0.06335925 0.050966628
000140 d6 a0 a8 3c 8d 8d a6 3d fc ad f1 3d f7 7f 06 3d
       0.020584505 0.081324674 0.11800763 0.03283688
000150 a1 46 2d 3d af d9 00 3e 69 d6 4b bd db b7 da 3d
       0.042303685 0.1258304 -0.049765024 0.10679599
000160 8a 2d f5 bd 7b b9 e0 bd 0a 9a 10 3e 1b 53 14 be
       -0.119715765 -0.109728776 0.14121261 -0.14484827
000170 ad 4f 52 bd 09 bc a6 3c 23 87 13 bd 39 9b af 3d
       -0.051345516 0.020353334 -0.03601755 0.08574528
000180 bd 90 b8 bd fa 76 29 be 0b d6 a8 bd 4d 78 e0 bd
       -0.09011982 -0.16549292 -0.082439505 -0.109604456
000190 62 ca c5 3d b2 3d 71 bc f8 18 1f bd 59 77 e2 3d
       0.09657742 -0.014724182 -0.03884217 0.1105792
0001a0 81 8d cc 3d 29 3b e0 3d aa 2b 9a bd a9 83 fe bc
       0.09987927 0.10948784 -0.075278595 -0.03106864
0001b0 56 8d e1 bc 97 c9 11 3e d5 24 a8 3d 99 1d ce 3d
       -0.027533215 0.14237057 0.0821015 0.10064239
0001c0 4a dc e6 bc 45 be 9d bd f8 6a 86 bd e6 21 35 3d
       -0.028181214 -0.07702307 -0.065633714 0.04422178
0001d0 4b 18 06 3e 94 8b 05 3e 96 ee 6b 3a a9 6b bf bd
       0.13095205 0.13041526 0.00090000906 -0.093467064
0001e0 48 a7 16 3e 81 7a c8 3d b1 85 d0 bd 29 4b 8f 3d
       0.1471225 0.09788991 -0.101817496 0.069967575
0001f0 78 2f 9b 3c a7 a6 d8 bd 21 32 c0 3d 79 24 a7 3d
       0.018943533 -0.105786614 0.09384561 0.081612535
000200 a1 46 94 3d 38 3d 0a 3e 76 7f 0a 3e 06 fa b5 3c
       0.07240034 0.13499916 0.13525185 0.022213947
000210 82 71 81 bd cb ca ec bc 39 c3 b8 3d 92 b5 1c be
       -0.06320478 -0.028905293 0.09021611 -0.15303639
000220 0a 2e 89 3d d8 d4 08 be a0 6f a1 3d c6 3b b4 bb
       0.066982344 -0.13362443 0.07882619 -0.0055002896
000230 23 99 e6 bb a1 0d 13 3e ed 9c b6 bc d1 5e 88 bb
       -0.0070372983 0.14360668 -0.022291625 -0.0041616936
000240 52 bf a7 bd 1b b4 16 be e0 21 e3 bd 75 22 6c 3d
       -0.08190788 -0.14717142 -0.110904455 0.05765005
000250 32 47 11 be b5 68 14 be c6 8e 56 3e db 9f 8b bc
       -0.14187315 -0.14493068 0.20952901 -0.017043998
000260 7c 54 06 3e 66 a4 39 bd 44 90 16 3e ab 99 fe bd
       0.13118166 -0.0453228 0.1470347 -0.124316536
000270 7c 68 e3 bc 5c 7f 5d 3d 73 cd 6a 3d d8 d7 b0 bd
       -0.027759783 0.054076537 0.057324838 -0.08634919
000280 4e 3a 7f 3d 9a 49 e7 bd c1 dd 09 3e 50 fa a9 bd
       0.062311463 -0.11293335 0.13463499 -0.082996964
000290 03 fa 6e 3d 24 59 2a 3d 6a e0 f9 3d 65 58 ae bd
       0.0583439 0.041588917 0.12201007 -0.08512954
0002a0 2e 40 03 3e df 9e 82 3d 5e 7f 32 3d a9 01 0f 3b
       0.12817451 0.063779585 0.043578498 0.0021821058
0002b0 93 fc bc 3c da fd 8b bd 65 3b 48 3d c3 6a f5 bb
       0.023069656 -0.06835528 0.048884768 -0.0074895336
0002c0 ab 25 27 3d a7 bd 26 3e 33 fe 05 3e 7d c8 6c 3d
       0.040807407 0.16283284 0.1308525 0.057808388
0002d0 36 45 41 3d ab 05 ab bc 7f a6 a2 bd db 7d b7 bd
       0.047185145 -0.020876726 -0.07941913 -0.08959552
0002e0 53 a2 ea bc e2 bf ec 3d 9f 2a 39 bd 78 ac e3 3a
       -0.028641855 0.11560036 -0.045206662 0.0017370125
0002f0 44 e2 aa 3d 7c 24 61 bd 97 7b f9 bd 2a 59 d4 bd
       0.08343938 -0.054966435 -0.12181776 -0.10368569
000300 46 8f ba 3b 24 7b 04 3e 94 99 38 bd bd 77 f9 bb
       0.005693349 0.129376 -0.04506834 -0.007613151
000310 d7 9e 04 bd 3e c3 b5 3d 88 1d 60 bd 3f 73 ae 3d
       -0.032378044 0.0887513 -0.054715663 0.08518075
