mlruns/259183567906258607/models/m-5e106ee87f134ea4a540fe833c06f487/artifacts/data/model.pth (torch, 12029 bytes, 5 tensors)

weight f4 [50, 3]
0.55005467 -0.17028773 0.13374048 0.35336894 0.41088977 0.49812758 -0.35016567 -0.022522714
0.5066513 0.13108766 0.019740663 0.20620084 0.47933173 -0.45113507 0.059405386 -0.09016186
-0.65264237 -0.2227191 -0.155873 0.28999922 0.34091365 -0.045639195 0.40264952 -0.49345982
-0.45028806 0.2123219 -0.08112368 -0.7501128 -0.3502174 -0.036709726 0.4351893 -0.3774663
-0.38914406 0.12409534 -0.121117346 -0.17606619 0.06818056 -0.6808245 -0.34817994 0.12381234
0.44779214 0.4093086 -0.52335346 0.66798913 0.25853705 0.41414565 -0.34549266 -0.2943378
-0.59541017 -0.26370963 -0.45524263 0.08031422 -0.34698212 -0.029900432 -0.3550532 0.21222895
0.18814546 -0.35875025 -0.16608864 0.17034352 -0.19471745 0.12750746 0.08299917 -0.521
-0.17972422 0.22927213 -0.09014785 -0.4191184 -0.5269439 0.44822583 0.6234816 0.13635862
-0.5074936 -0.21095763 -0.25543743 0.09639416 -0.37710437 0.27060616 0.3707815 0.06391387
-0.17699265 0.44923773 0.20589326 -0.5337024 -0.47143885 0.23180589 0.4108107 -0.5117766
0.19402848 0.5756351 0.091278136 -0.19140711 -0.4527328 0.07437074 0.12243354 -0.43700504
0.4109767 -0.5833319 0.34048003 0.43632764 0.5432812 0.26215756 -0.023075424 0.5648596
-0.2656958 -0.27053726 0.26919132 0.46820116 0.046577383 0.6867153 -0.041662753 0.26931453
-0.27003905 0.35571063 0.076252796 -0.10540453 -0.4752754 0.31511873 -0.776052 0.27461332
0.51621336 -0.012563419 -0.43803647 -0.04986102 -0.023012416 -0.45119488 -0.036432903 0.46208763
-0.12079105 -0.4717715 0.32061005 0.15509576 0.27649713 0.051667765 -0.30609107 -0.04408001
0.40195304 -0.53928787 0.062843785 0.41899058 -0.041148245 0.3578505 0.10699237 0.14594698
0.14802985 0.5803943 0.3951108 -0.43440118 0.42458344 -0.2824339
00000000: 62d0 0c3f e85f 2ebe 44f3 083e c6ec b43e
00000010: 2560 d23e 940a ff3e ea48 b3be 8e81 b8bc
00000020: e6b3 013f d83b 063e 2cb7 a13c 5026 533e
00000030: f86a f53e 2dfb e6be 1053 733d c8a6 b8bd
00000040: 9213 27bf 7a10 64be 2c9d 1fbe c77a 943e
00000050: 3c8c ae3e 2af0 3abd 1428 ce3e c4a6 fcbe
00000060: 288c e6be ea6a 593e 2c24 a6bd 6407 40bf
00000070: b24f b3be f05c 16bd 22d1 de3e 4343 c1be
00000080: e43d c7be b325 fe3d 5f0c f8bd b24a 34be
00000090: 40a2 8b3d 844a 2ebf a444 b2be 5391 fd3d
000000a0: 0345 e53e e690 d13e 7efa 05bf 5601 2b3f
000000b0: f85e 843e e60a d43e 6ae4 b0be 72b3 96be
000000c0: cd6c 18bf f304 87be 9015 e9be c87b a43d
000000d0: a4a7 b1be c0f1 f4bc 88c9 b5be 8c52 593e
000000e0: 34a9 403e 1dae b7be 2413 2abe 886e 2e3e
000000f0: 0364 47be 5191 023e 78fb a93d 4260 05bf
00000100: a009 38be 50c6 6a3e 709f b8bd b096 d6be
00000110: cce5 06bf db7d e53e 7d9c 1f3f 98a1 0b3e
00000120: 1aeb 01bf 4705 58be b2c8 82be 4d6a c53d
00000130: d313 c1be e48c 8a3e 13d7 bd3e 46e5 823d
00000140: 903d 35be 7d02 e63e afd5 523e b8a0 08bf
00000150: 6f60 f1be 865e 6d3e c855 d23e cb03 03bf
00000160: 67af 463e d25c 133f 08f0 ba3d 3a00 44be
00000170: 98cc e7be b04f 983d 70be fa3d 20bf dfbe
00000180: 8a6b d23e 3d55 15bf 6653 ae3e 5666 df3e
00000190: 7a14 0b3f 8439 863e ac08 bdbc a49a 103f
000001a0: 4809 88be dc83 8abe 72d3 893e 10b8 ef3e
000001b0: edc7 3e3d 93cc 2f3f 90a6 2abd 98e3 893e
000001c0: 8f42 8abe b41f b63e 6d2a 9c3d 55de d7bd
000001d0: 4c57 f3be 3e57 a13e 58ab 46bf 1e9a 8c3e
000001e0: 8f26 043f ccd6 4dbc 5146 e0be 123b 4cbd
000001f0: 8984 bcbc 0403 e7be ab3a 15bd c096 ec3e
00000200: 4c61 f7bd 098c f1be 0027 a43e 6cd1 1e3e
00000210: 0891 8d3e 94a1 533d f8b7 9cbe 3e8d 34bd
00000220: cacc cd3e c50e 0abf 3eb4 803d ef85 d63e
00000230: 108b 28bd 2e38 b73e d11e db3d 2073 153e
00000240: 2395 173e b994 143f f64b ca3e d569 debe
00000250: 0063 d93e 2d9b 90be

bias f4 [50]
-0.57457125 0.36802006 0.3879789 0.12234549 -0.5468017 0.076290876 0.39322704 -0.11806851
0.26810852 0.48759866 -0.2827882 0.6054175 0.19384645 0.32160813 0.29540256 -0.50149405
0.3854002 -0.089350104 -0.49919868 0.23358364 -0.022268154 -0.10571006 -0.4938744 -0.3222684
0.32556528 0.24049726 -0.23141532 0.4003989 0.28145748 0.51388645 -0.08248627 -0.39689976
-0.05315071 -0.13874741 0.28390792 -0.37437344 -0.07747646 -0.28028592 0.54281527 0.04756534
-0.014153461 0.5571023 0.037545208 -0.52855015 -0.019859292 0.5253023 0.12929836 -0.22278108
-0.3121945 0.24433437
00000000: 1a17 13bf 206d bc3e 2ca5 c63e 4690 fa3d
00000010: 32fb 0bbf 643e 9c3d 0e55 c93e e7cd f1bd
00000020: 8545 893e 88a6 f93e 9dc9 90be a4fc 1a3f
00000030: af7f 463e d2a9 a43e 013f 973e ea61 00bf
00000040: 2d53 c53e 30fd b6bd f896 ffbe 8d30 6f3e
00000050: b46b b6bc 847e d8bd 1bdd fcbe 5d00 a5be
00000060: 7eb0 a63e ea44 763e 23f8 6cbe 1601 cd3e
00000070: 321b 903e 108e 033f 90ee a8bd 7236 cbbe
00000080: 8fb4 59bd cd13 0ebe 615c 913e e0ad bfbe
00000090: faab 9ebd a381 8fbe f1f5 0a3f e0d3 423d
000000a0: ebe3 67bc 429e 0e3f 01c9 193d 104f 07bf
000000b0: f4af a2bc 367a 063f ca66 043e b920 64be
000000c0: f5d7 9fbe ca32 7a3e

weight f4 [25, 50]
0.006182015 -0.09765129 0.14012636 0.0052369833 -0.13685885 -0.078784734 0.13662265 0.13555376
-0.08032473 -0.121205695 0.087631345 -0.06512074 -0.027263924 0.016174272 -0.13103186 0.14137317
-0.061928846 0.061242685 0.1157874 -0.10548431 0.06797016 -0.12126049 0.049307495 0.031332493
0.08106838 -0.116877094 0.05405833 -0.011711389 -0.075026065 -0.11466776 -0.08865982 0.0046611577
0.0824047 -0.12217472 -0.10114641 0.012920573 0.011328265 0.00041656196 0.014457613 -0.056865185
-0.08361091 0.049871862 -0.0136960745 -0.068356864 -0.11893875 -0.08919531 0.03235154 0.13230295
0.08315781 0.1135502 0.027743772 -0.062257133 -0.13117598 0.118645385 0.085303664 -0.06595771
0.107899636 0.0906975 0.1315683 -0.11484454 0.015225917 0.022844344 0.13453992 -0.0054558665
-0.0813474 -0.09940289 -0.06790429 0.13707365 0.06674999 0.08078565 -0.06990485 -0.032107636
-0.0055281967 -0.07511075 0.07103348 -0.05639247 -0.09790172 -0.03541401 0.06772727 -0.013158113
0.013542607 0.13555412 -0.1289452 0.07144195 -0.056593068 0.044018745 -0.064563714 -0.071937375
0.100774676 -0.0063705146 -0.057508685 -0.02732107 0.047341764 -0.13373286 -0.052100167 -0.1108796
-0.0047412068 -0.016713433 -0.037757054 0.02893868 0.118821606 0.046466246 0.034536038 -0.013943573
-0.012721583 0.19373776 0.16856012 -0.23611404 0.018165562 0.14925241 0.22850765 0.04282533
-0.22436239 0.173903 0.027114816 0.11463539 0.15176712 0.026671454 0.026009485 0.21176328
-0.09814511 -0.117189385 -0.09887926 0.12672926 0.18357877 -0.11617004 0.113871925 -0.056066185
0.12705936 -0.023765983 0.1062537 -0.056078866 -0.23872112 0.091068566 -0.020977788 -0.034647964
0.165564 0.058682173 -0.083416715 -0.33449587 -0.18471086 -0.07600464 0.20152731 0.06298174
-0.13828681 0.1741889 0.17454854 0.11273204 -0.24278319 0.19813105 0.050917894 0.0980398
0.07136691 -0.053556465 0.007477954 -0.04204954 0.08646637 -0.35921162 0.033069234 0.08116477
0.29096204 0.08906841 -0.24825096 0.07609475 0.030583883 0.026862293 0.2160349 0.017657757
-0.06910433 0.08511516 -0.04268709 -0.13164942 0.08315396 0.12601055 0.11972894 0.055459574
0.093376674 0.094883114 0.09917887 -0.002173042 -0.08724825 0.07772748 -0.063352354 0.014985013
0.06443885 -0.13434283 0.2191592 -0.08063032 0.023164097 -0.2763689 0.11593448 0.16361548
0.089204155 -0.105398014 -0.13196525 -0.020949222 -0.08608987 0.07329258 -0.18729049 0.01298915
-0.09868498 0.05895126 0.10321993 -0.080189124 0.08926314 -0.095428154 -0.11019314 -0.02474863
-0.0480233 0.038155183 0.085011795 -0.015595436 -0.12555388 0.13976721 -0.09717688 -0.11210189
-0.04050456 -0.10866016 0.095022604 0.031528667 -0.08707974 0.12041016 0.029992878 0.060711578
-0.08957799 -0.07176108 0.124561 0.02737403 0.038232565 -0.13266495 0.09384571 -0.10446921
-0.025492676 -0.01488933 -0.05634149 -0.04718613 -0.10289798 -0.09402342 -0.13745804 0.1212724
0.038670912 -0.0017870218 -0.13593465 0.124374196 -0.13347623 -0.12180574 -0.13687727 0.09216416
0.048457533 -0.11673103 0.1170892 -0.03712981 0.10531091 0.14243126 0.13704227 0.06872574
00000000: 8092 ca3b 66fd c7bd 497d 0f3e 009b ab3b
00000010: ba24 0cbe e459 a1bd cfe6 0b3e 9bce 0a3e
00000020: 4b81 a4bd b13a f8bd 1078 b33d 065e 85bd
00000030: 9858 dfbc e87f 843c 372d 06be 21c4 103e
00000040: 1aa9 7dbd 9cd9 7a3d f221 ed3d 2808 d8bd
00000050: f033 8b3d 6b57 f8bd a8f6 493d 8056 003d
00000060: 2e07 a63d 425d efbd 446c 5d3d 20e1 3fbc
00000070: 44a7 99bd eed6 eabd 4893 b5bd a0bc 983b
00000080: ccc3 a83d bd36 fabd d925 cfbd d0b0 533c
00000090: 309a 393c 0066 da39 a0df 6c3c 78eb 68bd
000000a0: 323c abbd 7046 4c3d 8065 60bc affe 8bbd
000000b0: 2996 f3bd 08ac b6bd 0c83 043d 6d7a 073e
000000c0: a44e aa3d 028d e83d e846 e33c 5601 7fbd
000000d0: ff52 06be 5afc f23d b0b3 ae3d d614 87bd
000000e0: 7cfa dc3d 9cbf b93d d7b9 063e 9d33 ebbd
000000f0: 2076 793c 1024 bb3c d5c4 093e 20c7 b2bb
00000100: 7799 a6bd be93 cbbd 6811 8bbd 095d 0c3e
00000110: 38b4 883d f272 a53d 462a 8fbd 4c83 03bd
00000120: e025 b5bb aad3 99bd 007a 913d cafb 66bd
00000130: b280 c8bd 480e 11bd 98b4 8a3d 2095 57bc
00000140: d0e1 5d3c b3ce 0a3e 360a 04be 2850 923d
00000150: 22ce 67bd 004d 343d fb39 84bd e753 93bd
00000160: f462 ce3d c0bf d0bb 3a8e 6bbd 70d0 dfbc
00000170: 70e9 413d 44f1 08be fc66 55bd d814 e3bd
00000180: 205c 9bbb 9cea 88bc 24a7 1abd d010 ed3c
00000190: be58 f33d 6453 3e3d a975 0d3d 9673 64bc
000001a0: 306e 50bc 3163 463e 069b 2c3e e1c7 71be
000001b0: f2cf 943c a0d5 183e e9fd 693e 9d69 2f3d
000001c0: 41bf 65be a113 323e e41f de3c f6c5 ea3d
000001d0: d768 1b3e 187e da3c d811 d53c 79d8 583e
000001e0: 4e00 c9bd fd00 f0bd 3681 cabd 51c5 013e
000001f0: 13fc 3b3e 8fea edbd af35 e93d a8a5 65bd
00000200: d91b 023e e1b0 c2bc 8a9b d93d f4b2 65bd
00000210: 4f73 74be 2882 ba3d 9cd9 abbc 06eb 0dbd
00000220: 9c89 293e b85c 703d 62d6 aabd 0b43 abbe
00000230: d824 3dbe 52a8 9bbd 2d5d 4e3e 92fc 803d
00000240: 0f9b 0dbe 935e 323e dabc 323e 0ee0 e63d
00000250: 289c 78be dee2 4a3e 488f 503d 17c9 c83d
00000260: d128 923d 065e 5bbd a009 f53b 233c 2cbd
00000270: 4815 b13d 96ea b7be 9b73 073d b739 a63d
00000280: faf8 943e 8069 b63d 8035 7ebe 90d7 9b3d
00000290: 0d8b fa3c 500e dc3c 4138 5d3e 00a7 903c
000002a0: 9286 8dbd db50 ae3d a8d8 2ebd 1bcf 06be
000002b0: a04c aa3d e908 013e 7234 f53d 9429 633d
000002c0: 453c bf3d 1452 c23d 4b1e cb3d 9869 0ebb
000002d0: 36af b2bd 962f 9f3d e1be 81bd b383 753c
000002e0: 84f8 833d 2b91 09be 456b 603e 8221 a5bd
000002f0: a2c2 bd3c 3980 8dbe 0f6f ed3d d18a 273e
00000300: abb0 b63d eada d7bd e621 07be b49d abbc
00000310: e34f b0bd 6c1a 963d 14c9 3fbe 72d0 543c
00000320: 5a1b cabd e076 713d f864 d33d 323a a4bd
00000330: 98cf b63d d66f c3bd f1ac e1bd a4bd cabc
00000340: 14b4 44bd 9c48 1c3d aa1a ae3d 0084 7fbc
00000350: 3291 00be 231f 0f3e ac04 c7bd ad95 e5bd
00000360: 1ce8 25bd 3889 debd 369b c23d 3424 013d
00000370: dd56 b2bd 9a99 f63d a0b3 f53c b4ac 783d
00000380: aa74 b7bd 79f7 92bd d619 ff3d 803f e03c
00000390: c099 1c3d 52d9 07be 2e32 c03d f4f3 d5bd
000003a0: 04d6 d0bc 60f2 73bc 56c6 66bd 3e46 41bd
000003b0: 2dbc d2bd 5a8f c0bd cdc1 0cbe aa5d f83d
000003c0: 6465 1e3d 803a eaba 7432 0bbe e6b7 fe3d
000003d0: fead 08be 4a75 f9bd 8e29 0cbe 90c0 bc3d
000003e0: 687b 463d ae10 efbd 76cc ef3d 6d15 18bd
000003f0: 3fad d73d 80d9 113e cf54 0c3e 15c0 8c3d

bias f4 [25]
-0.019661658 -0.13377254 0.02093821 -0.021065485 0.07633145 0.105012834 0.11769578 -0.13056333
-0.1169435 0.048529282 0.091269515 -0.0912183 -0.0042345515 -0.07801836 -0.09222208 0.03509236
-0.10614091 0.14593408 0.06798142 -0.012592753 0.07682109 0.028342962 0.051650874 0.1046756
0.04438428
00000000: 7c11 a1bc abfb 08be 9c86 ab3c 8691 acbc
00000010: aa53 9c3d f810 d73d 7c0a f13d 65b2 05be
00000020: 1380 efbd a4c6 463d 83eb ba3d a9d0 babd
00000030: fec1 8abb 17c8 9fbd eede bcbd 02bd 0f3d
00000040: 6860 d9bd be6f 153e d839 8b3d d651 4ebc
00000050: 6054 9d3d 802f e83c de8f 533d 2960 d63d
00000060: 4acc 353d

weight f4 [1, 25]
-0.14183526 -0.1365413 0.27053052 0.11577754 -0.059954435 0.13497193 -0.14104359 -0.16820231
0.16179763 -0.084504604 -0.055136178 0.32257217 0.15439767 0.1655218 -0.23522002 0.035768837
0.17390166 0.20059752 -0.1843541 -0.12699899 -0.05575732 -0.103797846 0.03623776 -0.012307603
0.11453394
00000000: 433d 11be 7cd1 0bbe fa82 8a3e c61c ed3d
00000010: c892 75bd 1536 0a3e bb6d 10be 3a3d 2cbe
00000020: 47ae 253e c010 adbd 79d6 61bd 2e28 a53e
00000030: 6c1a 1e3e 8c7e 293e 84dd 70be 5882 123d
00000040: 4713 323e 7069 4d3e 52c7 3cbe 060c 02be
00000050: ca61 64bd f793 d4bd 0c6e 143d d4a5 49bc
00000060: c590 ea3d
