mlruns/259183567906258607/models/m-b9b1666f7b1644c9a0fb51a4d1c6770e/artifacts/data/model.pth (torch, 133029 bytes, 9 tensors)

weight_ih_l0 f4 [200, 3]
0.28201562 0.10192978 0.08624755 0.31171867 0.106085174 0.028839156 -0.0007498422 0.085196786
0.09621821 0.027003102 0.033295546 -0.07472721 0.18550362 0.06975385 0.13231911 0.12588139
0.098178886 0.05209425 0.0035320532 -0.06426322 -0.112464726 0.13162237 0.10098812 0.051048085
-0.041383553 -0.050857212 -0.08520283 0.11208738 -0.021487854 -0.124106646 -0.12398544 -0.0640903
-0.044875957 0.16651994 -0.080149926 0.119565114 -0.03564008 0.080254704 0.025538877 0.33643362
0.14654598 -0.05590301 0.08541266 -0.06458763 0.0042736083 0.2806197 -0.04513197 0.12134738
0.1894832 -0.047938988 0.10833438 0.26233703 -0.0031547856 0.048465297 0.11079353 0.017886844
0.0059559643 0.13608034 0.12311312 0.054112226 0.2505079 -0.035762213 -0.08334936 0.23354675
-0.0004496581 -0.03512308 0.2518255 -0.06516602 0.14111854 0.08586066 0.11136347 -0.038332425
-0.11539559 0.13000895 0.07403156 0.100499414 0.032123618 -0.006512746 0.12718034 -0.09026617
0.0087763965 -0.097099505 0.04512691 0.12410702 0.16580302 -0.08994125 0.09363894 0.027734673
0.059886996 -0.10653557 -0.031602394 0.011705347 -0.10578283 0.05338121 0.02172714 0.0077382624
0.01608413 0.09569287 -0.11560156 0.16518919 0.007864834 0.083232865 0.010932599 -0.04631556
-0.091085024 -0.080992736 0.1830381 0.012115538 -0.14793183 0.14176053 0.13344307 0.11321449
0.10612122 -0.083297856 -0.057287224 0.050807938 -0.050615758 -0.025902966 -0.054515567 0.095292196
0.076631315 0.088652365 -0.11300582 -0.18521778 0.035050035 -0.10729629 0.07660915 -0.14779975
-0.028310731 0.12999687 -0.08492904 -0.059129573 0.19425325 -0.06437368 -0.018593788 0.11715034
-0.07481891 -0.05371414 -0.05256366 -0.017623007 -0.009940028 0.2475937 0.029675443 -0.032794632
0.12620762 -0.11717107 0.08076407 0.29873326 0.0061792405 -0.004900083 0.04166963 0.12832752
-0.072924085 0.2110307 -0.013307621 -0.06092017 0.05409262 -0.008651295 0.008439451 -0.052632827
-0.038623087 0.018381804 0.27991685 0.02571501 0.08381352 -0.00483028 0.0024959138 -0.07299509
0.1035583 0.048902426 0.034903914 -0.120417885 -0.09077794 0.062514335 -0.0008216577 0.07396521
-0.12105698 -0.059375964 -0.07147396 0.0631921 -0.27017057 -0.2320879 -0.001854524 0.090191916
0.12847164 -0.1062102 0.06867076 -0.05154479 0.10115063 -0.12980181 0.09966139 0.06638874
0.14810741 -0.17863472 0.11878677 0.2467723 0.11702135 0.121378586 0.049463194 0.027665822
-0.0548502 0.119402006 -0.03100999 -0.014366329 -0.17791142 0.065461524 0.13424312 0.16469926
-0.07393064 -0.069175184 0.04235299 0.087205105 0.026901558 -0.024311345 0.051072016 0.012515649
0.23980753 0.068188116 0.032215625 0.09890547 0.05703009 -0.12830567 -0.16962372 0.13554765
0.124004826 0.0031328143 0.035998184 -0.09900336 -0.03569255 0.041760813 -0.061213054 0.12896459
-0.050596796 -0.07267353 -0.041510865 0.08497763 -0.12890914 0.020356469 0.04861407 0.026616678
0.008172354 0.11542877 0.039686903 0.043761972 0.09515781 0.06797871 0.07225154 0.02359669
0.019718572 0.12092748 -0.06118788 0.0853076 -0.050562095 0.012883233 0.12277715 -0.20602109
00000000: 5a64 903e 8fc0 d03d 8ea2 b03d 9799 9f3e
00000010: 2f43 d93d 1840 ec3c 0f91 44ba a77b ae3d
00000020: 0e0e c53d 9c35 dd3c e960 083d 940a 99bd
00000030: a9f4 3d3e 1bdb 8e3d a97e 073e 0de7 003e
00000040: 0312 c93d c860 553d 057a 673b 6f9c 83bd
00000050: e853 e6bd 04c8 063e dcd2 ce3d cc17 513d
00000060: cd81 29bd a74f 50bd d27e aebd 118e e53d
00000070: 4c07 b0bc a02b febd 14ec fdbd c641 83bd
00000080: dacf 37bd 3484 2a3e a525 a4bd 8ede f43d
00000090: 55fb 11bd 945c a43d e836 d13c 0741 ac3e
000000a0: 2610 163e 8efa 64bd d5ec ae3d 8546 84bd
000000b0: a009 8c3b 63ad 8f3e 4ddc 38bd fa84 f83d
000000c0: e207 423e ac5b 44bd 6ade dd3d 0a51 863e
000000d0: 85c0 4ebb 8c83 463d b8e7 e23d 6e87 923c
000000e0: 402a c33b a558 0b3e bb22 fc3d c8a4 5d3d
000000f0: 9242 803e 667b 12bd 12b3 aabd e126 6f3e
00000100: 17c0 ebb9 38dd 0fbd 46ef 803e c375 85bd
00000110: 6181 103e b7d7 af3d 8812 e43d 7602 1dbd
00000120: 8654 ecbd 1121 053e dc9d 973d a3d2 cd3d
00000130: 0e94 033d e068 d5bb 903b 023e 78dd b8bd
00000140: e0ca 0f3c 1bdc c6bd ffd6 383d d22b fe3d
00000150: 44c8 293e 1e33 b8bd c6c5 bf3d d333 e33c
00000160: 114c 753d 522f dabd 8371 01bd c9c7 3f3c
00000170: aba4 d8bd 41a6 5a3d 1dfd b13c 4091 fd3b
00000180: dec2 833c a0fa c33d 83c0 ecbd 5b27 293e
00000190: 81db 003c fe75 aa3d a51e 333c 62b5 3dbd
000001a0: c98a babd 85df a5bd 576e 3b3e 4080 463c
000001b0: 717b 17be ac29 113e 4da5 083e 00dd e73d
000001c0: 1556 d93d 1198 aabd 02a6 6abd fc1b 503d
000001d0: 7852 4fbd 7532 d4bc b74b 5fbd 8e28 c33d
000001e0: e1f0 9c3d 5f8f b53d 986f e7bd bba9 3dbe
000001f0: a090 0f3d 28be dbbd 42e5 9c3d d158 17be
00000200: e8eb e7bc e61d 053e 47ef adbd da31 72bd
00000210: 53ea 463e 59d6 83bd 0052 98bc 84ec ef3d
00000220: a83a 99bd 5c03 5cbd fe4c 57bd 205e 90bc
00000230: 80db 22bc 3489 7d3e ea19 f33c aa53 06bd
00000240: 923c 013e 63f7 efbd a267 a53d 91f3 983e
00000250: 3a7b ca3b e090 a0bb c6ad 2a3d 4a68 033e
00000260: 3959 95bd 6f18 583e 3508 5abc 6e87 79bd
00000270: 3990 5d3d 29be 0dbc a045 0a3c 8595 57bd
00000280: 3e33 1ebd 7095 963c 4351 8f3e 49a8 d23c
00000290: 6ca6 ab3d 5347 9ebb 7c92 233b 737e 95bd
000002a0: 6016 d43d e94d 483d 68f7 0e3d a79d f6bd
000002b0: c9e9 b9bd 8407 803d 8464 57ba 127b 973d
000002c0: b9ec f7bd 3634 73bd f160 92bd dc6a 813d
000002d0: cc53 8abe 73a8 6dbe 8013 f3ba 8ab6 b83d
000002e0: 128e 033e bc84 d9bd 41a3 8c3d a120 53bd
000002f0: 1028 cf3d c4ea 04be 451b cc3d d2f6 873d
00000300: 78a9 173e 05ec 36be 7a46 f33d e1b1 7c3e
00000310: e4a8 ef3d 5695 f83d eb99 4a3d 6fa3 e23c
00000320: 9aaa 60bd 0a89 f43d aa08 febc c060 6bbc
00000330: 692e 36be b110 863d 0777 093e eca6 283e
00000340: f368 97bd b8ab 8dbd 547a 2d3d 9798 b23d
00000350: a860 dc3c 9628 c7bc e430 513d 700e 4d3c
00000360: 1b90 753e 36a6 8b3d 88f4 033d f38e ca3d
00000370: 6298 693d 9062 03be d7b1 2dbe 01cd 0a3e
00000380: 3ef6 fd3d e74f 4d3b d572 133d 46c2 cabd
00000390: 5a32 12bd 630d 2b3d 8aba 7abd 4b0f 043e
000003a0: 963e 4fbd dcd5 94bd 4c07 2abd c008 ae3d
000003b0: c200 04be 9cc2 a63c 8c1f 473d 380b da3c
000003c0: 56e5 053c eb65 ec3d bc8e 223d c13f 333d
000003d0: 19e2 c23d 6c38 8b3d 9ef8 933d d84d c13c
000003e0: d888 a13c d4a8 f73d 24a0 7abd c0b5 ae3d
000003f0: 331a 4fbd 3214 533c 9672 fb3d 31f7 52be

weight_hh_l0 f4 [200, 50]
0.053072494 0.3023572 -0.22158368 0.18841241 0.21105283 -0.2571548 0.3256354 0.2989457
-0.37153396 0.07372889 -0.265075 0.15567894 0.31977403 0.0065022893 -0.16811793 0.03938973
-0.2817683 0.15943275 0.04331333 -0.14054815 -0.21698673 -0.2774253 0.3101761 -0.27176747
-0.32586327 -0.16277131 -0.15865918 0.25801063 -0.033916295 -0.12709527 -0.097193845 0.20673439
-0.25987598 0.09593759 0.1301946 -0.009816739 0.23224734 0.22557336 0.25177357 0.19647022
-0.20933777 0.13392815 -0.09491386 -0.29900247 0.28740367 0.23986262 0.098133676 -0.23946081
-0.3323109 0.07261308 0.19603255 0.2650414 -0.3666887 0.39849672 0.4228427 -0.21463315
0.21075909 0.22003804 -0.42262593 0.3656986 -0.4407353 0.21318421 0.3169322 -0.012201843
-0.27796936 0.2792359 -0.25945517 0.31425682 0.42725247 -0.24299458 -0.28125075 -0.43285808
0.27721652 -0.3309724 -0.4075076 -0.24290307 -0.3591313 0.29244035 -0.14469889 -0.16853921
-0.29041904 0.25385928 -0.3852589 0.38731217 0.35977277 -0.29091427 0.3521027 0.32158843
0.42231107 0.18332976 -0.25147438 0.26303625 -0.3243095 -0.33631483 0.32331634 0.29818
0.19546784 -0.23155515 -0.37097034 0.1987775 0.082536995 -0.15888445 -0.07442943 0.022557577
-0.090457186 -0.11782314 -0.12123755 -0.026317863 0.050453406 -0.138256 -0.16610755 -0.005583871
-0.005585888 -0.23218621 -0.14131919 -0.2567211 0.07623257 0.027542962 0.078287266 -0.08441173
-0.044238288 -0.11082181 0.10885569 0.00890106 0.060639925 0.11251548 0.028393388 0.013127481
0.12585172 0.005493459 0.047280133 -0.13751273 0.069178194 0.0041355365 -0.12574647 -0.023681194
-0.034937505 0.009624257 0.12421751 -0.022506366 0.0020566178 0.0063111256 0.03053693 0.025051685
-0.03414362 0.08272741 0.0007766967 0.04468522 0.115317486 -0.07745991 -0.11698005 -0.12744819
0.037768546 -0.11466658 -0.050954517 -0.1380623 -0.122535795 -0.018743243 -0.029959382 -0.027856603
-0.033898406 -0.13972469 -0.03030216 -0.05238033 -0.06615683 -0.15016489 -0.07080217 -0.098412156
-0.08693028 -0.060148176 -0.015215833 -0.06929837 0.11676204 0.01863268 0.104007155 -0.022398295
0.034901287 -0.07528779 -0.065487966 0.00868874 0.09060036 -0.005072137 -0.15241313 0.06182195
-0.059312306 0.0510331 0.01790266 0.05819262 0.06511264 -0.019185336 -0.010037902 0.033148456
0.016250322 0.036760397 0.12121203 0.1252359 0.0663493 -0.046814196 0.06523562 0.09868481
-0.013891497 0.011170129 -0.066207364 0.03525995 0.18846302 -0.112885535 0.28367838 0.14037278
-0.2471521 0.060829233 -0.24518204 0.2788563 0.035859082 0.020493347 -0.10402625 -0.026768468
-0.21916896 0.23507579 0.02273822 -0.16656998 0.06528429 -0.027836276 0.026452905 -0.17450549
-0.1965605 -0.19091141 -0.24429005 0.2562219 -0.12682843 -0.0233472 -0.14777051 0.22029668
-0.17619127 0.21823713 0.015523826 -0.22293635 0.06438204 0.027913382 0.0950816 0.21780889
-0.27463675 0.25734183 -0.24754232 -0.26684567 0.07238886 0.06322122 0.26764512 -0.043315202
-0.0654764 -0.045720395 -0.038653985 -0.3169669 0.10509449 -0.05284106 0.041884538 -0.09793004
00000000: 8b62 593d 90ce 9a3e d5e6 62be 2fef 403e
00000010: 3c1e 583e cba9 83be afb9 a63e 690f 993e
00000020: b339 bebe 2cff 963d e9b7 87be 4d6a 1f3e
00000030: 6cb9 a33e 2811 d53b 1b27 2cbe 2057 213d
00000040: ef43 90be 5742 233e 5169 313d dbeb 0fbe
00000050: c531 5ebe b00a 8ebe 67cf 9e3e 1b25 8bbe
00000060: 8dd7 a6be 86ad 26be 8d77 22be f819 843e
00000070: d0eb 0abd 4325 02be 910d c7bd 2eb2 533e
00000080: 770e 85be ed7a c43d bc51 053e 63d6 20bc
00000090: 3fd2 6d3e b4fc 663e 77e8 803e 7d2f 493e
000000a0: a45c 56be 7624 093e 3362 c2bd da16 99be
000000b0: 9326 933e 8c9e 753e 4ffa c83d 3735 75be
000000c0: a724 aabe 2bb6 943d c2bc 483e 82b3 873e
000000d0: 9fbe bbbe c307 cc3e d77e d83e cbc8 5bbe
000000e0: 3bd1 573e a751 613e 6d62 d8be d93c bb3e
000000f0: 0fa8 e1be f64c 5a3e f044 a23e 3dea 47bc
00000100: 0052 8ebe 02f8 8e3e 4fd7 84be 45e6 a03e
00000110: d6c0 da3e 92d3 78be 1900 90be 939f ddbe
00000120: 53ef 8d3e 3775 a9be d6a4 d0be 95bb 78be
00000130: 0fe0 b7be beba 953e f22b 14be 8b95 2cbe
00000140: ceb1 94be d8f9 813e a840 c5be c84d c63e
00000150: 2334 b83e b7f2 94be ce46 b43e 3da7 a43e
00000160: 2839 d83e ccba 3b3e 40c1 80be b0ac 863e
00000170: e50b a6be 7531 acbe b889 a53e 0dab 983e
00000180: b928 483e cb1c 6dbe d3ef bdbe 548c 4b3e
00000190: 2809 a93d 9bb2 22be 756e 98bd abca b83c
000001a0: 9e41 b9bd 424d f1bd 654b f8bd 8f98 d7bc
000001b0: 3ba8 4e3d fb92 0dbe 1918 2abe e8f8 b6bb
000001c0: d309 b7bb 39c2 6dbe fab5 10be f370 83be
000001d0: d21f 9c3d c7a1 e13c 1355 a03d 0fe0 acbd
000001e0: 3533 35bd 8cf6 e2bd bbef de3d c0d5 113c
000001f0: 9261 783d 846e e63d 4099 e83c a514 573c
00000200: 46df 003e 7902 b43b d0a8 413d 23d0 0cbe
00000210: 4cad 8d3d 6583 873b afc3 00be 10ff c1bc
00000220: a11a 0fbd 0faf 1d3c c065 fe3d 455f b8bc
00000230: 52c8 063b 8fcd ce3b 9528 fa3c 3139 cd3c
00000240: 2eda 0bbd fd6c a93d 3c9b 4b3a d907 373d
00000250: 932b ec3d 4da3 9ebd 3d93 efbd c781 02be
00000260: 31b3 1a3d 50d6 eabd afb5 50bd 3460 0dbe
00000270: 0cf4 fabd 6e8b 99bc 616d f5bc 8833 e4bc
00000280: 0ed9 0abd fd13 0fbe 3c3c f8bc c28c 56bd
00000290: 3b7d 87bd d3c4 19be ba00 91bd 508c c9bd
000002a0: 8108 b2bd ef5d 76bd d44b 79bc 4eec 8dbd
000002b0: f020 ef3d 90a3 983c b401 d53d a17c b7bc
000002c0: a7f4 0e3d 7c30 9abd 8e1e 86bd 385b 0e3c
000002d0: ae8c b93d 2b34 a6bb 3012 1cbe 0339 7d3d
000002e0: 76f1 72bd 1508 513d 99a8 923c 625b 6e3d
000002f0: c759 853d 912a 9dbc 0376 24bc adc6 073d
00000300: 651f 853c 1292 163d 033e f83d d73d 003e
00000310: 24e2 873d 3ec0 3fbd 419a 853d 431b ca3d
00000320: 2999 63bc eb02 373c ba97 87bd bd6c 103d
00000330: 73fc 403e 8830 e7bd 4b3e 913e e2bd 0f3e
00000340: 7115 7dbe 1328 793d 0011 7bbe 41c6 8e3e
00000350: f9e0 123d aae1 a73c b70b d5bd 8c49 dbbc
00000360: d46d 60be b5b7 703e 8145 ba3c 5291 2abe
00000370: c5b3 853d e708 e4bc c3b3 d83c 91b1 32be
00000380: 2847 49be 487e 43be 2c27 7abe 842f 833e
00000390: 50df 01be a142 bfbc 2751 17be 7495 613e
000003a0: 7c6b 34be 8e79 5f3e a557 7e3c 6d49 64be
000003b0: bbda 833d 9baa e43c 24ba c23d 4b09 5f3e
000003c0: 309d 8cbe 4fc2 833e bc7b 7dbe ff9f 88be
000003d0: 9c40 943d 217a 813d c808 893e 486b 31bd
000003e0: 7e18 86bd 4f45 3bbd a453 1ebd 7c49 a2be
000003f0: c83b d73d de6f 58bd 1f8f 2b3d 8b8f c8bd

bias_ih_l0 f4 [200]
0.2842494 0.20209326 0.07198568 -0.001059686 0.2048005 0.12735106 -0.030362751 0.114119835
0.14399701 0.080057144 0.24930117 0.043716833 0.014331826 0.10820326 0.040476542 0.18938491
0.14850293 -0.025364546 -0.084956996 0.105923556 0.05339703 0.16599931 -0.091182 0.07913486
0.031433385 -0.09377057 -0.030386578 0.13041028 -0.08038203 -0.029006837 -0.02360067 0.036906447
0.07555546 -0.060573798 -0.105055735 -0.024134658 0.10531405 0.11088863 0.15149918 0.0032149071
-0.12062192 -0.06795611 -0.055571925 0.17027193 0.1386238 -0.090009 0.042106837 -0.04485701
0.01800637 0.16147216 -0.2811769 -0.25357667 0.049920402 -0.02549608 0.11588497 0.12911375
0.0062638395 -0.12140571 0.11435104 -0.0632619 -0.21530372 -0.04504518 0.05295542 0.043271497
0.001431089 -0.09954754 -0.0374099 0.13997939 -0.08956768 0.108347565 -0.10862667 -0.04383037
-0.0013165352 -0.11762475 0.1126474 0.062507644 0.0005239431 0.014088606 0.038067084 -0.07767126
0.03139304 0.08235345 -0.10547761 0.014612012 -0.06115795 -0.18346386 0.122201905 0.043820307
0.11257747 0.038945332 -0.058541015 -0.08376828 -0.07896278 0.11233221 -0.038008656 -0.07558093
0.020837286 -0.0832989 -0.063201964 -0.14182809 0.03524703 -0.09750334 -0.13536339 0.098767
-0.115877844 -0.060741615 0.11545147 0.017463997 -0.0074284216 0.02242322 0.1021297 0.06510396
0.11250684 -0.034783937 0.11978757 -0.120504 -0.16332929 0.1286999 -0.09517873 -0.10841656
-0.04236272 -0.06773397 0.15311123 -0.1552735 0.043656975 -0.11584816 -0.044805914 0.0511478
-0.09221536 -0.057074852 0.10645321 0.11361814 -0.13596791 0.08727246 0.13959053 -0.11244294
-0.004806032 0.13197927 0.1272707 -0.026809981 0.053082306 0.053438704 -0.11471965 -0.13009708
0.13475834 0.13033685 0.0807818 -0.08520726 -0.075472176 -0.08801199 0.23503636 0.1760988
-0.110395625 -0.09088818 0.25205702 0.04117255 0.040032104 -0.011161773 0.019033564 -0.12516338
0.2773922 -0.0036749546 0.02157778 0.30099756 0.092511736 0.22957405 0.0649925 0.14471358
0.06592873 0.070440605 0.107317634 0.043995317 0.044913802 -0.105836004 -0.06919664 0.1147471
0.11806292 0.0031068388 -0.10792671 -0.025909195 -0.123201065 0.11818209 0.11824854 -0.10931572
-0.124617435 0.11331775 0.15815 0.02633433 0.12195471 -0.09215069 0.03896691 0.033612125
-0.058175985 -0.011915621 0.1208765 -0.10222021 -0.00904551 0.005247506 0.13658893 0.1740653
00000000: 2389 913e 89f1 4e3e 3a6d 933d 29e5 8aba
00000010: 39b7 513e 5168 023e 4ebb f8bc a9b7 e93d
00000020: f473 133e 00f5 a33d ce48 7f3e 6c10 333d
00000030: 09d0 6a3c ac99 dd3d bbca 253d 1eee 413e
00000040: 2711 183e 4fc9 cfbc effd adbd 73ee d83d
00000050: d8b6 5a3d b9fb 293e a1bd babd 7511 a23d
00000060: 4bc0 003d c90a c0bd 46ed f8bc 468a 053e
00000070: 559f a4bd bf9f edbc 3156 c1bc 372b 173d
00000080: d2bc 9a3d 3b1c 78bd 7627 d7bd 0cb6 c5bc
00000090: e5ae d73d 9419 e33d 9a22 1b3e 31b1 523b
000000a0: a008 f7bd 932c 8bbd 639f 63bd c45b 2e3e
000000b0: 66f3 0d3e a356 b8bd 3878 2c3d fcbb 37bd
000000c0: 1882 933c f558 253e 6bf6 8fbe cdd4 81be
000000d0: 5679 4c3d 28dd d0bc 1955 ed3d 6536 043e
000000e0: e540 cd3b 8fa3 f8bd e130 ea3d 748f 81bd
000000f0: 9478 5cbe 4b81 38bd c8e7 583d 743d 313d
00000100: 6193 bb3a 95df cbbd 203b 19bd c256 0f3e
00000110: 436f b7bd 54e5 dd3d a977 debd 7987 33bd
00000120: 978f acba 3fe5 f0bd aeb3 e63d 0204 803d
00000130: 3a59 093a e6d3 663c 3bec 1b3d 1c12 9fbd
00000140: fd95 003d eda8 a83d a504 d8bd 3867 6f3c
00000150: c280 7abd f3dd 3bbe fe44 fa3d ec7c 333d
00000160: 048f e63d 2485 1f3d b4c8 6fbd b48e abbd
00000170: 3db7 a1bd 6e0e e63d f7ae 1bbd 2dca 9abd
00000180: f5b2 aa3c 9d98 aabd 0870 81bd 623b 11be
00000190: 315f 103d d5af c7bd b39c 0abe 5a46 ca3d
000001a0: 5d51 edbd 33cc 78bd d271 ec3d a810 8f3c
000001b0: 1e6a f3bb e7b0 b73c 6029 d13d 3a55 853d
000001c0: fc69 e63d 9a79 0ebd 2f53 f53d cdca f6bd
000001d0: cb3f 27be e8c9 033e 11ed c2bd 8009 debd
000001e0: 8884 2dbd 1cb8 8abd 31c9 1c3e 0400 1fbe
000001f0: a8d1 323d cd41 edbd 6886 37bd 5b80 513d
00000200: 68db bcbd 52c7 69bd 2404 da3d a1b0 e83d
00000210: 2c3b 0bbe e7bb b23d d2f0 0e3e 7c48 e6bd
00000220: eb7b 9dbb 9325 073e 4053 023e 9ba0 dbbc
00000230: d56c 593d 8be2 5a3d 23f2 eabd 2b38 05be
00000240: 17fe 093e 0677 053e ee70 a53d 2581 aebd
00000250: 2891 9abd a13f b4bd 5fad 703e 3e53 343e
00000260: 1a17 e2bd 9523 babd 9e0d 813e 8ca4 283d
00000270: b4f8 233d dfdf 36bc 47ec 9b3c d42a 00be
00000280: 5a06 8e3e 82d7 70bb e2c3 b03c 5a1c 9a3e
00000290: cb76 bd3d 7615 6b3e ca1a 853d cc2f 143e
000002a0: a405 873d 2a43 903d 59c9 db3d 6f34 343d
000002b0: 89f7 373d 8cc0 d8bd f8b6 8dbd 8700 eb3d
000002c0: f9ca f13d 1b9c 4b3b ae08 ddbd 853f d4bc
000002d0: d750 fcbd 7409 f23d 4a2c f23d ece0 dfbd
000002e0: 6d37 ffbd 2313 e83d 13f2 213e 18bb d73c
000002f0: 64c3 f93d 80b9 bcbd c49b 1f3d deac 093d
00000300: f149 6ebd bd39 43bc 198e f73d d458 d1bd
00000310: 9e33 14bc 45f3 ab3b f8dd 0b3e 2d3e 323e

bias_hh_l0 f4 [200]
0.12056116 0.33668837 -0.018843357 0.0073690196 0.11600917 0.027567375 -0.008871561 0.018191375
0.06269925 0.0812038 0.26634032 -0.066396736 0.04037251 0.31286073 0.13187563 0.21082887
-0.06972995 -0.033724844 -0.050641544 0.0070347073 0.06670832 -0.0073310225 -0.041323256 0.0019885777
-0.07698383 -0.1040765 -0.095134124 0.12558268 0.03763582 0.1174451 0.059617765 -0.06969269
0.0054125027 -0.03132237 -0.11876373 0.19447483 0.044006325 0.108390376 -0.027493766 -0.11473369
-0.11859512 -0.030577898 -0.06909287 0.032736525 0.13155685 0.15020995 0.11888658 0.09311941
0.0010994608 0.2174082 -0.3140972 -0.23652683 -0.11029639 -0.11014597 -0.08189719 0.09083702
-0.113231376 0.01945658 0.025598392 -0.014810662 -0.15175547 0.14712387 0.09732502 -0.0663447
-0.029134247 -0.03565196 -0.072854966 0.0002266972 0.04031955 -0.05580441 0.06424055 0.11347946
-0.044332594 0.15235892 -0.12065829 -0.08145558 0.10444651 0.11231675 -0.11475197 0.10419446
-0.017212559 0.1206776 0.032296855 0.10333172 0.010622351 -0.066824876 -0.1299327 0.105019145
0.0451734 -0.06960712 -0.04293628 -0.06603354 0.045179587 -0.07574503 -0.028220478 0.05441495
0.07952261 -0.009339598 -0.004985341 -0.16601938 -0.07253681 0.015367595 -0.065161884 0.03036761
0.103546746 -0.0005654119 -0.072698966 0.022641279 -0.04594536 0.06417167 -0.13427961 0.011105186
0.09717691 -0.09511013 -0.005262748 0.12867849 0.047885086 -0.053769384 0.13213521 -0.060458377
0.059224937 -0.04798591 0.04278978 -0.109069824 -0.08586118 -0.029364556 -0.08435805 0.061988205
-0.05344441 -0.042946845 -0.11318757 -0.035500422 -0.111310676 0.11841253 0.043909486 -0.080327705
-0.041470543 -0.003809856 0.070365965 0.13752921 -0.12822764 -0.017716454 0.014390355 0.088246636
0.03347526 0.09177111 0.094929814 -0.11885873 0.10968529 0.020869961 0.22243531 0.42151937
0.06329018 -0.11535425 0.21147966 0.11555983 -0.11771134 0.11987439 0.09641346 0.07406579
0.21194535 0.032717336 0.06988255 0.21024771 -0.08524213 0.13172734 -0.09148492 -0.052345496
0.030467734 0.12566653 7.999863e-05 0.075581975 -0.07428505 0.1435178 -0.03155548 0.024239657
-0.10194477 0.041366156 -0.0068360376 -0.036875304 -0.06141938 -0.019228714 0.08624247 0.15495099
0.048608523 0.08540115 0.19835474 0.065700546 -0.09090966 0.07823257 -0.046305776 0.100379996
-0.032308813 0.017048914 0.029623225 0.14696145 0.07135239 0.04331239 0.05340169 0.115636475
00000000: c5e8 f63d 6b62 ac3e 625d 9abc d177 f13b
00000010: 3796 ed3d fad4 e13c 065a 11bc 1406 953c
00000020: 7768 803d 2e4e a63d c25d 883e 03fb 87bd
00000030: a55d 253d 482f a03e 680a 073e 86e3 573e
00000040: 93ce 8ebd 1023 0abd 826d 4fbd 6783 e63b
00000050: 5f9e 883d 1339 f0bb 9342 29bd cc52 023b
00000060: b3a9 9dbd 0f26 d5bd aed5 c2bd bf98 003e
00000070: 0528 1a3d 0e87 f03d c231 743d 0bbb 8ebd
00000080: 5d5b b13b e34b 00bd 663a f3bd 6924 473e
00000090: fa3f 343d c6fb dd3d 9b3a e1bc 7ff9 eabd
000000a0: 00e2 f2bd 807e fabc 9080 8dbd bc16 063d
000000b0: d7b6 063e a3d0 193e cf7a f33d 64b5 be3d
000000c0: c81b 903a 41a0 5e3e 59d1 a0be 1734 72be
000000d0: 13e3 e1bd 3694 e1bd b7b9 a7bd c208 ba3d
000000e0: dae5 e7bd 6863 9f3c b8b3 d13c 6ba8 72bc
000000f0: c965 1bbe a4a7 163e 5752 c73d bbdf 87bd
00000100: f2aa eebc ca07 12bd fc34 95bd 91b5 6d39
00000110: 1d26 253d 2a93 64bd 8d90 833d eb67 e83d
00000120: 1896 35bd fa03 1c3e b21b f7bd 2fd2 a6bd
00000130: 0de8 d53d 5306 e63d 1503 ebbd e863 d53d
00000140: 5a01 8dbc d125 f73d b549 043d 959f d33d
00000150: 5f09 2e3c 7bdb 88bd 140d 05be 4714 d73d
00000160: be07 393d 2d8e 8ebd f4dd 2fbd 983c 87bd
00000170: 3b0e 393d 3620 9bbd a22e e7bc 36e2 5e3d
00000180: c0dc a23d 1d05 19bc 125c a3bb fc00 2abe
00000190: 2e8e 94bd 5dc8 7b3c 9873 85bd 7ec5 f83c
000001a0: 5110 d43d 2638 14ba 32e3 94bd 347a b93c
000001b0: 3431 3cbd 706c 833d 9880 09be 87f2 353c
000001c0: b004 c73d 1ac9 c2bd 2173 acbb 4bc4 033e
000001d0: 2723 443d 493d 5cbd 744e 073e 34a3 77bd
000001e0: d995 723d e08c 44bd 5644 2f3d 0060 dfbd
000001f0: fdd7 afbd f08d f0bc eac3 acbd 58e7 7d3d
00000200: 87e8 5abd 08e9 2fbd e2ce e7bd e468 11bd
00000210: daf6 e3bd 4582 f23d 6fda 333d da82 a4bd
00000220: 04dd 29bd c7ae 79bb 081c 903d 75d4 0c3e
00000230: 1b4e 03be 1922 91bc 86c5 6b3c a7ba b43d
00000240: 5b1d 093d 7ef2 bb3d 906a c23d 356c f3bd
00000250: aea2 e03d 7bf7 aa3c 15c6 633e 63d1 d73e
00000260: 489e 813d d93e ecbd 208e 583e a2aa ec3d
00000270: a512 f1bd b480 f53d 6c74 c53d ceaf 973d
00000280: 3408 593e 9d02 063d 951e 8f3d 2d4b 573e
00000290: 6d93 aebd 88e3 063e 725c bbbd 3b68 56bd
000002a0: 7897 f93c baae 003e f0c4 a738 b9ca 9a3d
000002b0: c322 98bd 55f6 123e 5240 01bd 3f92 c63c
000002c0: 6bc8 d0bd 8f6f 293d d700 e0bb 8f0a 17bd
000002d0: e392 7bbd 8985 9dbc e49f b03d 79ab 1e3e
000002e0: bb19 473d cce6 ae3d 811d 4b3e 028e 863d
000002f0: d82e babd 6638 a03d 20ab 3dbd 0794 cd3d
00000300: 3f56 04bd 2aaa 8b3c 68ac f23c 107d 163e
00000310: 3421 923d 5568 313d bbbb 5a3d d1d2 ec3d

weight_ih_l1 f4 [200, 50]
-0.01844343 0.3877396 -0.017738644 0.1060064 0.17480814 0.042847782 0.08059672 0.1077738
0.14766017 -0.100996524 0.26771614 -0.061406318 -0.12559998 0.23676544 0.042128 0.025284624
0.069563806 -0.038511317 -0.15291978 -0.14191091 -0.20618217 -0.06754099 -0.11569678 -0.078211665
0.085302085 -0.09122735 -0.031741448 0.09299389 -0.034351267 -0.10934615 -0.011595557 -0.07081797
0.015212978 0.07993489 0.021789392 0.122913264 0.035452213 0.093868546 -0.050065435 0.026693221
0.066918604 0.041886095 -0.17374574 -0.1584493 0.018175792 -0.08886081 0.12425281 -0.1741743
-0.027404478 0.12370881 0.06313933 0.2140882 -0.036009293 -0.047405183 0.15808482 -0.116053395
-0.117316015 0.088050835 -0.1028362 0.10413757 0.24016634 0.13763383 -0.011205384 0.30389416
-0.121055454 0.23065981 0.109463304 0.015969694 -0.02189979 -0.017590936 -0.237237 0.060431167
0.033327915 0.075743824 0.09425053 -0.13459453 -0.13115464 -0.1269904 0.022542892 0.11001223
-0.07177104 -0.12533759 0.054954443 -0.108452424 0.027700024 -0.015446572 -0.2169572 0.020626282
0.08186175 -0.064451784 0.050885994 -0.018252026 -0.0050230403 3.8270227e-06 -0.06733988 0.089146845
0.1062556 -0.0867043 0.003952272 -0.041776277 0.20268616 0.1957488 -0.087087795 -0.044371482
0.16343218 0.0036215244 -0.103767745 -0.07715919 0.1465988 0.1453536 0.22652031 0.16776954
0.12611735 0.265192 0.049499057 0.08966705 0.071587764 0.011880005 -0.095940135 0.05905766
-0.15459208 0.036326446 0.026723819 -0.042071063 0.13690045 0.11796422 -0.07690989 0.12964237
-0.2177125 -0.051208306 0.09011374 0.14926603 -0.12509334 -0.043648623 0.02002271 -0.0012339111
0.005226405 0.043595877 0.13516003 0.119333886 0.05750925 -0.12992027 -0.18244284 -0.042505585
-0.06652844 -0.106493264 0.15177915 -0.14661069 -0.083303586 0.16631164 0.1284828 0.4540949
-0.07278459 0.032769445 0.29656202 0.02814768 0.11479729 0.08783954 -0.14938445 -0.05771601
0.10167739 0.14941227 0.13639168 0.119843334 -0.2124477 0.2604523 -0.20071626 0.24526972
-0.07944452 -0.03352119 -0.14256391 -0.047397748 0.019133274 -0.07011871 -0.043349136 -0.1833964
-0.20921153 0.24952619 -0.035629462 0.0063269064 -0.11204257 0.18693082 -0.06605654 0.11903188
0.055969644 -0.026709646 0.0659032 0.16341545 0.15687093 0.042080015 -0.08814858 0.038617276
-0.05295425 0.003076612 0.009508108 0.024829226 -0.024528889 -0.12757908 -0.031065991 0.31281003
0.018677775 -0.10954752 0.043225534 0.030879568 -0.015923215 -0.232329 0.22178686 0.16123983
-0.034448296 -0.054354932 -0.13173461 0.23508984 0.16111362 -0.03710224 -0.13951774 -0.10751437
-0.13721247 0.1965752 0.14095965 -0.05327282 0.061603226 -0.21805823 -0.0028329596 -0.17171396
-0.29029605 -0.18313666 -0.036681835 0.053028237 0.06180239 -0.06595482 -0.14678006 0.117487974
0.020058101 0.11712583 0.09945391 0.041290116 0.12284773 0.06278062 0.17894746 0.07159828
-0.19124453 0.10729064 -0.0974973 -0.23905154 0.0049271337 0.04808951 -0.07921305 -0.18531021
-0.057280935 0.041989516 0.26699898 0.2543611 -0.098556094 -0.083443455 0.12640774 0.0564828
00000000: ad16 97bc ce85 c63e a250 91bc e219 d93d
00000010: e800 333e 2881 2f3d e50f a53d 83b8 dc3d
00000020: 3a34 173e 44d7 cebd 1712 893e 3185 7bbd
00000030: 489d 00be a472 723e 698e 2c3d b321 cf3c
00000040: 7877 8e3d 0bbe 1dbd 0197 1cbe 1851 11be
00000050: 6b21 53be ee52 8abd 6ff2 ecbd 702d a0bd
00000060: dcb2 ae3d 68d5 babd 5203 02bd 9573 be3d
00000070: eab3 0cbd e0f0 dfbd 4bfb 3dbc 0309 91bd
00000080: db3f 793c e7b4 a33d ab7f b23c f3b9 fb3d
00000090: 5736 113d 273e c03d 6a11 4dbd beab da3c
000000a0: 9f0c 893d c190 2b3d 67ea 31be 8940 22be
000000b0: 66e5 943c a8fc b5bd 4278 fe3d bf5a 32be
000000c0: 5b7f e0bc 0b5b fd3d 314f 813d f039 5b3e
000000d0: 7b7e 13bd f02b 42bd fde0 213e 67ad edbd
000000e0: 6143 f0bd ff53 b43d c99b d2bd 1446 d53d
000000f0: 2aee 753e e2ef 0c3e c996 37bc 0498 9b3e
00000100: eceb f7bd 1632 6c3e 4c2e e03d e0d2 823c
00000110: 3067 b3bc de1a 90bc 42ee 72be ac86 773d
00000120: da82 083d 941f 9b3d 6c06 c13d 26d3 09be
00000130: 674d 06be c509 02be dfab b83c 184e e13d
00000140: b2fc 92bd 7f58 00be e917 613d 4e1c debd
00000150: 29eb e23c 9e13 7dbc 072a 5ebe 73f8 a83c
00000160: 22a7 a73d 4cff 83bd d56d 503d 4685 95bc
00000170: 5198 a4bb e069 8036 7ee9 89bd 9f92 b63d
00000180: 899c d93d 0692 b1bd 0f82 813b 9a1d 2bbd
00000190: f68c 4f3e 6072 483e 165b b2bd dfbe 35bd
000001a0: c45a 273e 1957 6d3b 2f84 d4bd a305 9ebd
000001b0: ff1d 163e 93d7 143e f1f4 673e c7cb 2b3e
000001c0: e824 013e 3fc7 873e 86bf 4a3d 5ca3 b73d
000001d0: 9b9c 923d 5aa4 423c 437c c4bd 72e6 713d
000001e0: 634d 1ebe 0acb 143d e9eb da3c b552 2cbd
000001f0: a22f 0c3e 3a97 f13d ef82 9dbd f8c0 043e
00000200: 07f0 5ebe cdbf 51bd 8d8d b83d 32d9 183e
00000210: 7818 00be e6c8 32bd ab06 a43c 30bb a1ba
00000220: 4342 ab3b 9791 323d 6467 0a3e 5365 f43d
00000230: d28e 6b3d d209 05be 4cd2 3abe 561a 2ebd
00000240: 1040 88bd 2419 dabd fe6b 1b3e 1d21 16be
00000250: 129b aabd 994d 2a3e ff90 033e 207f e83e
00000260: 1610 95bd 4139 063d fad6 973e f795 e63c
00000270: d71a eb3d 37e5 b33d 3df8 18be 9f67 6cbd
00000280: 3c3c d03d 88ff 183e 43aa 0b3e 6c70 f53d
00000290: e48b 59be 015a 853e 9088 4dbe fc27 7b3e
000002a0: cfb3 a2bd 844d 09bd 46fc 11be 2424 42bd
000002b0: 62bd 9c3c 669a 8fbd dd8e 31bd 44cc 3bbe
000002c0: 8c3b 56be cb83 7f3e 33f0 11bd f051 cf3b
000002d0: 9376 e5bd cb6a 3f3e a748 87bd fcc6 f33d
000002e0: 6d40 653d 30ce dabc 42f8 863d 6156 273e
000002f0: c6a2 203e 185c 2c3d 3e87 b4bd 262d 1e3d
00000300: 8ee6 58bd fca0 493b e5c7 1b3c a966 cb3c
00000310: cff0 c8bc 17a4 02be 1b7e febc a328 a03e
00000320: 2202 993c 735a e0bd 420d 313d 26f7 fc3c
00000330: 6771 82bc a7e7 6dbe 181c 633e 0e1c 253e
00000340: a819 0dbd 47a3 5ebd 70e5 06be 64bb 703e
00000350: f8fa 243e 85f8 17bd bddd 0ebe 7e30 dcbd
00000360: 6d81 0cbe 024b 493e ba57 103e 9a34 5abd
00000370: aa53 7c3d a84a 5fbe 2da9 39bb c9d5 2fbe
00000380: afa1 94be 2d88 3bbe b13f 16bd 2334 593d
00000390: 8124 7d3d 5213 87bd 834d 16be 899d f03d
000003a0: e350 a43c abdf ef3d 7eae cb3d d31f 293d
000003b0: 9797 fb3d 2093 803d 013e 373e 1ea2 923d
000003c0: 9bd5 43be 32bb db3d aaac c7bd edc9 74be
000003d0: cb73 a13b 82f9 443d 743a a2bd f6c1 3dbe
000003e0: 6a9f 6abd 33fd 2b3d 17b4 883e 9e3b 823e
000003f0: c7d7 c9bd 67e4 aabd 0871 013e 825a 673d

weight_hh_l1 f4 [200, 50]
0.036836077 -0.07485906 -0.14254902 0.06169782 -0.038707245 0.06438017 0.059131134 0.06056891
-0.0807741 -0.03365674 0.06521586 0.12525545 0.05742434 0.12960482 -0.16147806 -0.052083015
-0.104224786 -0.040416766 -0.026678318 0.08359765 -0.1095641 -0.06133598 -0.08726327 0.116612606
0.12582517 0.09423307 0.009014145 -0.03689294 -0.007292368 -0.09522818 0.11106792 -0.009187672
0.0937204 -0.06308254 -0.11446199 -0.1590513 0.052922577 -0.03102742 0.012056534 0.09174151
-0.1253923 -0.0054004835 -0.12860624 -0.02271561 -0.07317334 -0.048305653 0.12396372 0.10792356
0.03130656 -0.17523448 0.10578638 -0.028937872 -0.13132437 0.15731253 0.13011537 0.051511694
-0.073117934 0.022600677 -0.14580427 -0.20626283 0.04494332 0.024782479 -0.03836728 -0.002380387
-0.027444258 -0.097654805 -0.030993527 0.0104592545 -0.08713135 -0.039213054 -0.0048604356 -0.03883681
-0.028768757 0.21591793 -0.10287659 -0.07034555 0.06721838 0.061005954 -0.109897934 -0.06547769
0.009511455 0.09553532 -0.12582351 0.063617304 -0.059240207 0.007612005 -0.1958389 0.029673282
0.065771505 -0.17218406 -0.18479143 -0.06927705 -0.055466525 -0.07711323 -0.07529537 -0.002356907
0.074235536 0.19560464 -0.07156178 -0.14508104 -0.030253205 0.044593755 -0.064487845 0.1709164
0.17065254 0.034089196 -0.07497907 0.0021930835 0.0044441335 0.045351923 0.04066402 -0.06289548
0.06265799 -0.09609899 0.103355035 0.0034046718 -0.10583804 -0.13290073 -0.07500221 -0.09275135
-0.05371159 0.039182972 -0.035218947 0.0684513 0.11550264 -0.04429495 -0.045174304 -0.10360372
0.04625743 -0.0021598425 0.03871726 0.035021365 0.1252288 0.0022908496 0.0074068825 0.015638283
-0.109263904 0.021320226 0.019295441 -0.119229965 -0.09892791 -0.02483023 0.11990257 -0.038808122
0.11645985 -0.028848596 -0.060002137 0.059497263 -0.1214594 0.04971382 0.027111864 -0.03944104
0.0690498 -0.022036811 -0.012843598 -0.1160596 0.049590137 -0.000608886 -0.17285407 -0.14638689
0.097724624 -0.07213689 0.08939013 0.009918799 0.03982517 0.054784868 -0.15262559 -0.1570663
0.030596748 -0.11780178 0.06625228 0.009007786 -0.21153253 0.077697426 -0.16958877 0.036452208
0.20652728 0.038818426 0.01240159 -0.080087475 0.074361905 0.004267699 0.12566228 -0.17340165
-0.013909359 -0.06371869 0.105340816 -0.22981638 0.07184303 0.09339787 -0.052085984 -0.068962894
-0.06630245 0.027808862 0.04321601 0.17691582 0.17872174 -0.002892017 -0.018920628 -0.060842656
-0.19246338 0.053228147 0.06673256 -0.03525375 0.12382267 0.01653574 -0.006745311 0.08588915
0.0089694485 -0.04578659 0.20936354 -0.084384255 0.0352354 -0.18360932 0.16185732 0.18617256
-0.21039014 -0.27210242 0.07416709 0.17050864 0.050789542 0.28313288 -0.08054697 0.02416612
-0.083255105 0.22847967 0.053198986 0.009573187 -0.07824136 -0.18000391 0.086819895 -0.13774197
0.07294692 0.022944434 -0.16602504 -0.200984 0.052252218 -0.029917032 0.027708733 0.22043513
-0.078977786 0.006219631 0.029085364 0.009498426 0.21823278 0.11753883 0.022565853 0.11285813
0.17958204 0.10604629 0.096408665 0.033105142 -0.049534313 0.010632821 -0.068250224 -0.05940315
00000000: 6de1 163d b54f 99bd 5ff8 11be dab6 7c3d
00000010: 7d8b 1ebd c0d9 833d 7d33 723d 1b17 783d
00000020: e46c a5bd a6db 09bd e58f 853d f742 003e
00000030: c935 6b3d 20b7 043e 815a 25be 0055 55bd
00000040: ce73 d5bd 0d8c 25bd 7d8c dabc 3f35 ab3d
00000050: 2563 e0bd 703b 7bbd 16b7 b2bd 97d2 ee3d
00000060: 50d8 003e 45fd c03d 10b0 133c 0d1d 17bd
00000070: d1f4 eebb fe06 c3bd 9477 e33d e487 16bc
00000080: 7bf0 bf3d 6b31 81bd 0c6b eabd 58de 22be
00000090: 58c5 583d 372d febc c588 453c f9e2 bb3d
000000a0: d766 00be 8af6 b0bb 5bb1 03be 1616 babc
000000b0: e7db 95bd 26dc 45bd b1e0 fd3d 0707 dd3d
000000c0: 4f3b 003d ab70 33be 88a6 d83d 1e0f edbc
000000d0: e579 06be 8916 213e f73c 053e edfd 523d
000000e0: dbbe 95bd 0e25 b93c b74d 15be 9036 53be
000000f0: 7d16 383d a004 cb3c 0227 1dbd 4400 1cbb
00000100: c8d2 e0bc 3eff c7bd 23e6 fdbc 4b5d 2b3c
00000110: ec71 b2bd de9d 20bd 4a44 9fbb 5913 1fbd
00000120: 75ac ebbc 9719 5d3e f6b0 d2bd 5411 90bd
00000130: caa9 893d 61e1 793d 2b12 e1bd 2b19 86bd
00000140: efd5 1b3c 06a8 c33d e1d7 00be ca49 823d
00000150: dca5 72bd 206e f93b fe89 48be 6215 f33c
00000160: 36b3 863d 0551 30be f739 3dbe 20e1 8dbd
00000170: de30 63bd 8bed 9dbd 7534 9abd 5676 1abb
00000180: cd08 983d 954c 483e fc8e 92bd 2090 14be
00000190: 92d5 f7bc f1a7 363d 3412 84bd b504 2f3e
000001a0: 8abf 2e3e 1da1 0b3d a08e 99bd d6b9 0f3b
000001b0: 18a0 913b f0c2 393d 518f 263d 58cf 80bd
000001c0: d552 803d 8ccf c4bd ceab d33d ea20 5f3b
000001d0: 9dc1 d8bd 2117 08be c29a 99bd 6bf4 bdbd
000001e0: af00 5cbd 537e 203d be41 10bd 3230 8c3d
000001f0: a68c ec3d 9f6e 35bd b108 39bd 302e d4bd
00000200: 6e78 3d3d 258c 0dbb fd95 1e3d 9072 0f3d
00000210: fb3b 003e 1422 163b 6fb5 f23b db1b 803c
00000220: c1c5 dfbd c1a7 ae3c 7911 9e3c d72e f4bd
00000230: b79a cabd c468 cbbc 7b8f f53d 44f5 1ebd
00000240: 8082 ee3d e453 ecbc cdc4 75bd 67b3 733d
00000250: b5bf f8bd b8a0 4b3d b319 de3c ee8c 21bd
00000260: fb69 8d3d 8b86 b4bc f46d 52bc a8b0 edbd
00000270: 071f 4b3d a69d 1fba a800 31be 72e6 15be
00000280: d923 c83d 81bc 93bd 2c12 b73d 7582 223c
00000290: b81f 233d 1966 603d e249 1cbe fdd5 20be
000002a0: 08a6 fa3c 0f42 f1bd 46af 873d 6595 133c
000002b0: fc9b 58be d41f 9f3d aea8 2dbe e94e 153d
000002c0: e37b 533e 1200 1f3d 0a30 4b3c e704 a4bd
000002d0: 0e4b 983d 0ed8 8b3b 9dad 003e 3490 31be
000002e0: 15e4 63bc f27e 82bd edbc d73d fc54 6bbe
000002f0: 7022 933d 6247 bf3d 1d58 55bd 6b3c 8dbd
00000300: 94c9 87bd 69cf e33c 4503 313d 6c29 353e
00000310: d502 373e fe87 3dbb 6fff 9abc 2636 79bd
00000320: 1f15 45be c205 5a3d 15ab 883d 3c66 10bd
00000330: bd96 fd3d f675 873c c507 ddbb a7e6 af3d
00000340: 98f4 123c b88a 3bbd 6563 563e a7d1 acbd
00000350: ff52 103d 1504 3cbe edbd 253e 05a4 3e3e
00000360: 8370 57be 0251 8bbe eae4 973d d199 2e3e
00000370: b208 503d cbf6 903e cff5 a4bd 07f8 c53c
00000380: a781 aabd 93f6 693e 2ee7 593d dbd8 1c3c
00000390: 023d a0bd f252 38be a1ce b13d 3b0c 0dbe
000003a0: 3265 953d f7f5 bb3c 7802 2abe c0ce 4dbe
000003b0: 6c06 563d 9014 f5bc 6dfd e23c bfb9 613e
000003c0: 1bbf a1bd 0cce cb3b 6e44 ee3c 499f 1b3c
000003d0: 6a78 5f3e 33b8 f03d 06dc b83c 2a22 e73d
000003e0: 5be4 373e cc2e d93d e871 c53d 4299 073d
000003f0: 7ee4 4abd 4935 2e3c c6c6 8bbd b850 73bd

bias_ih_l1 f4 [200]
-0.07240199 -0.07453385 -0.0013533322 0.02037978 0.19165997 0.0041466844 0.008770836 -0.080418825
0.107372 0.07638596 -0.019786218 0.05081236 -0.08722257 0.1434649 0.021721708 0.034566723
-0.018932 0.059008285 -0.097553514 0.12790024 -0.117421985 -0.075581156 0.056689393 0.124813996
-0.093767636 -0.008907554 0.15133949 -0.007363753 -0.09503865 -0.050704096 -0.04540039 -0.084704354
-0.0018918306 0.048315234 -0.072232336 0.1542167 -0.06137093 0.0683164 -0.11428827 0.05833404
-0.117093384 -0.023961525 0.1258145 0.14301926 -0.007158603 0.108762495 -0.1251495 0.29548967
-0.023350557 0.009750063 0.012068633 -0.06237282 -0.072286814 0.08669338 0.07000541 -0.04021465
0.13449377 -0.06002471 -0.08729703 0.0033180178 0.10923527 0.07637095 0.046188496 -0.020893008
0.084356785 -0.033203665 0.099315576 0.022167144 -0.035397306 -0.11274871 0.049660712 0.0686564
-0.035851125 -0.0030261208 -0.1095927 0.0796569 -0.018103758 0.15003468 -0.0013610767 -0.12325584
0.053984534 0.080293775 -0.11183149 0.12095366 0.12446139 0.074575685 0.042884354 0.11570167
0.08754624 0.021261558 0.08591827 0.111941345 -0.11646575 -0.06006905 0.091539115 0.044902444
-0.113281555 -0.10178805 0.12379703 -0.049051784 0.057247944 -0.12447777 -0.054728378 -0.0712106
0.090383336 -0.02569936 -0.024909658 -0.05155073 -0.081087 -0.10853641 0.0940726 -0.13000537
-0.076160364 -0.0064972714 -0.1263174 0.11415341 -0.06643278 0.0688107 -0.06398576 -0.12812565
-0.094313316 -0.048460897 0.072268315 -0.017041428 -0.14556819 0.14266074 0.040861398 0.009655993
-0.14858581 0.07180952 0.08336302 0.025488771 0.15555759 -0.089002036 0.021913353 -0.023856232
-0.11736244 -0.04221531 -0.118443355 0.034054834 -0.0040928964 -0.15413254 -0.0796062 0.12786487
-0.03842057 0.0653909 0.10775662 0.09762219 -0.015458248 0.13625483 0.14336456 0.11325417
0.13002643 0.21394993 0.0639058 0.13976525 -0.032709666 -0.099766865 0.049191277 0.101805896
-0.09091036 -0.030994136 -0.069354974 -0.07507149 0.10196394 -0.042542245 -0.06445385 -0.088209614
0.015047855 0.17781487 0.060804278 -0.107326984 -0.07903355 0.1280358 0.06784364 -0.04285885
-0.08713127 0.036893573 -0.09469618 -0.0964802 0.13255067 -0.0012475372 0.10332328 0.06166359
0.071765214 0.032506883 0.17602186 -0.04553293 -0.024286836 0.18504502 -0.04099886 0.012785888
-0.015063461 0.06192356 0.12359921 -0.10978088 0.11660561 0.1513839 0.11938301 -0.042220764
00000000: 7f47 94bd 34a5 98bd 4b62 b1ba 7ff3 a63c
00000010: 8342 443e e9e0 873b 8db3 0f3c a0b2 a4bd
00000020: dae5 db3d 3e70 9c3d b516 a2bc 9f20 503d
00000030: bfa1 b2bd 76e8 123e b9f1 b13c d695 0d3d
00000040: 4817 9bbc acb2 713d 23ca c7bd 48f8 023e
00000050: f07a f0bd 4bca 9abd 2333 683d 7b9e ff3d
00000060: 3f09 c0bd fdf0 11bc bdf8 1a3e a34b f1bb
00000070: a0a3 c2bd 19af 4fbd c2f5 39bd 7a79 adbd
00000080: 4df7 f7ba 32e6 453d 8cee 93bd fcea 1d3e
00000090: 1660 7bbd 78e9 8b3d f80f eabd adef 6e3d
000000a0: a8ce efbd f64a c4bc 84d5 003e a473 123e
000000b0: b792 eabb dfbe de3d 3127 00be 6c4a 973e
000000c0: ab49 bfbc babe 1f3c 84bb 453c a47a 7fbd
000000d0: 1c0b 94bd 4c8c b13d ff5e 8f3d 1eb8 24bd
000000e0: bcb8 093e 78dc 75bd c9c8 b2bd 1a73 593b
000000f0: beb6 df3d 5f68 9c3d 2630 3d3d d027 abbc
00000100: 40c3 ac3d 9100 08bd f765 cb3d df97 b53c
00000110: c4fc 10bd cce8 e6bd 0869 4b3d ba9b 8c3d
00000120: a1d8 12bd e251 46bb 2372 e0bd 2823 a33d
00000130: 554e 94bc b1a2 193e 2866 b2ba 8f6d fcbd
00000140: e31e 5d3d 1071 a43d e907 e5bd 8db6 f73d
00000150: 9de5 fe3d 23bb 983d 81a7 2f3d fff4 ec3d
00000160: 714b b33d b82c ae3c ebf5 af3d 8141 e53d
00000170: 9885 eebd f70a 76bd dc78 bb3d a0eb 373d
00000180: 2900 e8bd 4176 d0bd 4c89 fd3d 86ea 48bd
00000190: d27c 6a3d 33ee febd dd2a 60bd ddd6 91bd
000001a0: e61a b93d 7787 d2bc 570f ccbc dc26 53bd
000001b0: f110 a6bd 5648 debd 23a9 c03d 2120 05be
000001c0: f7f9 9bbd 10e7 d4bb 5959 01be 43c9 e93d
000001d0: e90d 88bd a0ec 8c3d f70a 83bd 5f33 03be
000001e0: 5727 c1bd ef7e 46bd 6901 943d 779a 8bbc
000001f0: d40f 15be a815 123e 485e 273d 2c34 1e3c
00000200: e126 18be df10 933d 3bba aa3d d4cd d03c
00000210: 7d4a 1f3e b346 b6bd a283 b33c 256e c3bc
00000220: b85b f0bd f6e9 2cbd 6e92 f2bd 157d 0b3d
00000230: b41d 86bb ecd4 1dbe 9308 a3bd 02ef 023e
00000240: e35e 1dbd aaeb 853d 81af dc3d 25ee c73d
00000250: 9744 7dbc 6386 0b3e 29ce 123e cdf1 e73d
00000260: a625 053e b115 5b3e 0be1 823d 9f1e 0f3e
00000270: 92fa 05bd 9252 ccbd cb7c 493d 9c7f d03d
00000280: 362f babd 6ae7 fdbc fb09 8ebd 15bf 99bd
00000290: 78d2 d03d c740 2ebd 6100 84bd 3ea7 b4bd
000002a0: 478b 763c 1a15 363e e80d 793d 40ce dbbd
000002b0: 58dc a1bd d11b 033e 9bf1 8a3d c38c 2fbd
000002c0: e171 b2bd b71d 173d 12f0 c1bd 6997 c5bd
000002d0: 5dbb 073e 6784 a3ba 289b d33d f692 7c3d
000002e0: a4f9 923d f025 053d 133f 343e bd80 3abd
000002f0: 30f5 c6bc 717c 3d3e 6cee 27bd e77b 513c
00000300: bccc 76bc 8fa3 7d3d 9521 fd3d ccd4 e0bd
00000310: ecce ee3d 6204 1b3e 147f f43d aeef 2cbd

bias_hh_l1 f4 [200]
0.04439292 -0.029613037 -0.11614052 0.006474682 0.10436455 0.13294716 -0.0035246788 -0.017748332
0.11630589 0.08440858 -0.08922364 -0.13550106 -0.10884174 -0.05004344 0.065608785 -0.115102164
-0.04089843 0.069259904 0.017340813 0.11598247 -0.05050038 -0.020103427 0.10927954 0.054312427
-0.11681601 -0.06253969 0.062147867 0.07872488 0.12389468 -0.09415336 0.13486294 0.048127517
0.15128043 0.01923725 0.15117998 -0.063689515 -0.06799494 -0.043774363 -0.061460145 0.1290002
0.06777069 0.026962433 0.02010119 0.08107889 -0.0031225984 -0.05608408 0.14580604 0.20362426
0.13284694 -0.09908316 0.005063612 -0.07981056 -0.08432406 -0.13156606 0.02920551 0.07045185
0.05846402 0.04730766 0.11212269 0.054468013 0.09609944 0.08619895 -0.03547362 0.092187315
0.10122899 0.10139852 -0.113019966 0.078369156 -0.055404022 -0.01625757 0.09738057 -0.08988811
-0.118802086 -0.12124379 0.084966205 -0.071659595 -0.0752436 -0.08700916 -0.124368615 0.03806369
-0.15242246 -0.087235585 -0.07995085 0.04806379 0.1500786 -0.14569691 -0.09969834 -0.07368963
0.002103177 -0.1350466 0.021392284 0.15752701 -0.03611215 -0.10144137 0.01491983 -0.092114426
-0.07246784 0.09170321 -0.10186027 -0.034327567 -0.11757808 -0.07323353 0.10278851 -0.035347816
-0.04103216 0.04829549 -0.071539044 0.061148714 -0.14813426 -0.052081995 0.0036968284 0.00536791
-0.018293297 -0.06582971 -0.03285468 -0.09662124 -0.102411345 -0.1365587 -0.12198628 0.07388287
0.02360462 -0.0049260454 -0.06931057 0.11108636 -0.07981089 -0.10825724 0.15743469 -0.14866008
0.027644066 -0.06408768 -0.06642223 -0.053261817 0.10682102 -0.0843659 -0.14045171 0.063371174
0.024435116 -0.14231665 -0.010216793 -0.0062557934 -0.054768566 -0.07230356 0.050419275 0.042651318
0.04352433 0.054462526 0.047318682 0.03034933 0.08899636 -0.09973303 0.08767804 0.10994705
0.064261585 0.075854346 -0.08123065 -0.048720706 0.0005340298 0.03096409 -0.02848638 0.18904425
-0.12202129 -0.0058590863 -0.03906719 0.055842906 0.060322627 -0.040635746 -0.12025155 -0.05367226
-0.03168525 0.03255152 -0.07304174 0.11715166 0.15223034 -0.14169048 0.088963516 0.008032208
-0.020432737 -0.08243486 0.11625781 -0.020549217 -0.11592352 0.13294098 0.013718471 -0.02145206
-0.06290761 0.06195564 0.09485575 0.0060045705 -0.06606759 0.1636874 0.09785276 0.0034975025
0.072727434 -0.09178867 -0.038872477 -0.097334884 -0.12426172 0.30507484 0.15048328 -0.054544672
00000000: 5ad5 353d 0a97 f2bc 15db edbd 9229 d43b
00000010: 15bd d53d 4d23 083e 4cfe 66bb f364 91bc
00000020: c831 ee3d 68de ac3d e2ba b6bd cac0 0abe
00000030: 6be8 debd 5afa 4cbd e65d 863d afba ebbd
00000040: 1d85 27bd 23d8 8d3d 520e 8e3c 3888 ed3d
00000050: 7dd9 4ebd f1af a4bc f4cd df3d b576 5e3d
00000060: 3b3d efbd cf14 80bd c38e 7e3d 833a a13d
00000070: 7ebc fd3d 7ad3 c0bd 8319 0a3e 5c21 453d
00000080: 42e9 1a3e 7097 9d3c edce 1a3e a66f 82bd
00000090: ee40 8bbd bf4c 33bd a2bd 7bbd a118 043e
000000a0: 5ccb 8a3d 52e0 dc3c 40ab a43c b00c a63d
000000b0: 82a4 4cbb 6cb8 65bd 2e4e 153e e182 503e
000000c0: 0709 083e 1dec cabd a8ec a53b b873 a3bd
000000d0: 18b2 acbd 41b9 06be 6540 ef3c 0f49 903d
000000e0: f877 6f3d adc5 413d 95a0 e53d da19 5f3d
000000f0: c8cf c43d 1389 b03d c94c 11bd b4cc bc3d
00000100: 2551 cf3d 07aa cf3d 0377 e7bd 0280 a03d
00000110: 54ef 62bd 982e 85bc 776f c73d 4217 b8bd
00000120: 824e f3bd aa4e f8bd c302 ae3d 44c2 92bd
00000130: 5119 9abd dc31 b2bd f9b4 febd ace8 1b3d
00000140: a214 1cbe 92a8 b2bd 45bd a3bd 89de 443d
00000150: 34ae 193e 9231 15be a52e ccbd 97ea 96bd
00000160: 74d5 093b a849 0abe df3e af3c c34e 213e
00000170: 55ea 13bd 7ec0 cfbd 4d72 743c 7da6 bcbd
00000180: 056a 94bd e4ce bb3d 1e9c d0bd 109b 0cbd
00000190: c7cc f0bd 76fb 95bd c882 d23d dfc8 10bd
000001a0: 5711 28bd 7ed1 453d 1083 92bd 1377 7a3d
000001b0: 82b0 17be ee53 55bd 7d46 723b 4be5 af3b
000001c0: d3db 95bc bad1 86bd a192 06bd 5be1 c5bd
000001d0: 0abd d1bd 0bd6 0bbe f1d3 f9bd e74f 973d
000001e0: 7a5e c13c aa6a a1bb b3f2 8dbd 3f81 e33d
000001f0: e473 a3bd f9b5 ddbd 8f36 213e 593a 18be
00000200: cf75 e23c 6740 83bd 6108 88bd 1029 5abd
00000210: fbc4 da3d 07c8 acbd 93d2 0fbe bfc8 813d
00000220: 272c c83c 75bb 11be 5664 27bc 66fd ccbb
00000230: 0155 60bd e413 94bd 7184 4e3d 26b3 2e3d
00000240: 9146 323d 1914 5f3d 3cd1 413d 289f f83c
00000250: b943 b63d d540 ccbd 8b90 b33d eb2b e13d
00000260: 949b 833d 8659 9b3d 415c a6bd 5d8f 47bd
00000270: 22fe 0b3a 67a8 fd3c 455c e9bc d194 413e
00000280: 4ce6 f9bd 94fd bfbb eb04 20bd 88bb 643d
00000290: dc14 773d ab71 26bd 7246 f6bd 72d7 5bbd
000002a0: 65c8 01bd be54 053d e896 95bd 36ed ef3d
000002b0: 45e2 1b3e 4f17 11be 8132 b63d 8699 033c
000002c0: 8e62 a7bc 9cd3 a8bd 9318 ee3d d556 a8bc
000002d0: 4f69 edbd ae21 083e 70c3 603c 3bbc afbc
000002e0: b4d5 80bd 32c5 7d3d bb43 c23d fdc1 c43b
000002f0: 724e 87bd ab9d 273e 0767 c83d 5b36 653b
00000300: 1ff2 943d b3fb bbbd bf38 1fbd 8357 c7bd
00000310: ee7c febd c532 9c3e 4a18 1a3e 3c6a 5fbd

weight f4 [1, 50]
-0.13272423 -0.0579154 0.11847094 -0.08127437 -0.15219133 -0.13306548 0.004243948 0.04929024
-0.025604809 0.08556582 0.14348067 0.0129400175 0.10357019 -0.1527039 0.028851014 0.085241936
-0.0054621003 -0.097257935 0.024799574 -0.053423256 0.13220866 0.14625832 -0.1808887 -0.1356338
0.011600207 0.05367809 0.16612563 -0.07582803 -0.042318888 -0.10883444 0.055163775 -0.098087065
0.04093029 -0.14190988 -0.1084004 0.06458861 0.124554195 -0.10855173 0.019380752 0.16407086
0.10920583 -0.03753033 0.12471792 0.0798522 0.113696784 0.12059551 0.044390578 -0.20584352
0.13061795 0.11058581
00000000: dce8 07be b338 6dbd e4a0 f23d 2d73 a6bd
00000010: 0bd8 1bbe 5142 08be d110 8b3b 90e4 493d
00000020: 2dc1 d1bc 223d af3d 99ec 123e 5e02 543c
00000030: 9c1c d43d 695e 1cbe f658 ec3c 5393 ae3d
00000040: 6bfb b2bb 2b2f c7bd 7a28 cb3c 58d2 5abd
00000050: b561 073e bec4 153e e33a 39be 96e3 0abe
00000060: cb0e 3e3c 8fdd 5b3d d61c 2a3e ba4b 9bbd
00000070: 9256 2dbd 97e4 debd 69f3 613d dfe1 c8bd
00000080: 85a6 273d d350 11be 0701 debd 0847 843d
00000090: 4516 ff3d 5f50 debd 62c4 9e3c 3102 283e
000000a0: 4ea7 df3d 67b9 19bd 1c6c ff3d 8d89 a33d
000000b0: dcd9 e83d c7fa f63d e5d2 353d a5c8 52be
000000c0: b6c0 053e d07a e23d
