mlruns/259183567906258607/models/m-5ba191b014c04668aa0c41d4733d9bda/artifacts/data/model.pth (torch, 132837 bytes, 9 tensors)

weight_ih_l0 f4 [200, 3]
00000000: 2973 9e3d f2a8 653d 204d 913d b853 81bd
00000010: 3a16 093e 001a 963a 1817 0b3e 70b9 9a3d
00000020: 62f4 da3d 588f ab3d 3c92 c8bd 6021 863c
00000030: 0f0b 573d 6918 debd 4030 be3d 98ca a53e
00000040: e41c 693d 7483 eebd b3ff 243e 0afe 1f3d
00000050: bec4 f13d 9f87 023e b352 2d3e 4059 583c
00000060: d30d ee3d 1c93 07be 500c 10bd 8f4b fd3d
00000070: 596c 4ebd 6093 893d 2eab 0a3e 6de3 e13d
00000080: 309f 71bc 5bfa de3c ae15 a73c 06a8 993d
00000090: b509 703e a5f1 953d a8d0 b2bd 76b8 cbbc
000000a0: 3a29 92bd 3aa8 ce3d c70c 743c 941e c6bc
000000b0: f2bb 53bd 29aa 073e ad3f 123e 00ce a4bb
000000c0: a5c0 56bb 0d5f c13c f001 77bc befb 043e
000000d0: 91e4 bf3c 406a 4ebd cf4c 54bd 9925 403d
000000e0: 7e15 eb3d 19b7 213b 3320 d9bd 8a03 f83d
000000f0: 64fa d8bd d1a1 17be 3c02 8f3d 4741 033e
00000100: d513 6d3d 0848 e8bd 4385 2d3e 51d4 babd
00000110: 93d1 0f3e 0e76 d53d 6405 eb3d d01d 2bbc
00000120: 91b9 a63e 108c 053e 487c 723d 9b09 b23d
00000130: e4b7 dc3d afb9 e7bd 10d6 653d 4209 6e3c
00000140: 0878 353d eeba ef3d ec5a a63c 84b3 9dbc
00000150: 763a 1a3d 8060 b8bd d0bc 9c3c 25ea 0cbe
00000160: bbf8 82bd 5bf5 063e 2297 34bd 9354 f43c
00000170: 8055 533c 5493 3f3d c8f1 103e d09d 083c
00000180: 071d 69bd d4f6 803d 78e5 87bd 8be9 853d
00000190: e3f8 593d 2a6c c23d 68e0 a1bd ee89 5d3c
000001a0: 01f4 a4bd 34f2 ee3d b7e5 e03d 9df0 ebbd
000001b0: e884 043e a4ec c33d 201c ff3c 2d13 8abd
000001c0: b7d2 c9bd 4c95 b03d 466f dfbd bfad 93bd
000001d0: 4044 bd3b 754f 1a3e b380 c53d e6dd 8dbd
000001e0: 0116 b63d 1497 b7bd d27e a83d e7cf ed3d
000001f0: bf3f c63d 70ed 02be 5dcd a9bd 06ec c2bd
00000200: 427f f03d d52a f63d 43d6 193e e88e 9a3c
00000210: 80ea e23e 73a9 483e ee0d 04be f505 a1bd
00000220: cb1d f73d e08b 003c 0f01 a33e d31a 4bbd
00000230: 883a 733d 7e21 60bd 1080 9d3d 004b 5cbb
00000240: a109 363d fa34 49bc 6017 0cbc bd9d 83bd
00000250: f399 83bd 2e7f b33d fa4d 793e 7698 bbbd
00000260: 505e 433d 63c4 bebb 4a9f d3bd 50f1 3a3c
00000270: a9f8 6b3d 9d4a 9c3c a1ba 043e c569 0dbd
00000280: 3dea 11be d04d 9fbc c999 3dbc bbf9 063d
00000290: e801 8cbc 71de 2e3e 1ce7 d53d 3bdc 063e
000002a0: 22b1 693d 615d 0fbc c086 643c 4989 b33d
000002b0: 744f a7bc f36a 81bd ceab 5dbe 39a9 a53d
000002c0: 9f15 edbd d7f6 3c3e 33c8 233e 2a7a 1cbd
000002d0: 416e 393e 9c28 cb3c 2138 d6bd 95cf 4ebd
000002e0: 0dd4 98bd ac48 bfbc 3ef7 503e b65d be3d
000002f0: 4c7f 87bc 6fff 89bd d59c d1bc 6e69 bb3d
00000300: d94d b5bd 1a24 81bd 6fac 083e 77c5 383e
00000310: 1033 063e a7aa 063e 90c2 06be a713 cd3b
00000320: caa1 b73d 986b 203e d6ec 893d 14d0 c4bc
00000330: 5a8f b53d 8e60 803b 001f f53a e200 7b3c
00000340: 0780 d13d 00a2 12ba e593 babe 512c 42be
00000350: aca4 ba3d 4edb c43c 3124 c03d f248 c43d
00000360: b895 97bc 9c39 153e a07c 693d 9702 333d
00000370: e996 4dbd 0fd9 07be 8b2d b0bd 6dc9 ca3d
00000380: 41c1 093e fb70 94bd 1dda 6bbc a13b 003e
00000390: ae7a c13d 3453 4b3d 6058 7d3c e67b e8bc
000003a0: 72a9 a63d 0e2c aabd 8157 223d de78 4e3e
000003b0: b0bf e5bd 6656 993d 5cd8 00be c64c eb3d
000003c0: 388c 993d b24b 99bd 21a5 abbd acd8 6b3e
000003d0: 7d78 60bd 4080 53bd 0512 ff3d 62c4 103d
000003e0: ea01 ebbd 19c9 063e f624 3a3c 1c54 acbd
000003f0: 5eb0 b33d 2d70 f6bd 9865 c4bc 7d79 db3d
0.07736809 0.056069322 0.070947886 -0.06314796 0.13387385 0.001145184 0.13583028 0.07554901
0.106911436 0.0837695 -0.09793517 0.016373336 0.05250078 -0.108444996 0.09286547 0.3238113
0.056912318 -0.116461664 0.16113167 0.03906063 0.11805104 0.12747048 0.16926078 0.013204873
0.116237305 -0.13239712 -0.035167992 0.12367927 -0.050396297 0.06717563 0.13541862 0.11029706
-0.014747426 0.027218988 0.02039608 0.07502751 0.23441203 0.07321481 -0.08731204 -0.024868231
-0.071367696 0.100906804 0.0148956245 -0.024184503 -0.05169291 0.13248505 0.14282103 -0.00502944
-0.0032768634 0.023604894 -0.0150761455 0.12986657 0.023424419 -0.050394297 -0.051831063 0.046910856
0.11478709 0.0024675785 -0.10601845 0.1211005 -0.10594633 -0.14807822 0.06982848 0.1281787
0.05788024 -0.11341864 0.16945367 -0.091225274 0.1404479 0.10422908 0.114756376 -0.01044412
0.3256345 0.13041711 0.059200555 0.08693238 0.10777262 -0.11314713 0.05611235 0.014528574
0.044303924 0.11705576 0.020307027 -0.019250639 0.03765341 -0.09002781 0.019133002 -0.13761194
-0.06395098 0.13179533 -0.044089444 0.029825484 0.012898803 0.046771362 0.14154732 0.008338407
-0.05691245 0.06297079 -0.066355646 0.065386854 0.053215872 0.09493287 -0.0790413 0.0135216545
-0.080543526 0.1166729 0.10981315 -0.11520503 0.12941325 0.0956662 0.03114134 -0.06741939
-0.09854644 0.08622226 -0.109098956 -0.07210874 0.0057759583 0.15069373 0.09643688 -0.069270894
0.08890916 -0.08964363 0.08227314 0.1161192 0.09680127 -0.12785888 -0.08291123 -0.09517674
0.117430225 0.12019888 0.1502314 0.018866971 0.44319534 0.1959589 -0.12895939 -0.07862464
0.120662294 0.007845849 0.31836745 -0.04958613 0.05938199 -0.05471944 0.076904416 -0.003361404
0.044442777 -0.012280697 -0.008550495 -0.064265706 -0.06425848 0.08764492 0.24346152 -0.09159939
0.047697365 -0.005821751 -0.10333116 0.011410072 0.057610188 0.019078547 0.12961818 -0.034524698
-0.14249511 -0.019446284 -0.01157231 0.032953005 -0.017090753 0.17077042 0.10444471 0.13169949
0.057053693 -0.008750291 0.0139481425 0.087664194 -0.020423628 -0.06319227 -0.2164757 0.08088917
-0.115763895 0.18453537 0.15994339 -0.038202442 0.18108465 0.024799637 -0.104599245 -0.050490934
-0.074623205 -0.023350082 0.20406815 0.09295218 -0.016540192 -0.06738173 -0.025587479 0.091509685
-0.08852739 -0.06305714 0.13347028 0.18044077 0.13105416 0.13151036 -0.13160157 0.0062584463
0.08966406 0.15666044 0.06734626 -0.024025 0.08865233 0.00391776 0.0018701255 0.015320035
0.102294974 -0.0005593598 -0.3644096 -0.18962218 0.0911344 0.024030354 0.09381903 0.09584226
-0.018504009 0.14572757 0.057003617 0.04370364 -0.050192747 -0.13266395 -0.08602437 0.099017
0.13452627 -0.07248112 -0.014395264 0.12522747 0.094472274 0.049639896 0.015462965 -0.028379392
0.08137788 -0.08309184 0.03963423 0.20163295 -0.11218202 0.07487182 -0.12582535 0.11489253
0.07497448 -0.07485141 -0.08381105 0.23031873 -0.054802407 -0.05163598 0.12454609 0.035343535
-0.114749745 0.1316265 0.011361351 -0.0841448 0.08773874 -0.120331146 -0.023974225 0.107165314

weight_hh_l0 f4 [200, 50]
00000000: 2b83 983d 506f 8f3d 1a89 abbd b712 84bd
00000010: bff7 d7bd f964 833d 8f6d 41be 658d 07bd
00000020: 43fe 4e3e 3654 9cbd 2ef0 683d faf9 d93c
00000030: 249d e8bd a23d 1a3d 9086 4c3d 782c 043d
00000040: bd77 f1bc 1cee 113e 2705 36be c676 283e
00000050: 152f 67be 42c7 31be 446b b73d 9d3f 2bbe
00000060: 8339 49be e5b5 993d d048 033d c8c8 f8bd
00000070: 0e6d d23d cc74 cfbd a84e 4dbd 9870 00bd
00000080: 1164 b33c 8778 ed3d 9297 d0bc d6a4 543d
00000090: 3297 f03d 28d9 c73d 9f9f 373e 966f 263e
000000a0: a64a 2cbd 421a 6b3d c61f 253e 3f03 2d3d
000000b0: d03a e0bd 0158 713d 1de5 4bbd 4d01 a83d
000000c0: 42e0 c13b e5c5 043e 76ee 28bd 25f2 083e
000000d0: 329d 92bd cc60 1c3e ae44 4b3d 77cb ca3d
000000e0: 87c3 f1bd 2d21 9e3d aeff d93d 4383 823d
000000f0: c586 b73b 0575 b23c f452 03be 40aa 55bd
00000100: 6a9c 06be b582 f83d ad5d d7bc 5f53 1ebd
00000110: 27e3 e53c 2a54 bd3d 0407 c33c 77fa d5bb
00000120: 6d29 f23d 0667 a03d cf29 9cbc d4e3 ebbd
00000130: 1830 01bd 734c ae3d 2db9 02be 380e d5bb
00000140: 12c3 fcbd 7ad6 94bc 0b32 dcbd 89b1 b43d
00000150: 62d4 04be b4b3 cd3d 79ee c1bd 78be d6bd
00000160: 7842 c63d e548 6d3a 8c26 653d 947b b03b
00000170: 7b3f a3bc 2444 1fbd cea9 38be faff 6d3d
00000180: 6215 d53d 88e2 8cbd 62cb 7d3d 2817 d83d
00000190: 7443 65bd f6ba 0e3c 40b4 c43d e27e 9e3d
000001a0: b560 9dbd b42b 84bd 2498 0f3c 92a8 4d3d
000001b0: a1b7 283d ddf8 a53d c996 11be 6801 88bd
000001c0: c20c d43d 45ac a7bd 880f 10be 66be 8a3c
000001d0: 2f08 933c fe08 153d 1e60 c83d 030c f33d
000001e0: 888f 88bd ccd5 1bbd 45de e73d 16f1 8d3d
000001f0: 2419 3bbe 4698 793c 4069 dc3d 7e76 873d
00000200: 1e44 afbc b371 acbd e3a0 19be 340b 073e
00000210: 6bb0 8b3d c001 bc3d 633f 91bd 2635 d4bd
00000220: 4f75 193d dc8d 543c 7fd9 dabd 7684 0f3e
00000230: 49c7 6cbd e7fc de3d b0ba eb3d 7f68 c23d
00000240: 56f6 81bd 104e 023e 0ab9 45bc e1c1 fc3d
00000250: a42a aa3d 6426 a13d 5d4c c53c 41e5 06bd
00000260: bcbc a5bc c5c1 e5bd 7dd2 02bd b22d 073d
00000270: 7f0e 45bd 1627 c73d 9789 d33d ad04 143d
00000280: b22e 6d3c 1041 b0bd fd18 7cbd 8a19 163c
00000290: 11c1 42bc 2a6f e03d d26c c03d 639a 22be
000002a0: 9f67 96bd d638 81bd d9b9 853c 06ab d5bd
000002b0: 2589 f33d e18b 31bc 3a51 313d b02d 8b3d
000002c0: 8ed5 933d 836c 9e3c 8432 9ebc 4276 95bd
000002d0: f723 c037 7c0f 2139 7013 483c 0a99 d1bd
000002e0: d185 f93d eee4 94bd bc16 b83d 6523 eb3d
000002f0: 9844 e23d ca0b c33d b18f 82bd ffbf b23c
00000300: a330 66bd 3ae7 85bd c66c 3ebc aeb8 f73c
00000310: 2099 ca3d 40f3 a0bd 079e 133e 6ed9 d73d
00000320: 86cd e23d 7375 303d 9995 153e b624 053e
00000330: b367 763d 4d15 0b3e 9948 7abe 647f 14bd
00000340: 491f 123e f650 973d a61b fa3b cd70 9b3d
00000350: 437b 96bd 5717 a93d 5bed 093e d95f d4bd
00000360: a2e6 18be f935 383d c7ed 2abe 5cc9 14bd
00000370: f5e4 0fbd c427 fd3d cf41 94bd efca aabc
00000380: e70a 76be 993c 1dbc fd32 c6bd 0af8 6f3c
00000390: f7fe e53d 0555 ee3d 9eca 13bd 382e 113e
000003a0: 94a9 ecbd afa0 a33d f612 95bd 839c bfbc
000003b0: ff8e d73d c843 d0bd 3cf6 c8bc c23f 53bd
000003c0: a33f a53b 4823 a93d 122f fb3b 2fc1 9d3c
000003d0: 4a04 abbd 2c13 0c3e b9aa 9cbc 8197 6a3d
000003e0: 7469 9abd 87c5 0bbe 8901 243d 2a19 523e
000003f0: 582f 6ebd 85bd a3bd 64db f7bc 5113 ed3c
0.07446893 0.07003653 -0.083757594 -0.06448882 -0.10545301 0.064157434 -0.1888945 -0.03309383
0.2021418 -0.076332495 0.05686968 0.026608456 -0.11358097 0.037656434 0.049933016 0.03226897
-0.029476041 0.14250988 -0.17775403 0.16451558 -0.22576554 -0.17361167 0.08956006 -0.16723485
-0.19650845 0.07505397 0.03205186 -0.12147671 0.10274707 -0.10129699 -0.05012384 -0.031357378
0.021898301 0.115952544 -0.0254629 0.051915012 0.11747588 0.09758216 0.17931984 0.16253504
-0.042063378 0.05739809 0.16125402 0.042239424 -0.109487176 0.058921818 -0.049779046 0.08203373
0.005916626 0.12966116 -0.04124304 0.13373621 -0.07158889 0.152713 0.049626045 0.09902089
-0.11804872 0.077211715 0.1064447 0.063726924 0.0056007826 0.021784315 -0.12824613 -0.052164316
-0.13145605 0.121343054 -0.026289785 -0.038653728 0.028062416 0.09244569 0.023807056 -0.006530102
0.118243076 0.0783215 -0.019062905 -0.11518064 -0.031540006 0.08510675 -0.12765951 -0.006501939
-0.12341894 -0.018168677 -0.107517324 0.08822925 -0.12971643 0.10044041 -0.09469313 -0.10485548
0.09680647 0.00090516947 0.055944964 0.0053858254 -0.01992773 -0.038883343 -0.18033525 0.058105446
0.10404469 -0.06879145 0.06196154 0.10551292 -0.05597253 0.008711567 0.096046925 0.07739045
-0.07684461 -0.06453648 0.0087643005 0.05020959 0.041190747 0.081041075 -0.14217676 -0.06640893
0.10353996 -0.08187155 -0.14068425 0.016936492 0.017948238 0.03638553 0.09783958 0.118675254
-0.066680014 -0.03804569 0.113216914 0.06930749 -0.18271309 0.015234059 0.10762262 0.066143975
-0.021394785 -0.08420124 -0.1500278 0.13187867 0.068207584 0.09180021 -0.07092168 -0.103617
0.03746539 0.012973275 -0.10686015 0.14015374 -0.05780724 0.10888081 0.11510217 0.09492587
-0.06345813 0.12725091 -0.0120680425 0.12341667 0.08308914 0.078686506 0.024084264 -0.032933477
-0.020231597 -0.11218599 -0.03193902 0.033002563 -0.048109528 0.09724252 0.103289776 0.03613727
0.014476465 -0.0860616 -0.06154727 0.009161362 -0.011886851 0.10958703 0.09395756 -0.15879206
-0.07343983 -0.06309669 0.01632397 -0.10433011 0.118913926 -0.010836572 0.043290354 0.067958236
0.07218467 0.019338852 -0.019311197 -0.072979465 2.2904931e-05 0.00015359925 0.0122116655 -0.10234268
0.121837266 -0.072702274 0.08988711 0.1148136 0.110482395 0.09523733 -0.06375063 0.021820066
-0.056198727 -0.065382436 -0.011622613 0.03023943 0.098924875 -0.07858896 0.14415751 0.10539518
0.11074357 0.04308076 0.14607848 0.13002285 0.06015749 0.13582344 -0.24441756 -0.0362543
0.14269747 0.07388489 0.0076326905 0.075898744 -0.07347729 0.08256405 0.1346945 -0.10369844
-0.1493173 0.044973347 -0.16692267 -0.036324844 -0.03513046 0.123611 -0.072391145 -0.02084872
-0.24027596 -0.009596967 -0.09677694 0.014646539 0.11230271 0.1163731 -0.036081903 0.14177787
-0.11555782 0.07989632 -0.07279007 -0.02339006 0.10525321 -0.10169178 -0.024531476 -0.051574476
0.0050429865 0.082586825 0.0076655233 0.019257156 -0.083504274 0.13679188 -0.019124376 0.05727339
-0.07539645 -0.1364957 0.040040527 0.20517412 -0.05815062 -0.07995132 -0.03025598 0.028939875

bias_ih_l0 f4 [200]
00000000: ffe5 f13d f2fc 203e 477b fbbd f002 ebbd
00000010: 487a aabd ad25 173e 18fa 1a3e 80e7 213e
00000020: f041 423e 2387 843e 8b55 993d b8ac a2bc
00000030: 4088 c3bb 22d6 d53d e9b5 ffbd 212a 213e
00000040: aa6d bc3b d1ed e2bd 8df4 003e c2bd a03c
00000050: 3699 3d3e c4f3 f03d 132e f13c 3e49 8ebd
00000060: a46b 753e 76fc 6d3c 69c1 dbbd bf05 b7bd
00000070: 9fcb 97bd 3d4e fdbd 1176 263d c5f9 2f3e
00000080: 414c e5bd a797 ea3d dce4 8f3d 11c7 233e
00000090: b84a 0e3d 23fd 19bc 25e8 9ebd ab72 e7bd
000000a0: b7eb a0bd 43cf 253e 102b c2bc e6c1 873c
000000b0: 3eb5 883e ec0b cfbd 7347 9a3d cbf0 873d
000000c0: b7a3 fbbd 1b5f 9e3c 5ce9 e53d e319 c93c
000000d0: 9bfc 42bd 1e07 b83d d34f 6fbd cf5d f7bd
000000e0: e8fc 98bd 07f0 133e d869 1fbe 3840 5d3d
000000f0: 3a7d f73d 4a21 c7ba 6709 06be 6675 d6bd
00000100: 5053 8abd c5cd 5a3d e448 1bbe ef87 f03d
00000110: 068c 9e3d 1d78 e93d f643 593d e1d4 d43d
00000120: 1eac 373d bcc7 83bd 78a7 3dbb 776d 1dbd
00000130: 99a4 be3c 1709 c33d 50c5 28be 03d8 283d
00000140: 369c c73d 4c55 fabc 2639 edbd 6bd4 23bd
00000150: 0469 093e 1b73 aabd 6c35 d9bd 66a7 0ebe
00000160: c0bf 113d a3ea f13d e291 a5bc cca4 d83c
00000170: 5d59 f03d ab9b 9d3c 5e17 54be 157f 813d
00000180: 362f 85be 51e8 2b3d 8c15 ecbb 6cfa fc3d
00000190: 4eb4 3cbc bd3c 003c e789 183e 2b6b 3dbd
000001a0: 7871 e6bd a349 763d 8fef 3abc 5806 133d
000001b0: 3efa fdbb 7435 2f3c 81d5 cdbd 2a3c 30bd
000001c0: 8b87 a8bd ff0f 08bc cf9f 82bd 9706 18be
000001d0: 138d 1d3c 2682 1d3e dc21 8bbd be81 9cbc
000001e0: 3a31 e6bd aebb 11be a486 583d a84a 2ebd
000001f0: 87d8 8ebd 50b9 8cbd 479d 4b3d 2a27 65bd
00000200: c853 6fba 5e6d ca3d d227 78bd b082 063e
00000210: 1144 a8bd ff0f c3bd 0ba5 a2bd 1156 a0bd
00000220: 149b e43c ad35 88bd 1367 923d ae42 883d
00000230: 8f5a bb3d dd0f ddbd f01b d43c a53e 7bbd
00000240: 00fc 2dbb 1c8e 23bd d7dc a93c 3fb5 8dbd
00000250: 9133 07be 031d 633d 8000 5cbc 42f0 843d
00000260: fbef e9bc 16a1 e33d d337 0b3e b9a9 d83d
00000270: 7a53 8c3e 68d9 4cbd c1b3 3c3d f835 5b3e
00000280: fe73 463c b558 2bbd 70eb 4abd f16e d13c
00000290: 8580 8a3d 0735 a4bc eb22 c63b bd8c 473b
000002a0: 0ac6 e8bd b566 dfbd 7c98 303e d9aa 57bd
000002b0: 1797 ee3c 855b 0d3e 9cd3 a93e 6d91 943b
000002c0: 8116 163e 697a b3bc 482c cb3c 0107 c0bd
000002d0: 991f f9bd a5e0 1a3e 06a5 163e a918 bc3c
000002e0: 3e86 ae3d 27f1 c0bc 3c35 c3bd c315 f7bc
000002f0: 9db4 793c 73aa f1bd 7d34 fcbd dd4c 3c3c
00000300: cdad 963d 9346 39bd 8c6c b93e 36eb 163e
00000310: fb81 823e 6477 c5bd 27df d5bd fcbc 923b
0.118114464 0.15721491 -0.12279373 -0.1147517 -0.083241045 0.14760466 0.15134466 0.15810966
0.18970466 0.2588435 0.07487019 -0.01985775 -0.00596717 0.10441233 -0.124858685 0.15738727
0.0057503777 -0.11080516 0.12593289 0.019621734 0.18515477 0.117652446 0.029440915 -0.069475636
0.23966843 0.014525523 -0.107302494 -0.08936643 -0.074118845 -0.123684384 0.04063994 0.17185123
-0.11196185 0.11454707 0.07026073 0.15993907 0.034739226 -0.009398731 -0.07759122 -0.11301168
-0.07857459 0.16192345 -0.023702174 0.01657195 0.26700777 -0.10109696 0.07533159 0.066377245
-0.122870855 0.01933246 0.112261504 0.024548477 -0.047604185 0.089857325 -0.058425736 -0.120784394
-0.07470113 0.14447032 -0.1556772 0.054016322 0.12084432 -0.0015192416 -0.13089524 -0.10471611
-0.06754172 0.053418893 -0.15164524 0.11744677 0.07741551 0.11399863 0.05304333 0.10392166
0.044841878 -0.06434581 -0.002893893 -0.038434472 0.023271846 0.09523218 -0.16481519 0.04122163
0.09746592 -0.03055825 -0.11583166 -0.0399975 0.13418967 -0.08322736 -0.106058925 -0.13931045
0.035583258 0.118123315 -0.020211164 0.026445769 0.11735795 0.019239267 -0.20712039 0.06323067
-0.26012582 0.0419696 -0.007204717 0.12352452 -0.011517597 0.007826981 0.14896356 -0.04624478
-0.11252111 0.06012882 -0.011409654 0.03589472 -0.0077507785 0.010693897 -0.10050488 -0.043026127
-0.08228978 -0.008304595 -0.06378137 -0.14846264 0.009616154 0.15381679 -0.067935675 -0.019104835
-0.11239858 -0.1423175 0.05286278 -0.042551666 -0.06974893 -0.06871283 0.04971054 -0.055945553
-0.0009129611 0.098841414 -0.06058485 0.13135791 -0.08216108 -0.095245354 -0.07941636 -0.07828916
0.027905978 -0.06650863 0.07148566 0.06653343 0.09148132 -0.10794041 0.025892228 -0.06133904
-0.0026547909 -0.039930448 0.020735187 -0.069193356 -0.13203265 0.05544759 -0.013427854 0.06491138
-0.028556814 0.11114709 0.13595514 0.10579247 0.27407438 -0.050012022 0.046069864 0.21407306
0.012112616 -0.041832644 -0.049540937 0.025565596 0.067627944 -0.020044817 0.006046643 0.0030448877
-0.11365898 -0.10908262 0.17245668 -0.052653167 0.02912478 0.13804443 0.33169258 0.0045339377
0.14657022 -0.021908956 0.024801388 -0.09376336 -0.1216423 0.15124758 0.14711389 0.022960978
0.085216984 -0.02355249 -0.09531638 -0.030161744 0.0152408155 -0.11800089 -0.12314699 0.011492935
0.073573686 -0.04523332 0.36215627 0.14738163 0.25489792 -0.096419126 -0.104429536 0.004478095

bias_hh_l0 f4 [200]
00000000: fd32 14bd 73fb ba3c 4792 df3d 083a efbd
00000010: 24a2 ab3d e944 d63d 7ea2 153e b3b2 69bc
00000020: 3a6b da3d 18c7 203e 82f7 523d c425 e43d
00000030: ec03 8b3d 5517 023d 1b63 843d c183 513d
00000040: 2fd2 65bd 4938 fa3d c144 f8bd 7f32 b03d
00000050: 38cc 963d 327d 113e ace1 173e 1a31 993d
00000060: 8fdb 9b3e 06ec 03be 493e 5c3c e9f4 d33d
00000070: d721 fa3d 6fd7 ea3d 2d8b 643d 1e50 aa3d
00000080: 3fee 16ba 0918 1ebd 22d7 9d3d 22cd d03d
00000090: a9d5 773d 204f 163e ef0e ecbd b2b3 2ebd
000000a0: 4912 adbd b797 e93d db1c 933d 406f a83a
000000b0: 2ce6 653e 3463 053e 47c6 a23d ea11 09bd
000000c0: cd8d 603d 2a33 ba3d be10 eebd 1b3a fd3d
000000d0: 1a28 e1b9 2c94 aa3d b76a 403d 023a 483d
000000e0: 01fb 15be d07c b63d 9e4f c9bd b6bd 0cbd
000000f0: 0323 423d 0c1f d7bc 9b48 063e e858 d03d
00000100: bc74 a0bd 5ad5 d63d 10c2 0bbe 0132 8e3d
00000110: daea a93d e178 45bd 910d 96bd 1bed a5bd
00000120: 980a 4cbd 54d8 efbd e34d 7bbd 266b 163e
00000130: 8197 103e cd85 f13c 8fb2 b83d ecb1 b8bd
00000140: 41ce 02be 089f e8bd 731d 1bbd 21cd f9bd
00000150: 7430 af3d cb6a c7bd be74 bbbc 769c 0abe
00000160: d8ec 88bd fe4a 103e e297 e5bc 2010 b3bd
00000170: 8d81 d43d aeda 91bd 6e44 073d 9079 93bc
00000180: f704 3dbe 566d f3bb 1c8e 84bd 4e1c ef3d
00000190: 6a70 36bd 7ff5 a93d 9967 ad3c 5706 d23d
000001a0: b8e6 1dbc bb30 11be b828 92bd eaad 013d
000001b0: 5598 e83d 0ac0 563c 93fa cf3d 9d8f 84bd
000001c0: 49a0 b73d 8dda d3bd 70ee be3d 628b 47bd
000001d0: b2df 92bd 5e79 a93d 7264 cebb 2546 953d
000001e0: 88ea 953d 42e7 87bd 2157 c63d 4a5c 88bd
000001f0: 9712 aa3c fab9 17be 38bc dc3d 49e8 aebc
00000200: eb84 1ebc 4321 2fbd 4c66 15be 1dba 193d
00000210: 0237 23be 8f73 a83d 3e64 1dbe b258 4f3c
00000220: 383d 873d 90de 823b 593e b43c 6e81 c03d
00000230: 5f8e a83d 4431 063d 6058 a13c 3c3b 15be
00000240: cc76 213d 87ae 0e3e fe31 08bc c5f0 0a3e
00000250: 2bae ffbd 1ba2 dc3b bc4a 0e3e 7062 0b3e
00000260: 55cc 28bd 940f 923d 190b c13c 3aad 573c
00000270: a499 5a3e 6d85 d53d a3ab 5e3e d8f7 463d
00000280: f801 473d 3a8d 71bd 6f4c 123e 8172 66bd
00000290: b26c f13c 2345 08bd d149 973d ac53 493d
000002a0: 6dd3 ffbd c820 d03b b6eb 9e3e 9042 8a3c
000002b0: 63a0 cb3c 2d6b 893d 4ddb bc3e 29cd b43c
000002c0: 8dec 833c a35e 8dbd 56eb f9bc 1921 e2bd
000002d0: a445 36bd d11b dd3d 0883 3ab9 6f95 db3d
000002e0: 0760 133e 30d4 2b3e 3ebb 023e 8010 0a3e
000002f0: 6e06 e1bd f12f 8e3d 930c 013e bed3 b53c
00000300: b38b 2b3d a280 b53c 9838 ae3e 4baa c6bd
00000310: 5503 ad3d 27a0 74bd ca5d ee3c 8f20 a23c
-0.03618144 0.022824978 0.10916572 -0.116809905 0.08380535 0.10462362 0.14612767 -0.014263797
0.10664983 0.15700948 0.051505573 0.11140016 0.067878574 0.031760532 0.06464215 0.05115104
-0.05610865 0.12217767 -0.12122489 0.08603381 0.073631704 0.14207914 0.1483218 0.074800685
0.30440947 -0.12883005 0.013442584 0.10349447 0.12213486 0.11466872 0.05579679 0.083160624
-0.00057575473 -0.03859714 0.07707049 0.10195376 0.060506497 0.14678621 -0.11526286 -0.04265184
-0.08450753 0.114058904 0.07183238 0.0012850538 0.22451085 0.13026124 0.07947975 -0.03346435
0.05482273 0.0909179 -0.11624287 0.12364598 -0.00042945222 0.08329043 0.04697677 0.048883446
-0.14646532 0.08910525 -0.09829639 -0.03436061 0.04739667 -0.026259921 0.13113634 0.101732075
-0.07834765 0.10489912 -0.13648248 0.06943131 0.082967475 -0.048210982 -0.07326806 -0.08101865
-0.04981479 -0.11711183 -0.061353575 0.14689311 0.14120294 0.029482746 0.09018432 -0.09018311
-0.12773992 -0.11358458 -0.03786988 -0.12197328 0.085541636 -0.09737166 -0.022882815 -0.13536248
-0.06685799 0.14091107 -0.028026525 -0.0874331 0.10376272 -0.07121788 0.033024244 -0.018002301
-0.18458925 -0.0074288053 -0.06472418 0.116753206 -0.0445408 0.08298778 0.021167563 0.102551155
-0.009637527 -0.14178745 -0.07136673 0.031659998 0.1135718 0.013107309 0.10155215 -0.064727046
0.08966119 -0.1034442 0.09322822 -0.04871691 -0.07171573 0.08275102 -0.006298595 0.0728877
0.07320124 -0.06635906 0.09684587 -0.06658228 0.020760817 -0.14817038 0.107780874 -0.021350997
-0.009675245 -0.04275633 -0.14589804 0.037531007 -0.15938953 0.08225166 -0.1537027 0.012655424
0.066034734 0.0039938167 0.022002386 0.09399687 0.0823028 0.032761827 0.01969546 -0.14573377
0.039419934 0.13933764 -0.0083127 0.13568409 -0.12484392 0.0067331917 0.13895696 0.1361177
-0.04121049 0.071318775 0.023564862 0.013163859 0.21347672 0.104258396 0.21745162 0.048576206
0.048585862 -0.058972575 0.1428697 -0.056261543 0.029470775 -0.03326906 0.07387126 0.04915206
-0.12491498 0.006351564 0.31039208 0.016877443 0.024856752 0.06709895 0.36886063 0.022070484
0.016104007 -0.06902816 -0.030507725 -0.11041469 -0.04450001 0.10796321 -0.00017787155 0.107218616
0.143921 0.16780162 0.1276674 0.13482857 -0.109875545 0.06942738 0.12602453 0.022195693
0.041881274 0.022156063 0.34027553 -0.097004496 0.08447901 -0.059723046 0.029097456 0.019790916

weight_ih_l1 f4 [200, 50]
00000000: 2c48 00be 7052 7c3e 6f8b 653d 9352 db3d
00000010: cbd2 08be 5694 a5be 43f5 ae3e 8a01 c1be
00000020: fccf 53be 2ed2 a93e bcb2 033e 3cfc aabd
00000030: c050 22be 0216 e2bd f969 4f3d 9370 ccbd
00000040: 1154 f23d eb33 373e 2108 3e3e dfda f13c
00000050: 35b8 be3d 73f9 52bc 3442 db3c 7448 debd
00000060: f66c 723e 6392 1ebe 578b 163e 4945 35be
00000070: cfce 2d3d 20ad 233d 078c e6bd 43fa 913e
00000080: efd9 fbbd 1bbe ebbd b969 173d b9b2 8bbe
00000090: ddb9 ee3d 4445 34be 7ebe 4f3d 0021 483e
000000a0: 4827 1bbd f40c 433e 33be 1cbd 1177 f1bd
000000b0: 541d 9a3e 13a3 803d 175c 063e d817 673e
000000c0: 05e8 4dbc e413 d43d 3003 a23d 1af0 4d3d
000000d0: a3fd 3ebd f7c1 b2bd b6e6 d63c 078f 08be
000000e0: e62e 633e 8926 20be e9f2 00be 5510 c53d
000000f0: d1ec d33d 0c79 e1bd e353 7e3d cc7f 05bd
00000100: 5377 95bd a248 10bd 40b0 893d d6cd 883d
00000110: 2d0e 57bc d5b4 e73d fb45 ebbc 5242 073e
00000120: f861 183e 5c1f 15bd 5a3a a33e 0b70 1f3d
00000130: b5a2 b23d ff58 d13d eb75 853d 1283 e3bc
00000140: 9122 bcbd f1c1 6fbd a530 8f3d caae 07bd
00000150: 9463 f93d ce3e ebbc 7617 d53d 25d7 bbbd
00000160: fbeb a93d 9692 a03c 1e32 a53a e884 98bd
00000170: 6f85 293d 7ab6 313d a3b4 8a3e 605b 40bd
00000180: 3a7c 7f3e 5f08 c2bc 69dd 503d d68b debd
00000190: 949f 31be 4cc9 353e 206d 90bd f9a9 a53d
000001a0: dec8 a7bd e3d3 52be 24f3 973e f8f9 83be
000001b0: 0758 23be 65f6 b83e 011b e93d c2bf bf3d
000001c0: 88d0 f9bd 167c f4bc 0d38 bfbc b0d1 dcbd
000001d0: 7a32 bfbd 077c cc3d a3c2 ea3d c599 e3bd
000001e0: 1cdc ef3d 32dc e53d 60bf c93d cf8a debd
000001f0: 56e2 203e 6f5d 6cbd 0084 343e 223e 03be
00000200: 295c 333d c92d 053d ac99 963d 39f5 213d
00000210: 2a53 8b3d b3e4 743d e191 1fbe 7f10 f8bd
00000220: 89a0 c83d a315 06bd 42d0 bbbd 3105 67bd
00000230: 62df 443c ed66 933e d8a1 903d d297 503d
00000240: ba6f 7e3e 3524 0e3d cef6 8f3e f1d2 2bbd
00000250: 5d74 13be b617 183d 56b4 3c3d 6121 1b3e
00000260: 565a 8e3d aa47 edbd 0608 74bd faef 9e3d
00000270: 01ed 843e c1f1 243d 77d1 8fbd 35f1 a0bd
00000280: 5e6a ba3d 7ad7 dbbd f418 d43b 678c f73c
00000290: fab2 433d 01dd fa3d e763 77bd 53c2 1e3e
000002a0: 8125 1bbd 3e8f 6a3c bac9 863d c671 603c
000002b0: a2b1 fc3d 5651 7dbd b364 8a3e adb8 2fbc
000002c0: efd1 d83d 38d8 63bd e5fc 07be 27eb 843d
000002d0: c9ae 14bd 1e51 20bc 3f06 34bb 8d54 bf3c
000002e0: 88ee f7bd c400 9ebd 2b87 b73c 510f 48be
000002f0: 6a14 00bd afe7 0a3e 732b 00be fe49 643d
00000300: 96aa 24bd 5209 fc3c 9bb3 353e c8b7 b83d
00000310: 719c 613e 2ce5 adba 11d8 bc3c ad51 6d3d
00000320: 4d7b 94be f5ba a0bb d510 003e 84b9 ef3d
00000330: 8c63 65bd 4d4f 1cbe e549 233e f118 56be
00000340: be34 49bb 3f54 153e 2a78 a93e 3340 eabd
00000350: 7cfa 73be 496a 50bd 3ec4 503e 2961 77be
00000360: b4bb 713d eed2 2d3e 45e3 4c3c 1042 08bd
00000370: a767 1bbe d69e 94b9 309e 923c 2219 32b9
00000380: 2a4d 743d 6afd 40be 815b e83c 6192 0ebd
00000390: 3424 f83d 078e 73bc 8b8d 57be f5f0 f53d
000003a0: f686 983a ee0d a7bd 45c0 00be 1b0d 1dbd
000003b0: 1c58 803e 3da8 c83d edcc 6d3e d710 393e
000003c0: 91f5 673e 702f 653e b693 653c 3a73 92bd
000003d0: 835a 7e3d 2be1 883e 16ba 643d 911c 183d
000003e0: a9b7 51be e908 c83d 730c d6bd 5230 bb3d
000003f0: d14a 853d 0420 ddbd a1c7 9ebd 0fd1 8bbd
-0.12527531 0.24640822 0.056041177 0.10709109 -0.13361661 -0.32339734 0.34171495 -0.37696487
-0.20684808 0.33168167 0.1286115 -0.08348891 -0.15851116 -0.11039354 0.050638173 -0.09982409
0.11832441 0.17890899 0.18557788 0.029523311 0.093124785 -0.012876856 0.026764967 -0.10853663
0.23674378 -0.1548553 0.14701591 -0.17702211 0.042433556 0.039960027 -0.11257177 0.28511247
-0.12297427 -0.11510869 0.03696606 -0.27284792 0.11656544 -0.17604548 0.050718777 0.19543839
-0.03787926 0.1904791 -0.038267326 -0.11790288 0.301005 0.06281104 0.13121067 0.2256769
-0.012567525 0.10355356 0.07910764 0.050277807 -0.046628606 -0.08728402 0.026233058 -0.1333581
0.22185859 -0.156397 -0.12592663 0.09622256 0.103479035 -0.11009416 0.06209172 -0.03259258
-0.0729815 -0.035225518 0.0672307 0.06679885 -0.013125938 0.11313788 -0.028719893 0.13208893
0.14881122 -0.03640686 0.31880456 0.038925212 0.0872244 0.10222053 0.06516632 -0.02777246
-0.091862805 -0.058534566 0.069917 -0.033125676 0.12177196 -0.028716471 0.104048654 -0.09171895
0.08296963 0.019601148 0.0012603437 -0.07447225 0.041387018 0.043386914 0.2709094 -0.046962142
0.24949732 -0.023685632 0.050992403 -0.10866515 -0.1734603 0.1775257 -0.07052064 0.0808906
-0.08192609 -0.20588641 0.2967769 -0.2577665 -0.15951549 0.36125484 0.11382104 0.09362747
-0.12197977 -0.029844325 -0.023342157 -0.10782182 -0.093357995 0.09984594 0.11462905 -0.111133136
0.117119044 0.112236395 0.09850955 -0.108663194 0.1571134 -0.057706293 0.17628479 -0.1281667
0.043789063 0.032514367 0.07353529 0.039540503 0.06802972 0.059788417 -0.15582992 -0.121125214
0.09796245 -0.032735478 -0.091705814 -0.056401435 0.012016149 0.28789464 0.07062119 0.050926037
0.24847308 0.0347025 0.28117985 -0.041949216 -0.14399858 0.037131988 0.04607042 0.15149452
0.06950824 -0.115859345 -0.059577964 0.07760616 0.2596207 0.040269617 -0.07022374 -0.078585066
0.09102319 -0.10734458 0.006472701 0.030218316 0.047778107 0.122491844 -0.06039801 0.15503816
-0.037877563 0.014316378 0.06581445 0.013699001 0.12338568 -0.061845146 0.27029952 -0.0107251825
0.10586917 -0.055626124 -0.13280065 0.06490164 -0.0362995 -0.009784965 -0.0027469543 0.023355747
-0.12106043 -0.0771499 0.02240332 -0.19537093 -0.03126947 0.13564943 -0.12516575 0.055734627
-0.040201746 0.030766163 0.17744295 0.090194285 0.22032334 -0.0013267151 0.023052247 0.05793922
-0.2900032 -0.0049050995 0.12506421 0.11705306 -0.05600314 -0.15264626 0.15946157 -0.20907952
-0.0030701603 0.14582919 0.3309949 -0.11438026 -0.23826021 -0.05088261 0.2038736 -0.24158157
0.0590169 0.16974995 0.012505357 -0.033266127 -0.15176259 -0.00028347102 0.017897695 -0.00016984766
0.059643902 -0.1884667 0.028363945 -0.034807567 0.1211628 -0.014865405 -0.21050088 0.120088495
0.0011636901 -0.08156954 -0.12573345 -0.038342576 0.25067222 0.09797714 0.23222704 0.1807283
0.2265227 0.22381377 0.014012268 -0.07150884 0.062098037 0.2673429 0.055841528 0.037136618
-0.20480217 0.097673245 -0.10451593 0.09140076 0.06508411 -0.10797122 -0.0775292 -0.06826984

weight_hh_l1 f4 [200, 50]
00000000: 68c4 4dbc 24d8 debd a4a7 98bd 86c6 0fbe
00000010: 0953 1f3b d524 b33d 2652 123e 5eaf b7bd
00000020: 593f 83be 49f1 f2bd 8ae0 243e 0b54 08bd
00000030: a82c 78bd a412 293e e4d2 64bd cfff 0d3e
00000040: e9e7 8cbe 3e24 d2bd 7cc6 c5bc 8a19 6dbd
00000050: 046d ccbd 6953 2d3d 4aa3 66be 3d3c bd3d
00000060: 842a 48be 7149 3e3e d4ee efbd 8750 843e
00000070: 622e ebbb 3a7d 23be 85aa 36bd 1e81 35be
00000080: 4a6b 6a3c 4413 1dbd e620 9d3d ef4a 0cbe
00000090: 25cd f73d cf23 3bbe ca55 1a3e d269 c23d
000000a0: c1e0 6e3e 3344 4dbd a54e 513c 7afb 6b3e
000000b0: 1f78 dd3d 866e 3e3d ff2b ef3d 2f8b dabd
000000c0: 6d3b 073d e451 58be 7fe6 fc3d eab5 4f3d
000000d0: 6a30 053e 58fb 64bc 6151 7dbe cf59 d23c
000000e0: 9e50 103e d025 70bd 3ec7 51bd 3e2d 19bd
000000f0: d4f3 cb3c 168f 5e3c a920 d73d c7c6 06be
00000100: ad22 cdbc 6269 e5bd 9ac8 ebbd 4b43 c33d
00000110: e397 5fbd 2cda c83d 5eb5 413d 0ea3 d03b
00000120: 33dd 443d 37a5 d1bd d62b 75bd 9461 83bd
00000130: f8f8 563d b1ff 44be c5b1 3c3e ea6f 07be
00000140: 0f19 083d 6316 883d 6cfe 13be 07d2 803d
00000150: a8c2 09be 96c0 be3d 8211 20bd 3b16 933d
00000160: 9f20 cabd 9cc9 c23d 13db 06be 0d18 203e
00000170: c55a 73bd ede1 873d db0b 823d 9981 863c
00000180: 1a49 cbbd 56e0 133c c039 cdbd 14b7 823c
00000190: 6882 09be d15d a43d f5f2 33be d507 a8bd
000001a0: ad3d adbc 100a d0bd 728f 0f3d a357 8ebd
000001b0: cf21 953d 02a1 523d e329 c13d e2ef 863d
000001c0: 0ef0 e73d f8be 7c3d 318b 80bd 79f5 0b3e
000001d0: 7310 933d b1d6 fdbd 97d9 1c3d b83e 453d
000001e0: ecbc 03be f50c fc3d 0055 80bd 5edf c2bd
000001f0: 2fa7 4bbe b8e0 253d 06a2 37be 888b 0bbd
00000200: bc43 eebd 1499 b5bd 9f00 853d 2e2d fc3c
00000210: 8842 223e b68f d4bd c5db c7bc 3dec c0bd
00000220: 2f7e cdbc 60c7 84bd 6bfb 123e 55e8 233e
00000230: f0fe 053e b458 f6bd b7be 093d fad5 c3bd
00000240: 86ee c03d 1f7a dc3d 1510 333e 46a1 1bbe
00000250: fa05 18bc 00d8 19be fe1f 003e 4d9d 023e
00000260: 40f0 4c3d 5ee0 44bc d799 05be e759 b6bd
00000270: ce4a a63d 9d32 24bd 7f90 c9bd 9df9 d2bd
00000280: 79a9 833d 9c65 583d 0b75 60bd bc51 c63d
00000290: ea67 983d 9642 223d 1729 813d 2a0d 743d
000002a0: d7bf 083d 4156 b73d ea88 323d 361c bdbc
000002b0: 758c e5bd 8361 eb3d cb67 b03d 7772 13be
000002c0: 1d36 a23d c3b7 57ba 71ae a1bd 27e6 063d
000002d0: 5839 a43d eb3a 9c3c 4eed f3bd 27d7 1bbd
000002e0: 59f8 f3bd 7d5d 8b3c 36b1 463d b972 813d
000002f0: 5d32 e73b 04dc 083e bb61 0e3e 8e1f 313e
00000300: f4b3 dd3d c3ee 0abe 306d e5bd 2d54 17be
00000310: 0e17 7e3d 2b26 283d 7134 a23d 923e 163d
00000320: 4b6e 89be 4143 66bd 5527 95be b1df 8fbe
00000330: 9888 ac3d 2147 523e 7887 973d 62ea 433d
00000340: 0a38 1fbd eab6 71be 8022 323e 60f2 4dbe
00000350: c6dd 90be 1d58 853d 6ae4 41be c4bc 8c3e
00000360: c32f cabd 7136 83be 98a6 16be 7350 11be
00000370: 08b5 54be 1acc 2f3e cb43 8dbd d2e2 333e
00000380: 4940 a2be f950 883d 2cf1 7ebe b063 903d
00000390: 86e2 48be 7d7b 22be d872 0ebd 6b68 43be
000003a0: 34e7 303d 0e77 2fbe 32c5 683e 3305 c8bd
000003b0: cffe 273e 86be 31be b2dd 923e 5877 013e
000003c0: d41f 1d3e 658c 34be c3bb fb3b 6571 bd3d
000003d0: 6fe4 a23d 55ee e43d 240d bd3d 8772 4cbe
000003e0: 772a 403e a7b5 d2bd ccbb 963d 6e0e b0bd
000003f0: af9d fbbd f83b fdbd d670 3d3d e4ab e93d
-0.012559034 -0.10881069 -0.0745385 -0.14040574 0.0024310967 0.087472595 0.1428915 -0.089689955
-0.25634268 -0.11862428 0.1610128 -0.033283275 -0.060589463 0.16511017 -0.055865183 0.13867114
-0.27520683 -0.10260819 -0.024142496 -0.057885684 -0.099817306 0.042315874 -0.22523227 0.09240005
-0.19547468 0.18582703 -0.11715475 0.25842687 -0.00717716 -0.15965739 -0.044596214 -0.17725036
0.014307806 -0.03834845 0.076722905 -0.1370046 0.12099675 -0.18275379 0.15071788 0.0949284
0.23327924 -0.050113868 0.012775098 0.2304515 0.10813927 0.046492122 0.116783135 -0.106710784
0.033015657 -0.21124989 0.12348651 0.050710596 0.1300675 -0.013975941 -0.24738075 0.02567759
0.14093253 -0.05862981 -0.051215403 -0.037396662 0.02489654 0.013583919 0.10504276 -0.13161765
-0.025040949 -0.11201741 -0.11512871 0.095343195 -0.05458821 0.09807238 0.047292106 0.006367094
0.048062515 -0.1023659 -0.05985626 -0.06415096 0.05248353 -0.19238164 0.18427189 -0.13226286
0.033227023 0.06644895 -0.14452523 0.062900595 -0.13453162 0.093140766 -0.039079197 0.071819745
-0.09869503 0.0951111 -0.13169508 0.15634175 -0.059412736 0.06634889 0.063499175 0.016419219
-0.099260524 0.009025654 -0.100207806 0.01595644 -0.13428652 0.080257066 -0.1757315 -0.08204619
-0.021147573 -0.10158169 0.03504891 -0.06950309 0.07281839 0.05142308 0.094318174 0.06588723
0.11325084 0.06170556 -0.06276549 0.13667859 0.07180872 -0.12394465 0.038293447 0.048155516
-0.12865037 0.12307159 -0.062662125 -0.0951526 -0.19887994 0.04049751 -0.17932901 -0.034068614
-0.11634013 -0.08867088 0.06494259 0.030783262 0.15845692 -0.10378973 -0.024396786 -0.09420059
-0.025084583 -0.0648334 0.14353721 0.16006596 0.13085532 -0.120286375 0.033629145 -0.09562297
0.09420495 0.1076548 0.17486604 -0.1519824 -0.009278769 -0.15023804 0.12512204 0.12755318
0.050033808 -0.012016384 -0.13046966 -0.08903866 0.081197366 -0.04008733 -0.098420136 -0.10301516
0.06428809 0.052831277 -0.05479912 0.09683558 0.07441695 0.039614283 0.063066654 0.059582867
0.033386078 0.089519985 0.043587603 -0.023084741 -0.11208431 0.11493208 0.08613547 -0.14399134
0.079204775 -0.0008228982 -0.078946 0.032934334 0.0801875 0.019071063 -0.11910497 -0.038046982
-0.11912603 0.017012352 0.048508845 0.0632071 0.0070555643 0.1336518 0.13904469 0.17297193
0.10825339 -0.13567643 -0.112024665 -0.14778204 0.062033705 0.041052025 0.07920159 0.036680765
-0.2684196 -0.056216482 -0.2913157 -0.2810035 0.08424491 0.20534946 0.073988855 0.047830947
-0.038871802 -0.23604932 0.17395973 -0.2011199 -0.282942 0.06510947 -0.1893479 0.27487767
-0.09872391 -0.25627473 -0.14711988 -0.14190845 -0.20772183 0.17167702 -0.06897696 0.17566994
-0.3168967 0.06656069 -0.24896687 0.07050264 -0.19617662 -0.1586742 -0.034777492 -0.19082801
0.043189242 -0.1713526 0.22731474 -0.09766617 0.16405796 -0.17357835 0.28684765 0.12643182
0.15344173 -0.17631681 0.007682295 0.09250144 0.079537265 0.11178271 0.09231022 -0.19965564
0.18766199 -0.10288554 0.07360038 -0.08596502 -0.12285935 -0.12364954 0.046250187 0.11409739

bias_ih_l1 f4 [200]
00000000: 7176 d13c 2b66 e43c dc68 0a3e b0ef dbbd
00000010: 7eb0 d13b d55e ff3d fe32 f6bd 610d 8d3d
00000020: 35f7 d9bd 461b 4ebd e5e0 aabc 3974 003e
00000030: 0fb5 a63d 1d9c f9bd c425 e53d 7f30 b9bd
00000040: 497f ea3d 1c72 12bd 3453 1d3d 0a3f 1b3e
00000050: c3aa ebbd d0a5 623d c8e3 e63d 92c7 99bd
00000060: c624 ffbd 67de 073e 9ea1 ef3c 5187 883d
00000070: 7b56 8d3d 5147 92bd 5a98 153e a923 45bd
00000080: 87ac a73d 714c fbbd 7762 bf3d e367 c7bc
00000090: 4289 4d3c 3674 aa3d ec72 353a f455 d53c
000000a0: 8c46 8bbc 2e88 903d 607b 54bd 8c44 9bbd
000000b0: 3b52 dd3c 6d20 0ebe 6445 0d3d d582 e33c
000000c0: 168d 19be 39c7 613d 5eb5 6dbd deac 9fbd
000000d0: 4a7e 13be 3889 4c3d ad95 fabd 68df bebd
000000e0: 5c74 af3d e3df a5bd 5e32 f43d 95b7 b3bd
000000f0: 8d96 be3d ddb7 033e 190e 423d 6d50 c03c
00000100: 5b7a c83d 2180 7a3d f686 cf3b a5d7 2abd
00000110: 47d0 c23d 08ad b93d 70b6 1fbe a011 26be
00000120: 9aa8 603d facf fbbd 5f4d ea3d b7bc b4bc
00000130: 22d4 f43b d8d5 e6bd b2b8 0fbe b044 ffbd
00000140: 54a9 aabd f159 13be 2c87 823c 010c 9a3d
00000150: 0d19 c8bc 9969 e6bd e8f6 863c 4aef c2bd
00000160: 8ce5 1c3e add3 ed3d 4ba8 8cbc 708f a93d
00000170: 956e 2b3d ba08 8f3d e83a d63a 5e2c df3d
00000180: 2e65 99bd 02bd a3bd 6212 913b 2a17 78bd
00000190: 6d7b 9d3d 91c5 1bbe 9a37 a33d 7677 23be
000001a0: 1731 8fbd eb49 b1bd e60d 27bd 6603 393d
000001b0: 4f76 f03c b84a fcbd 1ea1 e53d 8ead 14bd
000001c0: 51a3 c7bc ab94 263e cdab 27bc 8e67 b23c
000001d0: 4fda cfbc 5f91 e53d 0bbc de3d 7377 1ebe
000001e0: a050 ed3d 2b49 81bd eb47 323c 7137 fd3c
000001f0: e77a e93b c322 bdbd 4aa4 cf3d e815 a73d
00000200: e3ad 823c 1502 c43d 06e0 0fbd b32a 773c
00000210: 2e2e 633c 8952 943d 3e1a cc3b ca26 e73d
00000220: 792d a73d b5a8 143d 7007 353d 3bfc 66bd
00000230: a1e7 05bd deb0 a43c c511 c03d 412f 143e
00000240: dc7c a8bd 34ac ddbd 963c 213e 4f58 643c
00000250: 11a2 c9bd 7254 883c 3b79 0f3e 580c 0e3e
00000260: 08b3 01bd 50c6 e2bd 0219 1fbd d96d c0bd
00000270: f7a8 e73d 58ee 73bd 0ca3 f6bd cdf5 07bc
00000280: 14fb ce3d 095f 27bd 4db5 9f3c 2bf0 b9bd
00000290: db63 ff3c 88a3 13bd e5d2 01be 8202 673c
000002a0: 168b 0ebe 5e2f 073e f2d8 eabd 0d0d 3abd
000002b0: 2729 0d3b 940c 6fbd f8e3 8f3c 5cf7 0abd
000002c0: 7ef3 1c3c 0d6f 573d 73ef 74bc 17e6 393d
000002d0: 5c6e bd3e 6cc5 133c 2e97 af3c 2ab4 993c
000002e0: a57a 59bd 7b97 af3d 2391 9ebd 54a5 9fbc
000002f0: 1111 babc 3e6d 86bb 6f25 793c 664e acbc
00000300: 27bf c43c 0ac6 663d a16f 6fbb 1058 afbc
00000310: 588c be3d c740 433c 8aa7 8cbc eb4d c4bd
0.025569173 0.027880749 0.13516563 -0.10739076 0.0063992133 0.1246926 -0.12021445 0.068873174
-0.10642854 -0.05031898 -0.020859191 0.12544335 0.08140003 -0.12187979 0.11188844 -0.09042453
0.11450059 -0.035753354 0.038409427 0.15160766 -0.115071796 0.055333912 0.112739146 -0.07508768
-0.12458186 0.13268434 0.02925187 0.066664346 0.069012605 -0.07142509 0.14608899 -0.04812971
0.08187204 -0.122704394 0.093449526 -0.02434153 0.012544932 0.08322947 0.0006921727 0.026041962
-0.017001413 0.07057224 -0.051875472 -0.07581434 0.02701675 -0.13879557 0.034490004 0.027772347
-0.14995226 0.055121634 -0.058034293 -0.07796644 -0.14403644 0.04993555 -0.1223558 -0.09319955
0.08567116 -0.08099344 0.11923669 -0.0877525 0.09306059 0.12863107 0.047376726 0.02347585
0.097889625 0.06115735 0.0063332273 -0.04170956 0.09512382 0.09066206 -0.15596938 -0.16217661
0.05484829 -0.12295528 0.114405386 -0.022062642 0.0074715773 -0.11271256 -0.140353 -0.12464273
-0.08333078 -0.14389779 0.015933596 0.07521821 -0.024426008 -0.1125061 0.016475156 -0.09518297
0.1532194 0.116126396 -0.017170092 0.08279312 0.041853506 0.06984086 0.001634446 0.10897134
-0.074900016 -0.07995035 0.00442724 -0.060568966 0.07689557 -0.15212084 0.079695895 -0.1596354
-0.06991785 -0.08656677 -0.04078474 0.045169257 0.029353289 -0.12318939 0.11212371 -0.036298327
-0.024369868 0.1626765 -0.010233832 0.021777894 -0.025372652 0.11209368 0.1087571 -0.15475254
0.115876436 -0.06312784 0.010881404 0.030910226 0.007125247 -0.09235146 0.101387575 0.08158475
0.015952056 0.095707096 -0.035125755 0.015085864 0.013865991 0.07242305 0.0062287143 0.11286695
0.0816297 0.036293704 0.044196546 -0.05639289 -0.0326916 0.020103868 0.09378389 0.14471151
-0.0822694 -0.10823861 0.15745768 0.01393707 -0.09845365 0.01664183 0.1401109 0.13871896
-0.031664878 -0.11072981 -0.03884221 -0.09395952 0.11311524 -0.059553474 -0.120428175 -0.00829835
0.10106483 -0.040862117 0.01949563 -0.090790115 0.031175544 -0.036044627 -0.12678106 0.014099719
-0.13920245 0.13201663 -0.1146716 -0.045422602 0.0021539421 -0.058361605 0.017564759 -0.033927307
0.009579537 0.05259614 -0.014949667 0.045385446 0.3699826 0.009019237 0.021434393 0.018762667
-0.05309548 0.085738145 -0.077425264 -0.019488014 -0.022713216 -0.004102378 0.015206679 -0.021033477
0.02401693 0.05634121 -0.0036535042 -0.021404296 0.09304112 0.0119173 -0.017169733 -0.09585174

bias_hh_l1 f4 [200]
00000000: 3049 57bd 4596 66bc ae8c 69bd 9123 133e
00000010: 8c1e 693e dee1 0fbe 5478 0e3e bbfc 21bd
00000020: f390 0c3e 4df0 d63d 86b5 0e3e 85ee 7c3d
00000030: 5a55 ea3c b382 f23a dca4 9ebd 7d2f 163c
00000040: fe03 07bd c812 e63d 2452 f63d b847 523d
00000050: c9b6 c9bd 55f5 d9bd 2b84 1a3c 3d86 a33c
00000060: 485f febd 8c13 013e 0a56 86bd a9f1 3d3e
00000070: 95b8 e43d fede 9d3d 1820 2a3e 42ca 1e3e
00000080: 7f95 83bd d69e 32bd 832f b43d c9e7 e03d
00000090: a360 c5bc 74ae d2bd 241c 1b3e 8921 103e
000000a0: 1750 02be bf04 2fbc a076 4cbd 8c25 1a3e
000000b0: 9ddc a63c b427 95bb a88d 13bd 6de5 853d
000000c0: 60d4 553c f2b3 27bc 8497 9a3d 428c c93d
000000d0: 4491 b5bd d040 c7bd 87dd d8bc 265e ca3d
000000e0: aa44 e1bc 0038 de3a 82c1 af3d 4a15 843d
000000f0: dbea a73d ea6e 4a3d 9bb9 733d fc20 a6bd
00000100: e660 863b 47e1 cc3d 81a7 dd3d 96c8 cb3c
00000110: bd02 bfbd e047 3f3b 8a6a 10be 0bf4 28be
00000120: d5ce f5bd 46ce df3d ff90 f8bd 4b70 83bd
00000130: ccbe 89bc 4bbb 7a3d 6711 91bd 1974 bd3c
00000140: 7ac6 dabd 0fa4 babd 3754 67bd 1d31 a03d
00000150: f082 43bb fb38 96bb a71e 6e3d 8ee3 16be
00000160: 5671 103e 97ff 133e c9fc 38bd 6726 0abd
00000170: 9cab c93d 3daa 18bd 3ad6 cc38 9c42 cfbd
00000180: 1125 173e 94a3 b8bd d405 71bd 611d a8bd
00000190: e376 83bd 43c7 edbd 7e90 163c e6ce 57bd
000001a0: 4da5 96bd 3b7d a1bc fd8c 183e 0d34 d63c
000001b0: 3401 88bd b27e 09be 478f 2b3e 7849 a0bd
000001c0: 5d67 17bd 3cc8 483d e02a b8bc 5a82 843d
000001d0: df41 1bbd ae43 98bb 13e0 4e3a 40f5 08bd
000001e0: de4f d5bd bcc0 d73c b39d 0bbe e4b8 e23d
000001f0: 3917 a5bd 66bf c73d 1806 c1bd 57af 16bd
00000200: d4e9 cf3d 7330 1bbe dda0 0d3e 3c5c 843d
00000210: 114f 73bd 08f9 a3bd 62e8 b6bd 5db4 683d
00000220: f83c 34bd 3781 6bbd d414 4a3d 0c04 933d
00000230: 7991 0f3e bbc0 d73d 6dd3 c73d fcac b03c
00000240: fb4b 293e d45c ddbd 34a3 dd3c 266e 5bbd
00000250: 1ee9 0b3d c1e2 913d d096 21bd 17f5 4bbc
00000260: 9d96 e3bd b9b2 3f3d 30c5 22bd 71c1 d53d
00000270: 7126 7fbd 8a72 98bc 049b fb3d 7a3e a8bd
00000280: 1ebb ee3d 3f2e bbbb b9ed ddbc b5e8 713b
00000290: 9ed6 d7bd bcc7 edbc 3be6 4c3d f4b5 213e
000002a0: 174c a53d cfeb 75bd d394 71bd 7a65 08bb
000002b0: f94a 593d b4ab 6cbd 2577 e3bd 880c 7d3d
000002c0: b54d 7bbc 1d66 9c3d badd fcbd a05e 83bd
000002d0: ebb7 963e 47a6 63bc 83e8 093d 730a 803c
000002e0: 729c adbd c20a 09bc 1f43 97bd 7113 98bd
000002f0: e348 0dbd 0dcd 113e 1576 c3bc 4951 303d
00000300: 20ea 46bd 60fa 153d 2039 053e fa03 17bd
00000310: ae8b 223e b5e3 453c 8efd 4a3c 2c9e 0dbe
-0.05256003 -0.014073913 -0.05701893 0.14369036 0.22765559 -0.14051005 0.13913089 -0.039547663
0.13727169 0.104950525 0.13936433 0.061750907 0.028605152 0.0018502086 -0.07746288 0.0091665955
-0.03296279 0.11234051 0.12027386 0.051337928 -0.098493166 -0.106424965 0.009430925 0.01996147
-0.12420517 0.12605113 -0.065593794 0.18549217 0.11168019 0.07708548 0.16613805 0.15506843
-0.064249985 -0.04360851 0.08798125 0.109817095 -0.024093932 -0.102871805 0.15147454 0.14075293
-0.12725864 -0.010682284 -0.049917817 0.15053385 0.020368868 -0.004551852 -0.036023766 0.065379
0.013051122 -0.010235773 0.075484306 0.09841205 -0.08865598 -0.09729159 -0.02647282 0.09881239
-0.027498562 0.0016953945 0.085818306 0.06449373 0.08199092 0.049422182 0.05950318 -0.0811176
0.0041009067 0.10003906 0.108229645 0.02487592 -0.09326694 0.0029187128 -0.14103141 -0.16499345
-0.12002341 0.109280154 -0.12137031 -0.064179026 -0.016814612 0.061213773 -0.07083397 0.023126649
-0.10682388 -0.09113323 -0.056476798 0.078218676 -0.0029832684 -0.0045844293 0.0581347 -0.14735243
0.14105734 0.14452969 -0.04516295 -0.03372803 0.09847185 -0.037271727 9.767381e-05 -0.101201266
0.14760233 -0.09015575 -0.05884345 -0.082087286 -0.0641916 -0.11610272 0.009189723 -0.052687548
-0.07355747 -0.019713035 0.14897533 0.026147867 -0.066408545 -0.13427237 0.16753875 -0.07826513
-0.03696381 0.049019083 -0.022481382 0.06470175 -0.037904616 -0.00464674 0.0007891666 -0.033437014
-0.10415624 0.02633702 -0.13634376 0.11070421 -0.0806107 0.09753303 -0.094249904 -0.03678831
0.10152021 -0.151552 0.13830896 0.06462905 -0.059401575 -0.08006483 -0.08931042 0.056812633
-0.044003457 -0.057496276 0.04933627 0.07178506 0.14020337 0.10534807 0.09757123 0.02156686
0.1653289 -0.10808721 0.02705536 -0.053571843 0.034157865 0.07123328 -0.039450467 -0.012448571
-0.111127116 0.046801303 -0.039738834 0.10437287 -0.06229252 -0.018609304 0.12285426 -0.082150415
0.116567835 -0.0057123 -0.027090894 0.0036912386 -0.10538982 -0.029025905 0.050024252 0.15792066
0.080711536 -0.060039338 -0.05897982 -0.0020812438 0.053050015 -0.057780936 -0.111067094 0.06177953
-0.015338351 0.07636664 -0.123469785 -0.06414533 0.29437193 -0.013894624 0.033669006 0.015629983
-0.08477105 -0.008364381 -0.07385849 -0.07425583 -0.03449334 0.14238377 -0.023860017 0.04304627
-0.048563123 0.03661573 0.13010073 -0.036869027 0.15873596 0.012078215 0.012389554 -0.13829869

weight f4 [1, 50]
00000000: b3fa 9dbd e8c9 b2bd 9143 8dbd 6843 12be
00000010: d272 a13d 3fe7 d13d 47e5 37bc fcd9 c2bd
00000020: 1c76 04be 2173 86bd 093f b13d 68cc 0cbe
00000030: 0370 64bd 6ebf 863d 2f55 f0bd 73a8 373d
00000040: 6180 23be e13e e8bd 5864 50bd 0fae 56bd
00000050: 7845 08be 61ee 4f3d 4a8d 4bbd c5b1 083d
00000060: 14eb 1cbe be60 1d3e d906 1bbe 9fc7 df3d
00000070: 2f67 d0bd 7ec2 73bd f176 81be f459 1fbe
00000080: 5218 d23d f75a b4bd c342 663d e9da 8dbc
00000090: bcb4 c43d dab2 02be 354b c53c fcce 1a3e
000000a0: 6181 353d b51a e3bd 95f2 bdbd 7999 883d
000000b0: cb6a fa3d d08b a13d 10c1 2c3e 6cd2 b3bd
000000c0: d78f c2ba b952 89bd
-0.07713833 -0.08729917 -0.06897653 -0.14283526 0.07883228 0.10249185 -0.011224098 -0.095142335
-0.1293568 -0.06564928 0.08654601 -0.1374985 -0.055770885 0.06579481 -0.117349975 0.04483838
-0.15966941 -0.11340118 -0.050876945 -0.05241209 -0.1330775 0.050764445 -0.04969529 0.03337266
-0.1532405 0.15368935 -0.15139331 0.109267466 -0.10175931 -0.059511654 -0.25286058 -0.15561658
0.10258545 -0.08806413 0.056216013 -0.017316299 0.09604785 -0.12763539 0.024083713 0.15118021
0.04431284 -0.11089078 -0.092747845 0.066698976 0.122274004 0.07887995 0.16870522 -0.08780369
-0.0014843893 -0.06705231
