mlruns/259183567906258607/models/m-322b90e86cfd4e108e4d4e0027f7ccc2/artifacts/data/model.pth (torch, 12029 bytes, 5 tensors)

weight f4 [50, 3]
0	0x3e9c1804	0.30487072
1	0x3f01daf0	0.507247
2	0xbeaf9970	-0.3429675
3	0x3f1c034a	0.6094252
4	0xbf0b3905	-0.5438388
5	0xbeba4ea7	-0.36388132
6	0x3ed80dd9	0.42198065
7	0xbe46462c	-0.19362706
8	0x3e844ba0	0.25838947
9	0xbf119df4	-0.5688164
10	0xbe561473	-0.20906238
11	0xbeb5846e	-0.35452598
12	0xbeb7272f	-0.35772082
13	0x3d96c2e0	0.07361388
14	0xbefba497	-0.4914901
15	0x3e0dcf10	0.1384852
16	0xbefc1792	-0.49236733
17	0x3ee39f20	0.4445734
18	0xbe547bf6	-0.20750412
19	0x3f078d34	0.52949834
20	0xbe8252e6	-0.2545387
21	0x3f24cf5d	0.6437891
22	0xbbce959e	-0.006304457
23	0xbe56a574	-0.20961553
24	0x3f12cd31	0.5734435
25	0xbeb23cd3	-0.3481203
26	0x3e8197c8	0.25311112
27	0xbe7dca4b	-0.247842
28	0xbe4b88e4	-0.19876438
29	0x3dd39638	0.10331386
30	0x3ea9618c	0.33082235
31	0x3e99d3b1	0.3004432
32	0x3f051c4c	0.519963
33	0xbf2f3bfd	-0.6845091
34	0xbf1cc3bb	-0.6123616
35	0x3c955be0	0.018232286
36	0x3e946e2f	0.28990313
37	0xbf2f6396	-0.6851133
38	0xbc4e71c0	-0.012600362
39	0x3eefc2bb	0.46828255
40	0xbe057d1b	-0.13036005
41	0x3e86d2fc	0.26332843
42	0xbed55584	-0.41666806
43	0x3ef07578	0.46964622
44	0xbedbf59a	-0.42960817
45	0x3ee8731b	0.45400319
46	0x3ed2770c	0.4110645
47	0xbdd1cf5c	-0.10244629
48	0xbe37023b	-0.17871945
49	0xbf0a3217	-0.5398268
50	0xbed0201e	-0.40649503
51	0x3e12f501	0.14351274
52	0xbf278779	-0.6544109
53	0xbe45edd0	-0.19329
54	0xbf02ecb6	-0.5114244
55	0x3e6ff718	0.23434103
56	0x3ef26088	0.47339272
57	0xbd59bb90	-0.05315739
58	0x3d0a08f0	0.03369993
59	0x3eba24e2	0.36356264
60	0x3db9218a	0.090396
61	0x3d898688	0.06715113
62	0xbec6ee90	-0.38853884
63	0x3e48af71	0.19598176
64	0x3eb5029d	0.35353556
65	0x3e5c7418	0.21528661
66	0x3e81dc1f	0.25363252
67	0xbeeb9a4d	-0.4601616
68	0xbf0aabf9	-0.5416866
69	0xbecf20f8	-0.4045484
70	0x3e7a1494	0.24421912
71	0x3f0d07ca	0.5509001
72	0x3dd38463	0.10327985
73	0x3e9c9db7	0.30589077
74	0x3ee4c054	0.44677985
75	0x3df78609	0.12086112
76	0xbeaa23e5	-0.3323051
77	0x3ece15c0	0.4025097
78	0xbf22a142	-0.6352731
79	0x3ea08a60	0.31355572
80	0xbeeeb53c	-0.46622646
81	0x3eb98aac	0.3623861
82	0x3ded5550	0.11588538
83	0x3c4323c0	0.011910379
84	0x3dd0ddc0	0.101985455
85	0xbeed33ee	-0.46328682
86	0xbf096501	-0.53669745
87	0xbeb974a2	-0.36221796
88	0xbdc991a0	-0.09842229
89	0xbcc95ce0	-0.024580419
90	0x3db10f38	0.08645481
91	0xbee1e754	-0.44121802
92	0xbe607f00	-0.21923447
93	0xbe277119	-0.16351737
94	0xbea82782	-0.32842642
95	0xbe3ff018	-0.18743932
96	0xbeafdcb2	-0.34348065
97	0x3e1c0976	0.15237984
98	0x3e0fe7e8	0.14053309
99	0x3e5b07aa	0.21389642
100	0x3ea7c9cb	0.32771143
101	0x3e7a8d3c	0.24467939
102	0x3d8b0338	0.06787723
103	0xbae94200	-0.0017796159
104	0x3aa46000	0.0012540817
105	0xbdefb503	-0.11704447
106	0x3e95c5e4	0.2925254
107	0xbf11599b	-0.5677735
108	0xbf24f5bc	-0.6443746
109	0xbeb2a1f2	-0.3488918
110	0xbcd03760	-0.02541703
111	0xbc3d6d5c	-0.011561718
112	0x3f287656	0.65805566
113	0xbe18c0d2	-0.14917305
114	0x3ee161c8	0.44019914
115	0x3d88ff52	0.066893235
116	0xbf0166dd	-0.5054758
117	0xbefe88f1	-0.49713853
118	0xbeddda65	-0.43330684
119	0x3ebbfe64	0.36717522
120	0xbcd1c2eb	-0.02560564
121	0x3f13d691	0.5774928
122	0xbf10e236	-0.5659517
123	0xbee1fafa	-0.44136792
124	0x3ee6cf3c	0.45079982
125	0xbf0b1ee6	-0.5434402
126	0xbe8e24b0	-0.27762365
127	0xbe92ca04	-0.2866975
128	0x3e6433c4	0.22285372
129	0x3f0c2c94	0.5475552
130	0xbe87351f	-0.26407716
131	0x3e74d250	0.23908353
132	0x3dbecb08	0.09316069
133	0x3e9e6389	0.30935314
134	0xbee12a86	-0.43977755
135	0x3ea977f9	0.33099344
136	0xbd117e96	-0.035521112
137	0x3ed59c36	0.41720742
138	0xbd6194b9	-0.055073474
139	0x3d008373	0.03137536
140	0xbf12eea6	-0.573954
141	0x3ef65df9	0.4811857
142	0x3f1570ff	0.58375543
143	0xbe945dfd	-0.28977957
144	0xbea8a06a	-0.32934886
145	0xbe9b3971	-0.30317262
146	0xbe42a8a2	-0.19009641
147	0xbe4578a3	-0.192843
148	0xbe89c309	-0.26906613
149	0xbe300a3a	-0.17191401

bias f4 [50]
0	0x3d0c0dfb	0.03419302
1	0x3e25387d	0.1613483
2	0x3d06a3e7	0.032871153
3	0x3ec0bd75	0.37644544
4	0xbe8151e8	-0.25257802
5	0xbeb74ac1	-0.3579922
6	0xbdc97485	-0.098366775
7	0xbece09bc	-0.40241802
8	0x3e196788	0.149809
9	0x3f09fdb7	0.53902763
10	0xbdb250ba	-0.087068036
11	0x3e1e20af	0.15442155
12	0x3d05cb57	0.032664623
13	0xbc60c3ad	-0.013718528
14	0x3db57ef3	0.08862104
15	0xbe0d30cb	-0.13788144
16	0x3ea173ff	0.3153381
17	0x3ee1ad4d	0.4407753
18	0xbee43cab	-0.44577536
19	0xbf0fa4e2	-0.56110966
20	0x3e54461c	0.2072987
21	0x3eae7bd7	0.34078857
22	0xbc240529	-0.010010996
23	0x3e6fa41a	0.23402444
24	0xbd9112aa	-0.07083638
25	0x3e976c94	0.29575026
26	0x3edef8ed	0.4354929
27	0xbf041628	-0.5159631
28	0xbdece7f8	-0.11567682
29	0xbedd7e64	-0.4326049
30	0xbf11a589	-0.5689321
31	0x3d4d5fe8	0.05014029
32	0x3ea26daf	0.31724307
33	0x3ea43a12	0.32075554
34	0xbe533f4c	-0.20629615
35	0x3ec18cef	0.37802836
36	0x3f020f72	0.5080482
37	0x3e4af700	0.19820786
38	0xbe8d3757	-0.27581283
39	0x3dd82870	0.10554588
40	0x3d830821	0.06398035
41	0xbe8b169e	-0.27165693
42	0x3efb545d	0.49087802
43	0xbf138e5b	-0.5763909
44	0x3d81fe3d	0.0634732
45	0x3ec3fc28	0.38278317
46	0x3ed9279d	0.42413035
47	0x3e64ed37	0.22356115
48	0xbe8d47cf	-0.27593848
49	0x3e29c29d	0.16578145

weight f4 [25, 50]
0	0x3dfafc71	0.122551806
1	0xbd315b3c	-0.0432999
2	0x3d6d94e3	0.058003318
3	0x3e310201	0.1728592
4	0x3d5c2d6c	0.053754255
5	0xbd90b312	-0.07065405
6	0xbe5509d4	-0.2080453
7	0x3e65c215	0.22437318
8	0xbe00c2fa	-0.12574378
9	0xbdb0d0bf	-0.08633565
10	0xbc5cd295	-0.013477941
11	0x3deaef48	0.114714205
12	0xbe24cfc6	-0.16094884
13	0x3d18e852	0.037330933
14	0xbe5817c6	-0.21102819
15	0x3e2c61d4	0.16834193
16	0xbd1269f3	-0.035745572
17	0xbe0675be	-0.13130853
18	0x3dc31ad2	0.095266
19	0xbd9174f1	-0.07102383
20	0xbcfe4c38	-0.031042203
21	0xbd019c7e	-0.031643383
22	0xbe4f432f	-0.20240472
23	0xbbf6cab3	-0.007531488
24	0x3e0291b2	0.12750891
25	0x3dc70799	0.09718246
26	0x3d284af1	0.041087095
27	0xbcca4130	-0.024689287
28	0x3da09de0	0.07842612
29	0x3e036793	0.12832479
30	0xbdd5d78a	-0.104415014
31	0x3e606b4e	0.21915933
32	0x3dca6e38	0.09884304
33	0xbda8d53e	-0.08243798
34	0x3d334b90	0.043773234
35	0x3e0f512a	0.13995805
36	0x3d80c38c	0.062872976
37	0xbb4d995d	-0.003137193
38	0xbccfddbf	-0.025374291
39	0x3dc5a266	0.09650116
40	0x3e025bb4	0.12730294
41	0xbe05c950	-0.13065076
42	0x3d2a1fc4	0.0415342
43	0x3de5442e	0.11194645
44	0x3d20b88f	0.03923851
45	0xbd401733	-0.046897124
46	0x3dd2dd97	0.10296171
47	0x3c4b8269	0.012421229
48	0xbcff7f60	-0.031188667
49	0x3c2d4142	0.010574641
50	0xbd5556e5	-0.052084822
51	0xbdca6c2c	-0.098839134
52	0xbdbcec06	-0.092247054
53	0xbceb891f	-0.028751908
54	0xbd33cc0e	-0.043895774
55	0xbb41a940	-0.0029550344
56	0xbd932cf6	-0.0718631
57	0x3e8eb0f7	0.27869388
58	0xbb6f5a94	-0.0036522495
59	0x3d5cc700	0.05390072
60	0x3e2087a1	0.15676738
61	0x3e99bc2c	0.30026376
62	0xbd826349	-0.063665934
63	0xbe15b23d	-0.14618774
64	0xbe2642f1	-0.16236474
65	0x3dd2022d	0.10254321
66	0x3c06298e	0.008188618
67	0x3d3ef590	0.046620905
68	0x3d84c202	0.064823166
69	0xbe0f5de7	-0.14000665
70	0x3e067126	0.131291
71	0xbc890b24	-0.016728945
72	0xbdff527e	-0.12466906
73	0xbdc29cfd	-0.095025994
74	0x3d906bad	0.070517875
75	0xbe1033f7	-0.14082323
76	0x3e287137	0.16449438
77	0xbd7c4d0c	-0.061596915
78	0x3da23ac2	0.079213634
79	0x3d949242	0.07254459
80	0xbde0defd	-0.10980032
81	0x3ccfbc98	0.025358483
82	0x3ce3c2ec	0.027802907
83	0xbd8d69ae	-0.069049224
84	0x3dbbf514	0.09177604
85	0x3e1584f7	0.14601503
86	0x3ca3832d	0.01996001
87	0x3ca0376a	0.019557673
88	0xbd14dac4	-0.036341444
89	0x3e887725	0.266534
90	0x3d370c20	0.044689298
91	0xbd50c5b2	-0.050969787
92	0x3dba7f6a	0.091063336
93	0xbd8cf06b	-0.068817936
94	0x3d05ca19	0.03266344
95	0x3da3b7a7	0.07994013
96	0xbe00f5bb	-0.12593739
97	0x3e00b0d7	0.12567459
98	0x3d06a614	0.03287323
99	0xbd59612a	-0.05307118
100	0xbc0dd162	-0.008655878
101	0x3e36d574	0.17854863
102	0x3d27f944	0.041009203
103	0xbcba36de	-0.02273124
104	0xbd18b9c6	-0.037286542
105	0x3decac96	0.11556356
106	0x3dce8c7c	0.10085389
107	0xbe2dfd45	-0.16991146
108	0x3e3c78be	0.18405434
109	0xbd6d9dca	-0.058011808
110	0xbdb3f0e2	-0.08786179
111	0xbd8b81a8	-0.06811839
112	0x3e31b0e3	0.17352633
113	0x3dcdbcaf	0.10045754
114	0x3cc51f7c	0.024062864
115	0xbdb454d1	-0.0880524
116	0xbc66432e	-0.014054103
117	0xb8f11498	-0.000114956114
118	0x3dcd03f2	0.10010518
119	0x3e0b5313	0.13605909
120	0xbdc879ff	-0.09788894
121	0xbdab67fb	-0.08369442
122	0x3e2c6f06	0.16839227
123	0xbdcd9840	-0.10038805
124	0xbe93e38c	-0.28884542
125	0x3e112c62	0.14177087
126	0xbd7d5dd7	-0.06185707
127	0xbe02474a	-0.12722507
128	0xbd34392e	-0.043999843
129	0x3d6af180	0.05735922
130	0x3dd30a08	0.10304648
131	0xbdde5690	-0.10856354
132	0xbd997638	-0.074932516
133	0xbde11788	-0.10990816
134	0xbb961480	-0.0045800805
135	0xbb778e68	-0.003777409
136	0xbd33b11b	-0.043870073
137	0xbe1e08f0	-0.15433097
138	0x3a9049ca	0.0011008319
139	0xbe2b848a	-0.16749778
140	0xbe6e22a2	-0.23255399
141	0x3d97f7ba	0.07420297
142	0x3d6ce747	0.05783775
143	0x3d313f0c	0.043273017
144	0xbdfcb71f	-0.12339615
145	0xbdc7b6b2	-0.09751643
146	0x3dd60fd6	0.10452239
147	0x3de34463	0.11097028
148	0xbdbae20b	-0.091251455
149	0x3c9d37d9	0.01919167
150	0x3ac8ae27	0.001531069
151	0xbd5f9bfd	-0.05459212
152	0x3dba616c	0.09100613
153	0x3db55ea9	0.088559456
154	0x3daa5d7e	0.083186135
155	0x3d125bf4	0.035732225
156	0xbe7ba8fb	-0.2457618
157	0x3e5c05c5	0.21486576
158	0xbdeab6da	-0.114606574
159	0x3dd3f395	0.10349194
160	0x3e0e8fde	0.13922068
161	0x3e12f5bc	0.14351553
162	0xbe682dfa	-0.22673789
163	0xbd914c96	-0.07094686
164	0xbdc60cfd	-0.09670446
165	0x3a1302b8	0.000560801
166	0x3d980a5c	0.07423851
167	0x3dba2c8a	0.090905264
168	0xbe020081	-0.12695505
169	0x3e0b7203	0.13617711
170	0x3cace52a	0.021105368
171	0x3da80079	0.08203215
172	0xbdef4978	-0.11683935
173	0x3dd59a71	0.10429848
174	0x3dd2cf46	0.102934405
175	0xbcc5c2c1	-0.024140717
176	0x3de28cf6	0.110620424
177	0x3bfc4700	0.0076988935
178	0x3d8032c6	0.06259684
179	0xbca59afc	-0.020215504
180	0xbe0c0245	-0.13672741
181	0x3cd4beb4	0.02596984
182	0x3e1f8924	0.15579659
183	0xbdaf8abb	-0.085713826
184	0x3def6766	0.116896436
185	0xbbc566ea	-0.006024231
186	0x3d92122c	0.07132372
187	0x3dcd1050	0.10012877
188	0xbcdac3d3	-0.026704704
189	0x3e886bd9	0.2664478
190	0xbaa0dadd	-0.0012272258
191	0x3d95a54a	0.07306917
192	0x3de04e9f	0.10952496
193	0x3dd603de	0.10449956
194	0x3ddba5bc	0.10724971
195	0xbc344723	-0.011003288
196	0x3d877db0	0.0661577
197	0xbdbd7472	-0.09250726
198	0x3ced7b08	0.02898933
199	0x3e386378	0.18006694
200	0xbe0786c2	-0.13235
201	0x3c4373ff	0.011929511
202	0x3dd16c32	0.10225715
203	0xbd5bd925	-0.053673882
204	0x3df0aaca	0.117513254
205	0xbd383ab8	-0.044977874
206	0xbe7f8df4	-0.24956495
207	0x3d19a986	0.037515186
208	0x3d8251c0	0.06363249
209	0x3de1e991	0.110308774
210	0x3e0561ab	0.13025539
211	0x3e4e7e52	0.20165375
212	0xbe3e1870	-0.1856401
213	0xbd7a5b76	-0.06112238
214	0xbe542872	-0.20718554
215	0x3c59192a	0.0132506285
216	0xbdfd2a3f	-0.123615734
217	0xbd677d3f	-0.05651593
218	0x3bc7ad60	0.006093666
219	0x3d7d9840	0.061912775
220	0x3df9da95	0.12199894
221	0x3dcafc97	0.09911459
222	0xbd248503	-0.040165912
223	0x3e03a09e	0.1285424
224	0x3cba1a62	0.022717658
225	0x3dd21635	0.10258142
226	0xbdc2ba09	-0.0950814
227	0x3df61326	0.12015371
228	0xbc8ff9a0	-0.017575085
229	0x3dc1b6d0	0.09458697
230	0xbe07a0fc	-0.13245004
231	0x3e51bc8b	0.2048208
232	0x3d4ec184	0.05047752
233	0x3dbac10f	0.09118854
234	0x3d950998	0.072772205
235	0x3d616b3f	0.05503392
236	0xbbb9e94b	-0.0056735626
237	0x3e1ff1ca	0.15619579
238	0xbd48b4d5	-0.04900058
239	0x3e933cc3	0.28757295
240	0x3ddb2677	0.10700696
241	0xbc06f000	-0.008235931
242	0xbd6686a6	-0.056280755
243	0xbbf14e40	-0.0073640645
244	0x3e04ee12	0.12981442
245	0x3e02b492	0.12764195
246	0x3e03b20b	0.12860887
247	0x3e11cc0a	0.14237991
248	0x3c252540	0.010079682
249	0xbd472871	-0.048622552
250	0xbcdddfe8	-0.027084306
251	0x3e029cbf	0.12755106
252	0xbd67f018	-0.056625456
253	0xbdafbf4e	-0.0858141
254	0x3d3a056c	0.045415327
255	0xbd8e174f	-0.069380395

bias f4 [25]
0	0x3de48f75	0.11160175
1	0x3de8a6cf	0.11359941
2	0x3dea7cd6	0.11449592
3	0xbd8af60a	-0.067852095
4	0x3d522f9a	0.051314928
5	0xbe0aa0ff	-0.13537978
6	0x3d82fe2c	0.06396136
7	0xbd975677	-0.07389539
8	0x3de8902d	0.11355624
9	0x3daf0fab	0.0854791
10	0xbe058de8	-0.13042414
11	0x3e006549	0.12538637
12	0xbdae1d6e	-0.08501707
13	0xbd155142	-0.036454447
14	0xbd9f47da	-0.077773765
15	0x3cf2f224	0.029656477
16	0x3cec6e51	0.028861197
17	0x3dbecf3c	0.093168706
18	0xbd55f706	-0.052237533
19	0x3de3d036	0.111236975
20	0xbddc9e04	-0.107723266
21	0xbc2b02cb	-0.010437678
22	0x3c00a504	0.007851843
23	0x3ccc19d5	0.024914661
24	0xbdce4453	-0.100716256

weight f4 [1, 25]
0	0x3e2bcbfc	0.16777033
1	0x3e23a4ef	0.15980886
2	0xbe47dd00	-0.19517899
3	0x3e004851	0.12527587
4	0x3e4a05ce	0.19728777
5	0xbe3ef9b2	-0.18649939
6	0x3e4913a1	0.19636394
7	0x3e2f2479	0.17103757
8	0x3d8d81a9	0.06909496
9	0xbdf0cecf	-0.117581956
10	0x3d6a4504	0.057194725
11	0x3e6b3da4	0.22972733
12	0xbddbfdd3	-0.107417725
13	0x3d92f61a	0.071758464
14	0x3e04469b	0.12917559
15	0xbe976fc9	-0.29577473
16	0x3e335fe0	0.17517042
17	0x3dbb4518	0.09144038
18	0x3e2f6786	0.17129335
19	0x3e575995	0.21030267
20	0xbd9edcfd	-0.07756994
21	0x3d807608	0.06272513
22	0x3e8f8d94	0.28037703
23	0x3e302395	0.17201073
24	0x3e71d87c	0.23617738
