mlruns/259183567906258607/models/m-f1b1ce69bd4544fc805d24d4909c0751/artifacts/data/model.pth (torch, 12029 bytes, 5 tensors)

weight f4 [50, 3]
-0.106339425 -0.3367322 -0.147493 -0.19361873 0.16873823 -0.30036446 0.30326596 0.10411244
0.07572192 -0.41540182 -0.029181719 -0.56145865 -0.16889864 -0.34193513 -0.5218306 0.47349155
0.075814664 0.3871243 -0.037981987 -0.115703404 0.11097634 -0.027064323 0.13033408 -0.40817556
0.44660482 0.61526674 -0.15137455 0.021758854 -0.50505966 -0.033014655 0.3512799 0.36109152
-0.33905184 -0.47094685 0.3500444 -0.09316999 0.06741327 -0.2978767 0.38113064 0.47180888
0.5994508 0.5302751 -0.12561117 -0.45435765 -0.43668956 0.363122 -0.24331492 0.30350477
-0.13101369 0.07669073 -0.2667284 0.533294 -0.2193997 -0.12747017 0.289203 -0.09650358
0.016089976 0.53069043 0.07759646 0.25435984 0.34855738 -0.49828106 0.20449376 -0.55439466
0.33006138 0.4076668 0.5511619 -0.6306031 0.18952829 -0.6651434 -0.15229888 -0.07907507
0.12780648 -0.7169225 0.31804895 -0.22441053 0.22415876 0.14939088 0.11170977 0.010965705
0.30767363 0.1910317 0.044146642 -0.12282726 -0.08670078 0.2924002 -0.05916649 -0.15463322
0.12864044 -0.3069344 -0.23309363 -0.32701433 0.15994859 -0.058368623 0.2582401 -0.12967813
0.017137395 0.67459303 -0.22799256 -0.20434083 0.2921905 0.42350113 0.13975787 -0.062158525
0.18211669 0.5983285 -0.7177753 0.1901263 -0.24702844 0.11621345 0.048537552 -0.4840026
0.016453635 -0.36834183 -0.48687574 -0.49303344 0.30432975 0.05108255 -0.02285397 0.060576856
0.4370077 -0.1036938 0.03317225 -0.3781399 0.007571121 0.20133966 -0.5260351 -0.09016082
0.08722967 0.13053018 -0.22021791 -0.482019 -0.5425607 -0.30948496 -0.39807922 -0.18859321
0.023332119 0.2753936 0.35950547 0.4547951 0.52377605 -0.53958863 -0.5139963 0.43004477
0.17139447 -0.0043438673 0.03510058 -0.18639657 -0.17864093 -0.097239316
00000000: 7cc8 d9bd 2a68 acbe 6808 17be fd43 46be
00000010: b7c9 2c3e 5fc9 99be ad45 9b3e e738 d53d
00000020: 1814 9b3d 8caf d4be 800e efbc c1bb 0fbf
00000030: c4f3 2cbe 1f12 afbe b196 05bf 7c6d f23e
00000040: b844 9b3d 2835 c63e 0093 1bbd e8f5 ecbd
00000050: 9047 e33d 00b6 ddbc 4c76 053e 63fc d0be
00000060: 63a9 e43e 1f82 1d3f ee01 1bbe a03f b23c
00000070: 974b 01bf 603a 07bd f6da b33e fde0 b83e
00000080: 3498 adbe f21f f1be 0539 b33e e8cf bebd
00000090: f80f 8a3d 4b83 98be 8e23 c33e ef90 f13e
000000a0: 9c75 193f 1cc0 073f 37a0 00be 91a1 e8be
000000b0: c695 dfbe 20eb b93e 8c27 79be fa64 9b3e
000000c0: 7428 06be 0810 9d3d a090 88be f585 083f
000000d0: 51aa 60be 8a87 02be 6a12 943e aba3 c5bd
000000e0: 20cf 833c 54db 073f e5ea 9e3d 743b 823e
000000f0: 1d76 b23e b21e ffbe d066 513e cfec 0dbf
00000100: cefd a83e b4b9 d03e f218 0d3f 346f 21bf
00000110: b413 423e d646 2abf 3df4 1bbe 1cf2 a1bd
00000120: b4df 023e 3c88 37bf 50d7 a23e e0cb 65be
00000130: e089 653e ecf9 183e 18c8 e43d 80a9 333c
00000140: 6687 9d3e d09d 433e 1cd3 343d dc8c fbbd
00000150: 2e90 b1bd 7bb5 953e 9058 72bd 2c58 1ebe
00000160: 52ba 033e 8126 9dbe 19b0 6ebe 6c6e a7be
00000170: 90c9 233e f013 6fbd 0c38 843e 58ca 04be
00000180: b963 8c3c 21b2 2c3f e276 69be b93e 51be
00000190: fe99 953e 24d5 d83e b01c 0f3e f099 7ebd
000001a0: cc7c 3a3e 0e2c 193f 1fc0 37bf 78b0 423e
000001b0: 06f5 7cbe 5101 ee3d 50cf 463d 30cf f7be
000001c0: c6c9 863c 4d97 bcbe c747 f9be e16e fcbe
000001d0: 1cd1 9b3e f03b 513d 4038 bbbc 701f 783d
000001e0: 79bf df3e 6a5d d4bd a0df 073d 8e9b c1be
000001f0: 2b17 f83b fc2b 4e3e 3caa 06bf 3ca6 b8bd
00000200: 78a5 b23d b4a9 053e ce80 61be 32cb f6be
00000210: 42e5 0abf d074 9ebe 0ad1 cbbe 941e 41be
00000220: 0023 bf3c 6400 8d3e 1a11 b83e e7da e83e
00000230: 3016 063f 7b22 0abf 4395 03bf d42e dc3e
00000240: 0882 2f3e 0057 8ebb a0c5 0f3d bede 3ebe
00000250: a6ed 36be 6825 c7bd

bias f4 [50]
-0.3096826 0.5761181 0.51139283 -0.21060291 -0.0323357 -0.51461476 -0.19907436 -0.35288298
-0.34029377 -0.0431211 -0.26069278 0.47676465 -0.5365146 0.015512022 0.2694632 0.5557484
-0.11861253 -0.15822642 0.0063133077 -0.04316512 -0.0010122322 -0.27358067 0.40347046 0.42067382
0.17489102 -0.5080057 -0.3744267 0.24126862 0.08645819 0.21338367 0.38210234 -0.49752545
-0.07936163 0.47312456 -0.51554495 -0.07335863 0.13428864 0.28719392 -0.29321286 -0.47776663
0.40230894 0.2255216 0.0037590861 -0.2466188 0.37215185 -0.42193434 0.41159496 0.14508983
-0.32729346 0.23624441
00000000: b88e 9ebe 7a7c 133f a4ea 023f 4aa8 57be
00000010: 7072 04bd cbbd 03bf 26da 4bbe 14ad b4be
00000020: fc3a aebe c09f 30bd 8679 85be 7f1a f43e
00000030: 0559 09bf 2326 7e3c 15f7 893e 8745 0e3f
00000040: 20eb f2bd 1b06 22be dddf ce3b e9cd 30bd
00000050: e0ac 84ba c412 8cbe ae93 ce3e 8f62 d73e
00000060: a216 333e a90c 02bf dbb4 bfbe 1f0f 773e
00000070: fe10 b13d 4081 5a3e eba2 c33e a8bb febe
00000080: 5a88 a2bd 623d f23e c1fa 03bf 0d3d 96bd
00000090: f682 093e 150b 933e ff1f 96be d49d f4be
000000a0: 70fb cd3e 22ef 663e 005b 763b a489 7cbe
000000b0: b08a be3e c707 d8be 93bc d23e 6e92 143e
000000c0: 0293 a7be 0eea 713e

weight f4 [25, 50]
0.095522374 -0.07226757 0.13908283 0.110164806 -0.118317135 0.034152374 -0.09123234 -0.021239147
0.048490778 0.017445058 0.139834 -0.11710378 0.028175473 0.0913371 -0.08679055 -0.07888149
-0.06324548 -0.10554461 -0.10126272 -0.12780596 -0.0675451 -0.1345899 -0.035442233 -0.063059255
-0.010940969 0.009880289 0.086282924 0.09643403 -0.0890424 -0.026847593 0.025932252 -0.06496333
0.062287316 -0.06317172 0.07454267 -0.0053378046 -0.05593174 0.06790985 -0.05660273 0.11739896
-0.100682795 0.012304306 0.07130428 -0.014969319 -0.1144319 0.12799777 0.0043067783 0.08978097
-0.12495152 0.0728783 0.09106739 -0.035828758 0.15127054 0.07277149 -0.110266544 0.070081726
0.08730774 0.0032322258 0.118342645 0.10809566 0.118551634 0.01674625 0.08144131 0.108716
0.06342799 0.017237263 0.12259589 0.05910823 -0.0923007 0.00026569862 -0.16584143 -0.0054178834
0.014798756 0.09677252 -0.016105177 -0.08320205 -0.08676288 -0.0010596655 -0.018168295 0.13089536
0.058113296 0.055185452 0.28218782 0.12077354 -0.06615702 -0.27110305 0.13616113 0.13588485
0.061135933 0.06321348 -0.053685885 0.17059594 -0.123071805 0.070130154 0.0074679726 0.09744385
-0.022134285 0.23188189 0.030359715 0.016408686 0.111270085 0.1622924 0.07530374 -0.04592269
-0.007274911 -0.10999337 -0.09709565 0.13778807 0.31548914 0.023632228 0.19859359 0.015523297
0.065330446 0.0012112977 -0.12043053 -0.015873767 -0.12635341 -0.036906462 -0.1887018 0.075432874
-0.060061157 0.051853597 -0.14977138 0.2558192 -0.14027716 -0.053894915 -0.13321021 -0.10634523
0.10913395 0.06285026 -0.073132254 -0.10513018 0.09687856 0.09275141 -0.008787781 -0.18298362
0.2385876 0.009663944 0.137356 -0.0009832531 -0.03792653 0.0732781 -0.056361012 0.010654286
-0.00021454878 -0.04422093 0.15677099 0.30769485 -0.020529412 0.053183984 -0.037041433 0.124136254
0.09202935 -0.08970608 0.05105476 -0.1396358 0.017342731 0.029164925 -0.039116472 -0.08936301
0.08727482 -0.055825002 -0.018663265 -0.096832104 -0.04383476 -0.045119397 -0.06730217 -0.069239624
-0.07730521 0.0848614 0.0132626 -0.035075806 0.04632163 -0.10125725 -0.10886459 0.086099565
-0.10906932 0.0070426017 0.025668979 0.07424268 0.015335098 -0.049478464 -0.130298 -0.09868103
0.017876133 -0.08097558 0.10305093 0.0067697912 0.06455405 -0.12128463 -0.052527554 -0.014398918
0.043064162 0.12813438 -0.086915776 0.081595615 0.06949006 0.12742151 -0.108181864 0.05606316
-0.10741413 -0.041710645 0.003367126 -0.09834037 -0.015778527 0.0077224523 -0.059773035 0.08447598
0.08914487 0.029747158 -0.083211824 0.021362245 -0.011663422 -0.10466474 -0.053680368 0.058277637
-0.0034805834 0.100563824 0.052674323 -0.039711036 0.10412189 0.12231214 -0.106907696 -0.09238635
-0.09386161 0.01143758 -0.06705901 -0.035029396 -0.019219905 -0.12485112 0.07720108 -0.10587117
-0.045906924 0.13285042 -0.03784445 -0.028775223 -0.05384306 0.016708463 -0.05795586 0.14103638
-0.015593663 -0.032782547 0.022722349 0.058495462 -0.06887922 -0.100216314 -0.030023508 -0.08676873
-0.04740563 -0.100812905 -0.0055043995 -0.061524265 -0.12243664 0.0028799176 0.093346864 0.12658279
00000000: 3ca1 c33d 0501 94bd bb6b 0e3e 169e e13d
00000010: 4150 f2bd 5ce3 0b3d 05d8 babd b8fd adbc
00000020: 449e 463d f0e8 8e3c a530 0f3e 1bd4 efbd
00000030: 40d0 e63c f20e bb3d 3ebf b1bd 9e8c a1bd
00000040: d986 81bd c627 d8bd d462 cfbd 91df 02be
00000050: 1655 8abd efd1 09be e02b 11bd 3625 81bd
00000060: c041 33bc f0e0 213c 1ab5 b03d 347f c53d
00000070: dd5b b6bd 7cef dbbc e06f d43c 7f0b 85bd
00000080: fc20 7f3d 2d60 81bd d4a9 983d c0e8 aebb
00000090: ae18 65bd 5214 8b3d 44d8 67bd de6e f03d
000000a0: c832 cebd 0098 493c fa07 923d e041 75bc
000000b0: 465b eabd d911 033e e01f 8d3b 16df b73d
000000c0: 95e6 ffbd 3841 953d 8a81 ba3d 2dc1 12bd
000000d0: aae6 1a3e 3809 953d 6dd3 e1bd 0287 8f3d
000000e0: 66ce b23d c0d3 533b a15d f23d 4261 dd3d
000000f0: 33cb f23d 6f2f 893c b4ca a63d 7fa6 de3d
00000100: 89e6 813d 2935 8d3c 8e13 fb3d 791b 723d
00000110: 2608 bdbd 774d 8b39 56d2 29be 8088 b1bb
00000120: 7b76 723c ac30 c63d 01ef 83bc d665 aabd
00000130: bdb0 b1bd 79e4 8aba add5 94bc 6f09 063e
00000140: 3508 6e3d 240a 623d ec7a 903e 1e58 f73d
00000150: 557d 87bd 05ce 8abe d36d 0b3e 6625 0b3e
00000160: ac69 7a3d 1276 813d bbe5 5bbd b4b0 2e3e
00000170: 120d fcbd 66a0 8f3d e5b5 f43b a490 c73d
00000180: f652 b5bc 7272 6d3e f0b4 f83c 826b 863c
00000190: 92e1 e33d fb2f 263e d938 9a3d 6e19 3cbd
000001a0: 6062 eebb 3444 e1bd 16da c6bd 5118 0d3e
000001b0: cb87 a13e 6098 c13c 1e5c 4b3e 6d55 7e3c
000001c0: f8cb 853d 68c4 9e3a 48a4 f6bd b409 82bc
000001d0: ca62 01be 3b2b 17bd 0b3b 41be 8d7c 9a3d
000001e0: b002 76bd 7064 543d ab5d 19be bcfa 823e
000001f0: d1a4 0fbe eac0 5cbd 4268 08be 87cb d9bd
00000200: 9f81 df3d a3b7 803d 5dc6 95bd 7e4e d7bd
00000210: 4468 c63d 74f4 bd3d a0fa 0fbc 0f60 3bbe
00000220: 4f50 743e 8555 1e3c 0da7 0c3e 80e0 80ba
00000230: d958 1bbd d412 963d ceda 66bd 508f 2e3c
00000240: 80f8 60b9 0221 35bd 9388 203e 2e8a 9d3e
00000250: 4c2d a8bc 73d7 593d c2b8 17bd 263b fe3d
00000260: e279 bc3d d2b7 b7bd cc1e 513d b0fc 0ebe
00000270: 5812 8e3c 48eb ee3c 9838 20bd f403 b7bd
00000280: 24bd b23d c2a8 64bd b4e3 98bc e94f c6bd
00000290: 148c 33bd 1ecf 38bd b8d5 89bd 81cd 8dbd
000002a0: 3252 9ebd d0cb ad3d 604b 593c a6ab 0fbd
000002b0: c0bb 3d3d f65f cfbd 66f4 debd f854 b03d
000002c0: bc5f dfbd a0c5 e63b c047 d23c 8c0c 983d
000002d0: 1040 7b3c eea9 4abd d76c 05be 4819 cabd
000002e0: f870 923c 86d6 a5bd 5e0c d33d 20d5 dd3b
000002f0: ea34 843d 1364 f8bd 2227 57bd 70e9 6bbc
00000300: 0c64 303d a935 033e e600 b2bd 9a1b a73d
00000310: ce50 8e3d c97a 023e 748e ddbd 7ca2 653d
00000320: f0fb dbbd c8d8 2abd 00ab 5c3b ad66 c9bd
00000330: f841 81bc a00c fd3b 92d4 74bd be01 ad3d
00000340: 9691 b63d 50b0 f33c f66a aabd e0ff ae3c
00000350: f017 3fbc 785a d6bd f2df 5bbd 88b4 6e3d
00000360: 801a 64bb 68f4 cd3d 08c1 573d 0aa8 22bd
00000370: dc3d d53d ca7e fa3d 6cf2 dabd 0e35 bdbd
00000380: 843a c0bd b064 3b3c 3c56 89bd fc7a 0fbd
00000390: 1073 9dbc f2b1 ffbd 9a1b 9e3d fcd2 d8bd
000003a0: e608 3cbd f109 083e c802 1bbd 04ba ebbc
000003b0: 8a8a 5cbd 30e0 883c 2063 6dbd d76b 103e
000003c0: 907c 7fbc fe46 06bd 3824 ba3c f098 6f3d
000003d0: 8c10 8dbd 363e cdbd dcf3 f5bc ceb3 b1bd
000003e0: 682c 42bd ff76 cebd 405e b4bb de00 7cbd
000003f0: 10c0 fabd 00bd 3c3b a42c bf3d eb9e 013e

bias f4 [25]
-0.1318511 -0.018830247 0.0012577785 -0.059354395 0.025515169 0.1009965 0.03953262 0.15891467
0.12103436 0.03263533 0.14272052 0.0019992653 -0.029003503 -0.06272642 0.009502842 0.042918094
0.059038986 -0.11234966 -0.0620066 0.10205451 0.078509934 -0.13688737 0.10606725 -0.046428077
0.09495544
00000000: fa03 07be e441 9abc 0bdc a43a 981d 73bd
00000010: 3005 d13c 41d7 ce3d f5ec 213d 87ba 223e
00000020: dde0 f73d a0ac 053d 5425 123e 1b06 033b
00000030: c198 edbc b676 80bd cfb1 1b3c e2ca 2f3d
00000040: ddd2 713d 9417 e6bd a2fa 7dbd f401 d13d
00000050: d1c9 a03d 342c 0cbe c939 d93d 5e2b 3ebd
00000060: ff77 c23d

weight f4 [1, 25]
0.020400569 0.08585408 0.13454856 0.047712713 0.1711102 -0.12371017 0.27630514 0.0871478
0.19868444 0.10882904 0.15032372 -0.1735781 0.14107306 -0.09601855 -0.0064827898 0.045371793
0.29019648 -0.006929919 0.05953534 0.0692242 -0.13020208 -0.10251641 -0.15131527 0.12646012
-0.069543175
00000000: 181f a73c 44d4 af3d 19c7 093e 686e 433d
00000010: 8337 2f3e c25b fdbd de77 8d3e 8c7a b23d
00000020: ef73 4b3e c2e1 de3d 76ee 193e 75be 31be
00000030: 7575 103e 60a5 c4bd 956d d4bb c6d7 393d
00000040: a294 943e 6014 e3bb 54db 733d 6bc5 8d3d
00000050: b253 05be 20f4 d1bd 64f2 1abe c37e 013e
00000060: a76c 8ebd
