mlruns/259183567906258607/models/m-22646cb96a3a42a8a3406cd97bca4887/artifacts/data/model.pth (torch, 12029 bytes, 5 tensors)

weight f4 [50, 3]
000000 3c 4e 55 3e c0 31 eb be e8 d1 3f 3e 62 8a 2d bd
       0.20830625 -0.45936394 0.18732417 -0.0423683
000010 fa 4b 9d 3e dc 42 e2 3e cb f9 a4 3e 02 07 ae 3e
       0.30722028 0.44191635 0.32221827 0.33989722
000020 e8 cd 89 be 92 57 e6 bd 3e 54 b9 3e 4e 7a cb 3e
       -0.26914907 -0.112471715 0.36197084 0.3974175
000030 6d 62 12 3f 28 f4 01 bd e0 2a 2a 3e c0 d3 dc 3d
       0.57181436 -0.031726986 0.16617918 0.107825756
000040 a8 f4 8f 3d f8 74 b4 bd 52 ce e1 3e b7 99 53 bf
       0.07029086 -0.088113725 0.44102722 -0.82656425
000050 8a a7 ac 3e cb 1b 89 be 80 36 06 3f 80 0c 2f bc
       0.33721572 -0.26779017 0.5242691 -0.010684133
000060 78 fd 41 3e 00 bf ed be 0a ae 51 be 80 27 ca bd
       0.18944347 -0.46434784 -0.20476547 -0.09870815
000070 12 a2 07 3f 1c 11 07 3e c8 70 fa 3e 82 6c 4e bf
       0.52981675 0.1319012 0.4891417 -0.8063432
000080 d4 23 f8 bd 9d cc 44 3e 45 ef cc 3d 8a 75 cb 3e
       -0.12116209 0.19218679 0.100065745 0.39738113
000090 93 3f e6 bd 5e 4b 55 3d a7 ba 91 be 0f 50 7d be
       -0.112425946 0.05207383 -0.28462717 -0.24737571
0000a0 d4 c7 a9 3e 27 6b ee be a9 de 22 be c8 28 eb 3e
       0.3316027 -0.46566126 -0.1590525 0.4592955
0000b0 dc fa 9c 3e c1 e1 3e 3e 71 34 0b 3f 6f 04 93 be
       0.3066014 0.18640806 0.54376894 -0.2871432
0000c0 d6 04 0f 3f fc d2 a2 be f4 48 6c 3e 00 a7 fa 3d
       0.55866754 -0.31801593 0.23074704 0.12238884
0000d0 f4 e7 e8 be 58 bf d2 be 2e f0 9c 3e 17 7d 4f be
       -0.45489466 -0.4116161 0.30651993 -0.20262562
0000e0 6a 88 af 3e 6c 95 aa 3e 38 75 02 bf 98 da 00 3e
       0.34283763 0.33317125 -0.5096011 0.12583387
0000f0 5d d9 cd 3e 7d 28 08 3f 12 2d 68 be cc 54 7c be
       0.40204898 0.5318678 -0.22673443 -0.24641722
000100 7c f0 7c 3e d4 ac 08 bf 2a f6 93 be b8 6c e5 3d
       0.24701113 -0.53388715 -0.28898746 0.11202377
000110 84 0a 10 bf 97 a4 fe 3e 00 b9 07 3f 9c bd ab 3e
       -0.56266046 0.49734947 0.5301666 0.33543098
000120 6d 65 95 be 5e a6 41 bf 2f 20 ac be 4d 7d 1e 3f
       -0.29178944 -0.7564448 -0.33618304 0.61909944
000130 80 e7 90 3e 5a e3 fd be 06 a3 db 3e d6 1a d5 3e
       0.2830162 -0.49587518 0.42897815 0.41622037
000140 2a 2f cb be f1 fd d5 be b9 ea 67 be 44 d7 a3 3e
       -0.3968442 -0.41795304 -0.22648133 0.32000172
000150 3e ce b8 3e ef 42 45 be 74 52 96 3e f2 ad da 3e
       0.3609485 -0.19263814 0.29359782 0.42710835
000160 0e 0e 25 3f 02 e7 b5 be f0 89 e3 3d 22 3e 1b 3f
       0.6447457 -0.35527807 0.11110294 0.6064168
000170 08 db 58 3e 6f 70 36 3e 87 30 10 3e ee 99 d1 3e
       0.21177304 0.17816328 0.14081012 0.40937752
000180 c8 ee cd 3e f8 a5 89 bd 4d 4e ee be 4b 80 04 be
       0.40221238 -0.06721109 -0.46544114 -0.12939565
000190 a1 3d 15 3f 08 7a e2 3e ea fa de 3e f9 b5 9f bd
       0.58297163 0.44233727 0.43550807 -0.077983804
0001a0 10 f5 2b bd 5e 07 ef be b0 96 9b bd ae 72 aa be
       -0.041981757 -0.46685308 -0.07597101 -0.3329062
0001b0 58 d4 c2 3d 4e 1b 02 bf 04 ee fe 3e b4 cf bf 3e
       0.095131576 -0.50822914 0.49790967 0.37463152
0001c0 c0 19 42 bd 8e 2e 85 3e 36 c5 84 3d fe fb a3 be
       -0.04738784 0.2601208 0.064829275 -0.32028192
0001d0 bc 90 fc bd e8 36 52 3e 02 da 51 be f8 96 a9 3e
       -0.123322934 0.20528758 -0.2049332 0.33122993
0001e0 ea 6c ef be fd 83 b8 3e c0 43 45 3e e9 47 f1 be
       -0.46762782 0.360382 0.19264126 -0.47125176
0001f0 93 7c 07 3f d7 2a 0b bf ab e6 9d 3d f9 94 b4 3e
       0.5292446 -0.54362243 0.07710012 0.35269907
000200 30 a8 61 3e b4 72 fa 3e a8 33 b4 3d 64 84 64 be
       0.22036815 0.48915637 0.08798915 -0.22316128
000210 e0 2f 23 3e 7e b0 d4 3e 28 89 e0 be f6 4b f6 3e
       0.15936232 0.41540903 -0.43854642 0.4810483
000220 c9 a8 ae be 89 5c 07 bf c0 bb 6e 3c 00 d0 44 3e
       -0.34113148 -0.5287557 0.01457113 0.1921997
000230 a4 db 2d 3e e4 63 01 3f 9c 8d 76 be 1c 72 88 3e
       0.16978317 0.50543046 -0.24077457 0.2664956
000240 58 a1 07 3e b9 eb 31 3e c2 fb 97 3e 10 b0 fd be
       0.13245142 0.17375077 0.29684263 -0.49548388
000250 a6 15 13 3f d0 93 55 3d
       0.5745491 0.052142918

bias f4 [50]
000000 d4 64 03 3f d5 bd 92 3e 15 36 72 be ac a0 64 bd
       0.51325727 0.28660455 -0.23653443 -0.05581729
000010 b7 17 86 ba 82 37 fb be c2 e6 f9 3b 80 24 c5 3e
       -0.0010230456 -0.49065787 0.0076263854 0.3850441
000020 51 62 dc be 47 2f cd 3b c7 39 4a bc db a3 b5 3d
       -0.4304376 0.0062617394 -0.012342877 0.088691436
000030 d4 5f 98 3e ba 24 08 3e b2 49 6c 3d 15 64 33 bc
       0.2976061 0.1329526 0.05768747 -0.010949154
000040 d5 1c 13 bf e1 70 e0 be 8b 63 36 be dc 69 ad be
       -0.5746587 -0.4383612 -0.1781141 -0.33869827
000050 a9 c7 0c 3f 55 f4 0b bf fa 4b b6 be e6 59 bb be
       0.5499216 -0.54669696 -0.3560484 -0.36592025
000060 2e 13 38 3e 08 08 cf be 20 1b 88 3e 8c 16 eb 3e
       0.17976066 -0.40435815 0.26583195 0.4591564
000070 65 9c 12 3e ca f5 ae be b5 d7 c8 3e 92 bb 7f 3e
       0.14317472 -0.34171897 0.3922707 0.24973896
000080 26 47 5a 3e 95 05 6d 3e b5 ed 73 3e dc 60 ff be
       0.21316203 0.2314666 0.23821147 -0.49878585
000090 d4 17 b4 bd 40 50 e0 be d3 73 4f 3e 54 22 b4 be
       -0.08793607 -0.43811226 0.20259027 -0.3518244
0000a0 d5 6f 80 3e f6 ea e3 3e 04 2a eb 3e 48 54 06 bf
       0.2508532 0.44515198 0.45930493 -0.52472353
0000b0 22 77 0c bf 9f 68 f9 3e e1 d1 cf be dd 65 91 3e
       -0.5486928 0.48712632 -0.40589812 0.28398028
0000c0 fd c0 67 3e 5f 14 08 bf
       0.22632213 -0.53156084

weight f4 [25, 50]
000000 00 20 15 ba 00 84 c5 3c 01 ff 04 be 72 6d e4 3d
       -0.00056886673 0.024110794 -0.12987901 0.111536875
000010 c3 5c 86 bd 50 c3 3a 3d 60 eb b5 3c 28 30 f8 bc
       -0.06560662 0.04559642 0.022206962 -0.0302964
000020 c6 e7 80 bd aa 2c d4 bd 82 78 42 bd 27 0f 05 be
       -0.06294207 -0.103600815 -0.047478206 -0.12994061
000030 a2 8c c7 bd 6c c5 57 3d 30 cb 1d 3d b7 58 a1 bd
       -0.097436205 0.05267851 0.038523853 -0.07878249
000040 72 56 be bd bb f9 98 bd 08 40 5c 3d 76 dd 5c bd
       -0.09293832 -0.07469507 0.053772002 -0.05392214
000050 00 cd 90 ba 80 65 c2 3a df 7e 0b be 72 17 1d bd
       -0.0011047423 0.0014831275 -0.13622616 -0.038352437
000060 78 51 9f 3c fa fe d4 3d ae fd aa 3d 00 8d 90 3d
       0.019448027 0.104001954 0.08349167 0.070581436
000070 0a b2 0d be dc 5e 0a be 60 14 82 bd 48 12 99 3c
       -0.13837448 -0.13512748 -0.063515425 0.018685475
000080 03 69 01 be 7c 6e 1a bd 49 83 81 bd e0 c3 8b bb
       -0.12637715 -0.037703022 -0.06323869 -0.0042652935
000090 80 8a d4 bb c0 12 d9 bc 90 7b 88 3c 50 22 51 bc
       -0.006486237 -0.026498199 0.016660482 -0.012764528
0000a0 fe eb 36 bd 25 ca ad bd 00 2b cb bc 7a 17 f1 3d
       -0.044658653 -0.08485822 -0.024800777 0.11772056
0000b0 78 d8 ba bd f0 d0 ad 3d c0 81 b4 bc 91 64 02 3e
       -0.091233194 0.08487117 -0.022034526 0.12733676
0000c0 e0 e4 9f bd 7c 41 8e bd 0e 91 0b 3e 7a 91 72 3d
       -0.07807326 -0.06946084 0.13629553 0.05922077
0000d0 be d1 19 3e 5e 4c 07 3d 03 39 fe bd 60 8e 7d 3c
       0.15021417 0.033031814 -0.12413218 0.015475839
0000e0 9b e0 e4 bd 26 ef 0e 3c be 51 c5 3d 62 73 7f bd
       -0.111756526 0.00872401 0.09634732 -0.062365897
0000f0 57 4e a8 bd 95 9a b2 bc f3 47 7a 3b 48 c2 48 3e
       -0.08218067 -0.021802226 0.0038189858 0.19605362
000100 e5 fc 9e 3d 8d 0e 46 bc af 2d 0b be 0f 89 05 3e
       0.077630796 -0.01208843 -0.13591646 0.13040565
000110 a7 f9 3a 3e c6 f4 ec 3d e8 e8 88 3d 24 2e 65 3d
       0.18259297 0.11570124 0.06685048 0.055952206
000120 c3 31 06 3e 31 d1 92 3d 46 35 85 3e 0f 00 e2 3c
       0.1310492 0.07168806 0.26017207 0.027587919
000130 e3 7f 77 bb 52 52 b4 3d 9f be 71 bd af be 5c 3e
       -0.0037765435 0.08804764 -0.05901968 0.21557115
000140 6c 86 b6 3d 60 cd 8e bb 7f 52 15 bd d5 75 b4 3c
       0.08912358 -0.0043579787 -0.036455628 0.022028843
000150 81 ab 20 bd 74 44 6c bd 92 d4 ef 3d dc 98 45 3d
       -0.03922606 -0.05768247 0.117104664 0.04824148
000160 4a d7 0f 3d 70 91 4d bd 70 84 8a 3e 25 ef bf 3c
       0.035117425 -0.050187528 0.27054167 0.023429463
000170 51 80 cb 3d ac fd 07 3d 56 34 ae bd e8 43 0c 3e
       0.09936584 0.033200905 -0.08506076 0.13697779
000180 96 05 0e be 3d f2 17 3a 50 ef 13 3d fb 47 06 3e
       -0.13869318 0.0005796289 0.036116898 0.13113396
000190 b8 5b 0c bd f4 54 7b 3d 40 67 cc 3d 80 88 91 ba
       -0.034267157 0.061360314 0.09980631 -0.0011103302
0001a0 f0 b0 1b 3d aa 5e e8 3d f3 40 0e be db 89 86 bd
       0.038010538 0.11346181 -0.13891964 -0.065692626
0001b0 1a c4 f8 3d 98 2c ac bd e0 62 fa 3c 8d ce 87 bd
       0.121467784 -0.08406943 0.030564725 -0.06631193
0001c0 80 58 34 3b 40 9c 02 be 90 a6 0f 3d 34 89 24 bd
       0.002751857 -0.12754917 0.035070956 -0.04016991
0001d0 20 8c 8d 3c fc 08 0f 3d 0c a3 ca bd e0 84 76 3d
       0.01727873 0.034920678 -0.0989438 0.060185313
0001e0 28 ee bd 3c e0 8e 8b 3d 80 a3 ce 3b 9c 5e 3c 3d
       0.02318485 0.068143606 0.006306112 0.045988664
0001f0 e4 a5 cc bd 34 52 0b bd c0 e9 55 bc f4 25 60 3d
       -0.099925786 -0.034013942 -0.013056219 0.054723695
000200 86 63 f7 3d 64 6d 49 3d 20 c4 57 bc 16 1c af 3d
       0.120795295 0.04917659 -0.013169318 0.08550279
000210 00 62 5d bb a4 47 b4 bd 5f 9e fc bd 7c 62 73 bd
       -0.0033780336 -0.08802727 -0.123348944 -0.059420094
000220 8a 7c 83 3d a0 89 e6 3c c8 95 29 bd fe 86 e5 3d
       0.06420238 0.028141797 -0.04140261 0.11207388
000230 f0 13 7e bc 68 51 cd bd e0 c8 5d bc ab 0f 10 be
       -0.015507683 -0.10025293 -0.013536662 -0.14068477
000240 e2 85 e9 3d 80 4a c1 bb f8 83 e9 3c 7b c1 84 bd
       0.11402489 -0.0058987737 0.02850531 -0.06482216
000250 b2 75 f7 3d a8 d1 99 3d 06 50 fa bc 83 86 64 bd
       0.120829955 0.07510692 -0.030555736 -0.055792343
000260 71 06 50 bc 13 47 00 be 4e 40 00 be 20 06 0a bd
       -0.012696848 -0.12527113 -0.1252453 -0.033697248
000270 08 93 97 be 1d 61 43 3e f1 40 09 3e e1 19 54 bc
       -0.29604363 0.19080015 0.1340368 -0.012945623
000280 36 c5 1a be c7 f7 09 be f0 c3 ef 3d ac 56 a1 3d
       -0.15114293 -0.13473426 0.11707294 0.078778595
000290 ed cb 64 3d 8c 97 cd bc 60 b2 e1 bc 51 25 97 bd
       0.05585854 -0.025096677 -0.027550876 -0.073801644
0002a0 d0 53 66 3e 3c 5d d2 3d 51 a1 d8 3d d8 81 1f bd
       0.2249291 0.10271689 0.10577644 -0.038942188
0002b0 fc 1d 00 bd 31 00 69 bd c6 1b fe 3d fa 62 82 3e
       -0.031278595 -0.05688495 0.12407641 0.25466138
0002c0 86 87 60 3d f5 54 b4 3d c2 a8 f4 3d 85 07 45 3e
       0.054816745 0.08805267 0.119462505 0.1924115
0002d0 68 0f fc 3d 57 ac b7 3c 54 9f 0b 3d 72 63 f0 3d
       0.12307626 0.022421045 0.034087494 0.11737718
0002e0 9a f7 5f bc 64 ed c9 bc a4 43 23 3d 3b 29 02 3e
       -0.013669873 -0.02464933 0.03985943 0.1271104
0002f0 d7 e1 59 3d b8 37 86 3c 4f c2 3c 3e 68 c5 1a 3e
       0.053193893 0.01638399 0.18433498 0.15114367
000300 2d ec 3e bd cc 84 b1 3d f4 ae ff bd 77 7b 13 bc
       -0.046611954 0.08667907 -0.124845415 -0.009001604
000310 94 82 ac bd 9e 2c 04 3d 8f 1e fc 3d e1 2e 09 3e
       -0.08423343 0.032269113 0.12310516 0.13396789
000320 51 24 03 ba 88 39 d1 3d 28 a0 27 3d 83 71 8c 3c
       -0.0005002665 0.10216051 0.04092422 0.01714397
000330 1a a2 16 be 15 ef ad bd 1f 70 8e bd 58 f7 b4 3d
       -0.14710274 -0.08492867 -0.06954979 0.088362396
000340 4c db 01 3d f8 99 91 ba b6 d3 f3 3d 63 fc 01 be
       0.03170328 -0.0011108508 0.11905615 -0.12693934
000350 e9 43 9c 3c 69 a6 93 bd 34 a3 b5 bc 4d 65 db bd
       0.01907535 -0.072094746 -0.022172548 -0.10712681
000360 50 15 89 bd d0 f9 d1 3c 10 3a bf 3d 63 86 0d 3e
       -0.06693518 0.025631815 0.093372464 0.13820796
000370 75 b1 ea bc aa 4b 93 3d e8 0f 99 3d 29 04 a4 bd
       -0.028649071 0.07192166 0.07473737 -0.08008606
000380 01 69 07 be 86 75 e1 bd 0b 3c 03 3e f4 78 ce bd
       -0.1322365 -0.11008744 0.12815873 -0.10081664
000390 18 d1 a6 bd 32 bf f8 bc 83 89 9f bd 15 74 6c bd
       -0.0814535 -0.030364607 -0.077899 -0.057727892
0003a0 a7 83 09 3e 2d 7a f7 3d df 77 10 bd e6 a7 af 3d
       0.13429128 0.1208385 -0.035270568 0.08576946
0003b0 38 fd 87 bd f0 ab 68 3d 13 94 06 be 48 fa 76 3d
       -0.066400945 0.056804597 -0.13142423 0.06029728
0003c0 28 be 6d 3d 28 1a 82 3d 5d 1e 34 3d a8 60 d8 3d
       0.058042675 0.06352645 0.04397427 0.10565311
0003d0 eb 6d 00 be ef 1a b5 bd b3 d9 05 3e 2a 95 97 3d
       -0.1254193 -0.08843028 0.13071327 0.07401498
0003e0 d3 12 3a bd 8e ad 87 3d 48 1f f3 3d 5f f2 0c 3c
       -0.04542811 0.066249 0.11871201 0.008602708
0003f0 7a 6e b6 3d 33 77 d6 bd 94 78 fe bc 22 4b 9b 3d
       0.089077905 -0.10471954 -0.031063356 0.0758269

bias f4 [25]
000000 f8 1d b6 3c 61 fb 43 bd 40 4a ce 3c a1 32 81 3c
       0.022231087 -0.047847155 0.02518189 0.015771212
000010 32 0e 01 be fd 0d c8 3d 16 c9 13 3e 99 63 8c 3d
       -0.12603071 0.09768293 0.14432177 0.06854934
000020 fe b3 81 3d 72 42 12 be 5b 39 01 3d e9 2e 54 bc
       0.06333159 -0.1428316 0.03154884 -0.012950637
000030 51 3c 08 be af 84 25 3e f0 27 a8 3d 9a fd a3 3d
       -0.13304259 0.16163896 0.082107425 0.08007355
000040 73 35 b3 bd e5 ab 1d 3e 36 70 8c bd 20 97 ba 3c
       -0.08750429 0.15397604 -0.0685734 0.02277714
000050 ae e0 87 bd 68 e0 0c 3d ed 50 9a 3d e4 c5 11 3d
       -0.06634651 0.034393698 0.075349666 0.035589114
000060 21 bc 06 be
       -0.13157703

weight f4 [1, 25]
000000 29 00 2d 3e f6 65 dd 3d fa 0b d9 bd df b4 0e 3e
       0.16894592 0.10810463 -0.105979875 0.13936184
000010 46 c9 36 be 50 e9 20 3e 87 0f 78 3e 2f f9 03 be
       -0.17850217 0.15714002 0.24224673 -0.12888025
000020 23 32 11 be 94 40 3d 3d d6 d6 0e be ca 2e 5d 3e
       -0.14179282 0.046204165 -0.13949141 0.2159988
000030 e9 01 16 3e 79 3a 86 3e 4d c9 43 3e 0f c4 14 be
       0.14649166 0.26216486 0.19119759 -0.14527915
000040 f0 64 8c bd aa 6b 84 3e 77 e8 11 3e 9b 68 33 be
       -0.0685519 0.2586339 0.14248835 -0.17520373
000050 14 08 47 bd d3 5b 15 3e 6e 81 86 3e a0 11 0d bd
       -0.04859169 0.1458581 0.26270622 -0.034440637
000060 8e 0e 07 be
       -0.13189146
