mlruns/259183567906258607/models/m-b9bda24b2d63417ea364ee9db801f453/artifacts/data/model.pth (torch, 12029 bytes, 5 tensors)

weight f4 [50, 3]
00000000: 710a 4bbe 176d c93e 56b5 5cbe 5ee1 57be
00000010: c159 323e 0d45 d0be 007a debc d478 193e
00000020: daed 1cbe 6ae0 c9be f592 d0be 456f c3be
00000030: 8732 a83c 9863 a23e a2cf 083f 2e4a c4be
00000040: 9958 1e3f d888 e53d 1b13 743e a946 2fbe
00000050: 7217 d43e 1ed1 193f d80f b0be 792a d8be
00000060: 40db f93c 82dc a03e e1da e4be 0a74 b8be
00000070: 999a 01bf eee8 f4be f66f c73d 62a5 b23e
00000080: 4072 dabd 4078 09bd 10cf 76be 306c e23e
00000090: 25d0 2d3f a355 c2be 6cba 0abe 38ac 633b
000000a0: 8503 653d ef90 8dbe 4e08 68be eceb 033e
000000b0: 636f a8be 34f8 f4bd 1736 3f3f 1e6e d6be
000000c0: a4ab b33e 9c9f 693e c424 e7bd b8c6 8b3e
000000d0: 925d 0e3f 2888 cb3d 26ed bb3e 885c 133b
000000e0: 203e e0be 7f3b f83e 0ee5 34be 3026 133f
000000f0: 7292 acbe e0eb 413d d06b ffbe 8552 a23e
00000100: 3a44 f0bd e288 5dbe ca67 ddbe 61f8 d0be
00000110: 8c5f 103e 03b9 b1be 77fb 933e 507d bd3e
00000120: ccbd cc3e 87b0 e83e af26 f3be 40b9 22be
00000130: 2036 d8bc 30bd 4c3e 57f3 63be 4696 263e
00000140: e253 853e fbff 16bf 39d7 05bf 5875 b33d
00000150: e2cb a5be 9f70 ebbd dc9b cf3e 9023 e8be
00000160: d045 12bf 5ca5 b4bd 5078 953d 6971 d4be
00000170: fa54 0a3f 8750 053e eb08 7b3e 92ae 073f
00000180: 20b7 ca3e 686a 91be 606e ea3d b933 c9be
00000190: 9b78 0f3f 7c8d 03bf 5bd8 91be 3932 c0be
000001a0: 2c77 563e d81f b0bd a048 8a3c 6023 afbc
000001b0: 50fc 2b3e 88fa 8a3d ace6 e7be 8fb0 0fbf
000001c0: d710 72be a011 c93e 1fde bbbe e4fa 183d
000001d0: 84cd 2e3e 1083 5d3d 92c4 d43e 4870 97bd
000001e0: 80ac 5a3e 248c 193e dca1 b1be e723 e5be
000001f0: 6b22 fabe 9d12 09bf 5727 dfbe e3f9 413f
00000200: 38b1 813e 5a56 b3be 48ac fbbd 40e8 d1bc
00000210: 4c71 f8bd e829 6b3e 8c3b 913e 0225 00be
00000220: 587c 613e d99b efbe c7fa b0be f0a1 29be
00000230: 40ab 0dbf 1cae 7cbe eeb8 ddbe f877 0d3e
00000240: 7aca 26bc b661 97be c24b 8d3e 40e5 d8bd
00000250: ac13 013f 2faf f4be
-0.19828202 0.3934104 -0.21553549 -0.21082065 0.17417051 -0.40677682 -0.027157784 0.14987499
-0.15325108 -0.39429027 -0.4073712 -0.3817083 0.020531906 0.3171661 0.5344182 -0.38337845
0.6185394 0.112077415 0.23835413 -0.17116798 0.41424137 0.6008471 -0.34387088 -0.42219904
0.030500054 0.31418234 -0.4469824 -0.3602603 -0.5062652 -0.4783396 0.09738152 0.34891802
-0.10666323 -0.033561945 -0.24102426 0.44223166 0.6789573 -0.3795596 -0.13547677 0.0034740102
0.05591156 -0.27649638 -0.22659418 0.12882966 -0.3289748 -0.119614035 0.7469191 -0.41880888
0.3509189 0.22814792 -0.11286309 0.27300048 0.55611527 0.09938079 0.36704367 0.0022485573
-0.43797398 0.48482892 -0.17665502 0.57480145 -0.3370548 0.04734409 -0.49886942 0.31703582
-0.11731763 -0.21634248 -0.43243247 -0.40814498 0.14098948 -0.34711465 0.2890279 0.37009668
0.39988554 0.4544718 -0.4749045 -0.1589098 -0.026392996 0.19994044 -0.22260796 0.16268262
0.2604056 -0.58984345 -0.5228153 0.08762616 -0.32382113 -0.1149609 0.405486 -0.45339632
-0.57137775 -0.08820602 0.072983384 -0.41492775 0.54035914 0.13019 0.2451512 0.5300075
0.39592838 -0.28401494 0.114468336 -0.39297274 0.56043404 -0.51387763 -0.2848538 -0.37538317
0.20943898 -0.08599824 0.016880333 -0.021379173 0.16795468 0.06786066 -0.45293176 -0.5612878
-0.23639236 0.3927126 -0.36692902 0.037348643 0.17070585 0.05408007 0.4155622 -0.07394463
0.21354866 0.14994866 -0.346938 -0.44753954 -0.48854384 -0.53544027 -0.435847 0.7577192
0.2533052 -0.3502682 -0.122887194 -0.02562344 -0.12130985 0.22965205 0.28365743 -0.12514117
0.2202009 -0.4679859 -0.34566328 -0.1656568 -0.5533943 -0.24675792 -0.43305153 0.13815296
-0.01018011 -0.29566735 0.2759686 -0.10590601 0.5042064 -0.47789904

bias f4 [50]
00000000: 2753 b73e 78e6 543e 3276 0abf c24d 943e
00000010: f0fd 623e 2432 403e 2b75 c03c 71ec adbe
00000020: 6e35 eabe 5db4 ef3e 1def 9c3e 7c69 bdbe
00000030: bbf0 66be ef43 5d3e 1041 4ebe e73a cf3d
00000040: 5b54 0abf dd1d 0abe f0a4 c33e 9067 643e
00000050: 75e1 0bbf c123 ae3d a3a5 d33d 5b9a 323e
00000060: a217 a63e 80e0 4cbc af5d 983e 42b2 233e
00000070: caff 593e 7800 6c3e 806f 24bd a905 6e3e
00000080: 23ae 00bf 7d9e 553e 5c42 1dbe c494 0ebe
00000090: 864a b3be afba be3e 382b 5c3e 1b15 d2be
000000a0: e835 aabe 0836 a23e 3ac7 edbc 6af9 a0be
000000b0: 1111 12bf a33f 9cbe 2043 fbbc f051 11bf
000000c0: 89b3 8c3e 00a8 0ebf
0.35805628 0.20791042 -0.540866 0.28965575 0.22167182 0.18769127 0.02349337 -0.33969453
-0.4574389 0.46817294 0.3065118 -0.3699454 -0.22552769 0.21607946 -0.20142007 0.101186566
-0.54034966 -0.13487954 0.38211775 0.22305131 -0.54640895 0.08502913 0.10334327 0.17441694
0.32439905 -0.012504697 0.29758975 0.15985969 0.21288982 0.23047054 -0.040145397 0.23244347
-0.5026571 0.2086124 -0.15357345 -0.13923937 -0.35017794 0.37251803 0.21500862 -0.41031727
-0.33244252 0.31681848 -0.029025663 -0.31440288 -0.5705729 -0.305173 -0.030671656 -0.5676565
0.27480724 -0.557251

weight f4 [25, 50]
00000000: 863a eabd ae93 ccbd c0fc a0bd f0f9 d53d
00000010: 3845 123d 1cdb d13d d290 d13d b58c 093e
00000020: da27 52bd 0a41 a03d 5324 9dbd d9f9 fabd
00000030: 0413 0cbd 5ce9 70bd 3ab2 09bd 8344 093e
00000040: c805 37bd 0aed f23d f805 c93d bcf1 fcbc
00000050: d862 df3c b80a a93d 7451 34bd a061 99bd
00000060: 1652 7ebd f0fa d13d c4a9 5bbd 6a0d 823d
00000070: 9c59 293d 5cba c83d 4a38 f13d db0c 89bd
00000080: 20a2 143d c8d6 60bd f80c 313d 0400 02bd
00000090: c892 a9bd c840 cbbd c052 083b b1e8 063e
000000a0: 7a7c bcbd b47b 7bbd 20d4 be3c 1028 1f3c
000000b0: 20aa ba3d 2a87 b7bd 00d6 faba e1f9 d3bd
000000c0: 0a38 00be 28a1 b13c 813c 183e af26 093d
000000d0: d03c 38bc 6b11 3b3e f82b 1e3e 35eb 943e
000000e0: 2cf8 edbd e466 073e 88eb 3bbd c0f4 07be
000000f0: b433 bc3d ce54 40bd ee59 48be e422 bf3d
00000100: 7a7f d83d 0162 743e 11fb 023e a290 a53e
00000110: 6c9d bd3d ff3f b5bc 0e0f 06bd e96d 9c3c
00000120: 8159 e93e 54b1 9c3e 746b 30bd 80e0 bc3b
00000130: c1c1 333e f76d 363e 71e8 5c3e a279 1d3d
00000140: cf59 083e a733 83bd dc06 0b3d cdd3 ba3d
00000150: 607a be3d b4fb e1bc 1c93 88bd 6882 333e
00000160: 5e71 2f3e 2e97 39bd 0a99 c63d 4cf4 333e
00000170: e056 93be f428 adbd 6223 0cbe aedb ab3d
00000180: b39a d5bd 26f1 fa3d 076f 033b 6071 8d3b
00000190: ac5f b9bd 50ae cd3d 7038 6d3d 5c13 223d
000001a0: d052 33bc bde5 06be e437 e5bc 3cea 68bd
000001b0: ec8a be3d ccd3 f1bc 18ed c53c a931 d3bd
000001c0: 0ac4 b33d 7836 6b3d fa07 77bd aefa f13d
000001d0: 0604 ccbd 8c99 063d 965e 8d3d 598e 90bd
000001e0: 939e 073e 403d 693b 2670 06be 3c11 b2bd
000001f0: 0070 a6bc 4230 efbd 0819 de3c 60e7 abbb
00000200: 08fc debc 3406 913d 928c a8bd e8c4 c2bd
00000210: 740d 553d 1c08 053d 90a3 97bd d441 7fbd
00000220: 1e23 1ebd 4241 45bd 1bd4 c2bd f06f 1dbd
00000230: 60d8 88bb 84af 9cbc 6834 4f3d dc27 293d
00000240: 8381 093e e0dc cc3c bb61 8cbd fb2f a8bd
00000250: a74b 083e 5047 de3d 71a0 e6bd 0e18 7fbd
00000260: 086e f3bc 44fb 193d b0d7 f53c f489 c73d
00000270: 2754 05be 0429 183d 1646 55bd a0eb b73c
00000280: 52a7 eb3d 8035 773b 409b ec3c 5078 fdbd
00000290: 4237 2ebd 5055 66bc f9d7 eabd ecda 663d
000002a0: c845 38bd 604f 86bc 2053 06be 50f0 633c
000002b0: f0e5 2b3c 801b dc3c 8e21 40bd 5eb4 f23d
000002c0: 94c8 bc3d 307b 303d c088 c03b c000 10be
000002d0: 41ca 0f3e 8b89 01be 5258 ee3d 86fe a93d
000002e0: e46a 023d 7c3e fcbc 287c dd3d 642f 2c3d
000002f0: 4d4f 003e b4b0 513d 601f b93b 2858 d53d
00000300: dc6d f8bc 98e3 c83c 7465 1a3d fe2d 873d
00000310: 76a4 de3d d05c d4bd 00f7 d33b f339 e0bd
00000320: b0b4 26bd 5a7a 9f3c 72ae c43d 9144 a23d
00000330: d4e7 1f3d 9557 8dbc 418b 8c3c 59f6 02be
00000340: d0e2 c63c bc39 1bbb 2231 103b 3ed8 d83d
00000350: 8f18 ddbd d742 9f3d 3f2e 073e fa38 2fbc
00000360: e402 1b3d baab a43d 4f15 fa3c bf34 0abd
00000370: fa6d dc3d fd12 6f3c 294b d03d 67fb 88bd
00000380: c1e8 eb3c 2326 90bd 80c1 a83d e580 0fbe
00000390: e12a 22bb acfb 613d 846d 923d 5dc4 1fbe
000003a0: 625e acbd e019 11be f46a 77bd 2c50 cbbd
000003b0: de2e fc3d b2d2 7f3d 76b0 a4bc d032 26bd
000003c0: e0cb 3d3d f2cb dc3a bf25 6b3d 148f dfbd
000003d0: add3 053e 6765 04be f05c 103c 643d db3d
000003e0: 49ac 073d d07b 413c 2f2f 183d d8b3 9ebd
000003f0: b6ba cdbd 10f1 a43c 35ec d13d 9120 273d
-0.11436944 -0.09989105 -0.07860708 0.104480624 0.035710543 0.1024687 0.102327004 0.13432582
-0.051307537 0.07824905 -0.07672944 -0.12254686 -0.034197822 -0.0588163 -0.033617236 0.13405041
-0.044683248 0.11861618 0.098155916 -0.030876987 0.027268812 0.082539976 -0.044022992 -0.074893236
-0.062090002 0.10252941 -0.053628698 0.06350215 0.041345224 0.0980117 0.117783144 -0.06691905
0.036287427 -0.05489233 0.04322526 -0.031738296 -0.082799494 -0.099244654 0.0020801276 0.13174702
-0.092034295 -0.06139727 0.023294508 0.0097141415 0.0911448 -0.089613274 -0.0019137263 -0.10350395
-0.12521377 0.02168329 0.1486683 0.033484157 -0.011244968 0.18268363 0.1544646 0.290857
-0.11619601 0.13222843 -0.045878917 -0.13276958 0.09189549 -0.046955876 -0.19565555 0.09332827
0.10571189 0.2386551 0.12791087 0.3233691 0.092585415 -0.022125242 -0.0327292 0.019095378
0.455761 0.3060404 -0.043071225 0.005764067 0.1755438 0.17815386 0.21573044 0.038446076
0.1331551 -0.06406336 0.03394209 0.09122429 0.09300685 -0.027585842 -0.06668684 0.17530215
0.1713309 -0.04531019 0.09697159 0.1757366 -0.28777218 -0.08455077 -0.13685372 0.0839151
-0.10429897 0.12253027 0.002005519 0.004316494 -0.09051451 0.10043013 0.05791515 0.039569244
-0.010945037 -0.13173576 -0.027980752 -0.05686401 0.09303841 -0.029519938 0.024160907 -0.10312206
0.08777626 0.057424992 -0.06031034 0.118153915 -0.09961705 0.032861277 0.069028065 -0.07058401
0.13244085 0.0035589486 -0.13128719 -0.086946934 -0.020317078 -0.11679126 0.027111545 -0.005246088
-0.027219787 0.07081261 -0.08229937 -0.09510213 0.052014783 0.032478437 -0.07404244 -0.062318638
-0.03860771 -0.048157938 -0.09513112 -0.03843683 -0.0041761845 -0.019126661 0.050587088 0.04129778
0.13428311 0.025007665 -0.06854578 -0.082122765 0.13310109 0.108534455 -0.112610705 -0.0622788
-0.029715553 0.03759314 0.030010074 0.09743109 -0.13020383 0.03714849 -0.052068792 0.022451222
0.11506523 0.0037721097 0.028882623 -0.123764634 -0.042533167 -0.014058426 -0.11466975 0.056361124
-0.044988424 -0.01639527 -0.13117647 0.013912275 0.010491833 0.026868582 -0.046907 0.118508086
0.09217945 0.04308623 0.005875677 -0.14062786 0.14041997 -0.12650125 0.116379395 0.083004996
0.03184022 -0.030791514 0.108146966 0.042037383 0.12530251 0.051193908 0.005649492 0.10417205
-0.030325823 0.024522588 0.03769441 0.06600569 0.10871212 -0.10369265 0.0064686537 -0.10948553
-0.04069966 0.019467521 0.09603585 0.07923234 0.039039448 -0.017253676 0.017156245 -0.12789287
0.024278075 -0.0023685535 0.0022001942 0.1058812 -0.107957 0.077764206 0.13201235 -0.010694737
0.037844554 0.08040567 0.030527739 -0.03374171 0.10763164 0.0145919295 0.10170586 -0.06688576
0.02879751 -0.07038524 0.08240032 -0.14014013 -0.0024744796 0.055171654 0.07149795 -0.1560225
-0.084164396 -0.14170027 -0.060404733 -0.09927401 0.12313627 0.062456794 -0.020103674 -0.040575802
0.04633701 0.0016845448 0.057409044 -0.10915962 0.13069029 -0.12929307 0.0088112205 0.10705069
0.03312329 0.011809304 0.037154373 -0.07749146 -0.10045378 0.020134479 0.10250131 0.040802542

bias f4 [25]
00000000: 5cda 0bbd a1ab c23d 0c85 9ebd 9b76 b0bd
00000010: 234b 95bd 06ba c63d 6172 a53c 406d 493b
00000020: 4aa0 253d d900 09bd 8868 07be 854a b6bd
00000030: 3f84 3e3d 7751 e5bd 6766 df3d 54d7 afbd
00000040: 20cf 9bbd e767 913b 7243 91bd 0ac0 563d
00000050: cf7a c23d 263a b1bd 70e5 ad3c 7733 0ebe
00000060: f31a 83bd
-0.03414379 0.09505392 -0.077402204 -0.08616372 -0.07289722 0.0970345 0.020196142 0.0030735284
0.040436067 -0.033448074 -0.1322347 -0.08900932 0.04651284 -0.11197179 0.109082036 -0.085859925
-0.07607865 0.004437435 -0.07092942 0.052429236 0.0949608 -0.08653669 0.021227568 -0.1388682
-0.064016245

weight f4 [1, 25]
00000000: 3301 4abe 8009 163e d656 b13d c06c 433d
00000010: 8a27 20be 7bea 03be e1f0 dabc 4d5a 003e
00000020: 75a8 84bd 4879 74bd 909d e5bc 7536 7b3e
00000030: 4d8f 423b d873 17bd 8131 003e e21e b13d
00000040: 2a3b 603e df01 1cbe f55c 1b3e 0aa3 14bd
00000050: e741 513e 9bb9 14be c0e7 88be a48f 613d
00000060: 2b4d 543e
-0.1972702 0.14652061 0.08659141 0.047711134 -0.15640083 -0.12882416 -0.026726188 0.12534447
-0.06477443 -0.059685975 -0.028029233 0.24532492 0.0029687465 -0.03697571 0.12518884 0.086484686
0.2189757 -0.15235089 0.15172179 -0.0362883 0.20435296 -0.14523928 -0.2673931 0.055068627
0.20732562
