mlruns/259183567906258607/models/m-91844e1e96c143188ece50320796b983/artifacts/data/model.pth (torch, 12029 bytes, 5 tensors)

weight f4 [50, 3]
00000000: 1912 a2bd 6b79 5bbe a86c f9be 64c8 61be
00000010: dabe 9a3e 0ccc e93e 48af 043f c408 d9be
00000020: 3ca0 b03e a4f7 903d 49d1 ee3e 42ad 8b3e
00000030: c2c6 4cbe 44e3 1f3f 0ee7 8c3e 0068 31bf
00000040: a951 d83e 904b b93d d0a4 85be 398c 353d
00000050: 5c34 a9be 59dd 12bf e084 b73e 0c1a 023f
00000060: 803a 4a3c 0679 ebbe 8a93 c8be 1c0d ebbe
00000070: f10f 6d3d a86b db3e b78d c03d 713c b33e
00000080: 20d9 48bd 6c1c 88be 4440 ed3e 238c 10bf
00000090: afbc 263f 19ba 23bf f869 a03e 464d f53d
000000a0: ed6c dc3e 93b5 babe 30a6 7a3d 70c0 493d
000000b0: a0d0 9bbe 9782 2bbf 8171 acbe 14ff a1be
000000c0: 4132 a73b cd12 2f3f 721f 0ebf 1487 813e
000000d0: 4822 63be f9bf 91be 65d8 45be 1b16 203f
000000e0: 6a49 97be b2f7 113f a7be 313f 64a6 7e3e
000000f0: d62f 0dbf 957c f2be eb98 cdbe 25fd fcbe
00000100: f9d9 293f 727a 80be cdc0 993e 91f5 cbbe
00000110: a8ce 813e ea6c 02bf 9b11 f8be 447f 5c3e
00000120: 7dc6 19be c756 77bd e8cc da3e 4503 c33e
00000130: 88b1 273e 7859 363e ba07 a13e b6c9 48be
00000140: 2e42 7bbe 1497 743e 44ea 083e 7601 46be
00000150: 9afa 78be 71c9 0abf 2c0c 013f d5b0 08bf
00000160: 7ae7 b73e 4c7a 2b3e a19a d4be d6c1 c9be
00000170: c191 febe f193 11bf fddd a13e 26d8 b63e
00000180: 38cb 903d eeb9 853e 8c4e 363e ba83 d63d
00000190: cdc7 8e3e 40fe adbd b8fe d63d 499a e1be
000001a0: 1c6a dcbe 03cc cfbe f1f3 fe3e a0c2 97bd
000001b0: a18c e2bc 7986 f83b c2d9 ad3e c052 f8bc
000001c0: dff5 0c3f f0c4 f8be 9bd7 b3be 2c63 923e
000001d0: 70c9 2cbe c56a d53e e992 f83e 6e45 04bf
000001e0: 47f1 b33e 2a37 b7be 008f 163b b489 153e
000001f0: b0ba e23d 405f 643d 731a 8cbe 7824 943d
00000200: 3c16 383e 3753 ef3e ab5f e73e 688e ba3d
00000210: 8cb7 073f 5aa5 13be 81e3 8ebe 7ed3 fdbe
00000220: ca6e 4c3e 0443 383e 7eec bebe b617 c2bc
00000230: 3eae b03e a85c 11be a9e9 c3be 8044 b83e
00000240: ac10 033c f408 38bf c493 e3be 0f2c bc3e
00000250: b076 b5be 10f5 78bd
-0.07913608 -0.21433036 -0.4871571 -0.22049099 0.30223733 0.45663488 0.5182996 -0.423895
0.3449725 0.07078484 0.46644047 0.27280623 -0.19997695 0.62456155 0.2752003 -0.69299316
0.42249802 0.090476155 -0.26102304 0.04432318 -0.3304776 -0.57369 0.35843563 0.50820994
0.012343049 -0.4599077 -0.39175063 -0.4590844 0.05787653 0.42855573 0.0940203 0.3500705
-0.04903519 -0.26584184 0.46338093 -0.5646383 0.6513166 -0.6395584 0.31330848 0.11977629
0.43051854 -0.36466655 0.061193645 0.04925579 -0.30432606 -0.6699614 -0.33680347 -0.31639922
0.0051024263 0.6838806 -0.5551673 0.2529837 -0.22181046 -0.28466776 -0.19320829 0.6253373
-0.29548198 0.5701858 0.6943154 0.2486816 -0.55151117 -0.47360674 -0.4015573 -0.49411884
0.66348225 -0.25093418 0.30029908 -0.3983579 0.2535298 -0.5094744 -0.48450932 0.21532923
-0.15017124 -0.06038549 0.42734456 0.38088432 0.16376317 0.17807567 0.31451207 -0.19608197
-0.24536964 0.23885757 0.13370615 -0.19336495 -0.24314347 -0.54213625 0.504092 -0.53394824
0.3591879 0.16745871 -0.41524222 -0.39405698 -0.49720576 -0.56866366 0.31614676 0.35711783
0.07070011 0.26118416 0.17803401 0.104743436 0.2788681 -0.0849576 0.104978025 -0.44063023
-0.43049705 -0.40585336 0.49795488 -0.07410169 -0.027654948 0.0075843898 0.339552 -0.030312896
0.5506267 -0.4858775 -0.3512543 0.28591287 -0.16873717 0.4168302 0.48549584 -0.5166844
0.35145018 -0.35784274 0.0022973418 0.14603311 0.11070764 0.0557549 -0.2736393 0.07233518
0.17977232 0.46743175 0.45190176 0.09109193 0.53014445 -0.14418545 -0.27907947 -0.49575418
0.19964138 0.17994314 -0.37289804 -0.023692947 0.34507936 -0.14195502 -0.38264206 0.3598976
0.00799958 -0.7188866 -0.44448674 0.36752364 -0.35442114 -0.060780585

bias f4 [50]
00000000: 3218 b93e 9acb 02bf 2bf6 813e f3b8 a93e
00000010: 857e e93e cf86 c03e a059 84bb 7b23 cabe
00000020: 4203 3fbe 8390 053f da1c c8bd f449 6c3e
00000030: c17d 9a3e 9391 06be 2fea c4be 4488 133e
00000040: 8c9f 93bd 3a72 f3be 9062 ea3e 8505 e6be
00000050: 7ada 38be 62f8 903e 7e50 27bb 7f0b 08bf
00000060: c895 083f b181 ec3e d2f6 0bbf d673 e9be
00000070: 50f3 fabe a4e9 9fbd 5af1 9d3e 27e4 bc3e
00000080: 5bf7 07bf 9849 c63e 6a58 bbbe 59fd f23e
00000090: 5d74 553e 12f7 39bd 461a 82be 335b ea3e
000000a0: be88 333c bc53 0ebf 807c afbe 8f54 5a3e
000000b0: 9983 98be 9c14 8a3e 429d 6b3e 8cc2 bdbe
000000c0: 8a1b 803e 0f19 e83e
0.36151272 -0.5109192 0.25383124 0.33148918 0.4560434 0.3760285 -0.0040390044 -0.39480194
-0.18653587 0.5217363 -0.09771128 0.23075086 0.30174068 -0.1314147 -0.38459918 0.1440745
-0.072081655 -0.47548085 0.45778322 -0.44926086 -0.18052092 0.283145 -0.0025530155 -0.5314254
0.5335355 0.46192697 -0.5467349 -0.45596188 -0.49013758 -0.07808235 0.308482 0.36892816
-0.5311181 0.38728023 -0.36590892 0.47458914 0.2084517 -0.04540164 -0.2541067 0.45772704
0.010957895 -0.5559652 -0.34274673 0.21321319 -0.297879 0.2696885 0.23009208 -0.3706249
0.2502101 0.45331618

weight f4 [25, 50]
00000000: 3e15 f5bd 82f0 73bd af5c eb3d b7b4 b3bc
00000010: af62 04be 2c94 6b3d 31a6 05be e0bd 723d
00000020: 5bcb 003e d864 133c 9be9 f6bc 974c 30bd
00000030: 47ed 243d 6895 4bbd 4ce0 4dbd e089 283d
00000040: 7b7e ecbd 14a6 0cbe 5840 563c ee0f f33d
00000050: 8a65 58bd 3a04 da3d 63a3 08be b29b f43d
00000060: 5a76 46bd 3eb7 033e e8ea ac3c 44e1 e2bd
00000070: 1fbf 0ebe f2f6 86bd 38f8 f03c afca 973c
00000080: 368c e13d 026a 6d3c 0e41 cf3d 3dbe ebbc
00000090: 20a7 07be 5ff1 dcbc c09c c13c c97b 0dbd
000000a0: 11bd b3bd b4f5 77bd 56b7 8ebd 87af bb3d
000000b0: 30ac cbbd 9b00 183d 7ae1 153d e077 12bc
000000c0: 585f 9abc bc1f ecbd 3ad2 d63d 6fc1 86bd
000000d0: aa9e a53d 01fe bbbc 660c e1bd 9a35 233d
000000e0: d050 c5bd b98b 0f3e 3cdc 733d 1956 0e3d
000000f0: 4c29 743d 1f65 063e 4605 8abd 1691 c63d
00000100: bad3 95bd c859 5b3d 544c 8dbc 8303 93bd
00000110: 4e08 18bd 2467 eebd 4ca8 dc3d 259f b83d
00000120: 02d0 ff3d 0571 0bbe 35de 783d 7071 c0bc
00000130: 880e cc3d 41a9 043e e314 95bd f871 4b3d
00000140: d210 08be c90e 11bd 40d9 793c 644c f8bd
00000150: 6443 233d abb1 bebd 4192 9cbd 6e91 033e
00000160: feb5 8ebd 129a c1bd 5cf4 353d e0af e43b
00000170: 15da 82bd 0517 a03d ae74 bc3d 0939 963d
00000180: 3fdb be3d 0e35 803d 43e7 1d3d 92c3 eebd
00000190: 382f 0dbd 289f e83c a866 343d 1ee2 f53d
000001a0: 967e d63d 4830 823c 98db ca3d c00f 4f3b
000001b0: acdc dabc e8f4 d03d a0e1 c5bd 0f48 9cbd
000001c0: 8881 0ebd db32 91bd 7c9a 913d 0660 8ebd
000001d0: 68a7 903d c8f5 cf3d 0c20 04be 563b f63d
000001e0: 38cd 83bd 881b 2dbd 4066 cabb b8f6 da3d
000001f0: e42a 2a3d ac81 fabc e463 a23d a03c df3b
00000200: e0d5 de3b c81a c6bd 5094 4dbc 6cb6 aebc
00000210: b491 733d 8c48 c8bd bfc4 0dbe a34f 0fbe
00000220: 1ef4 d33d 4800 6a3d 808a 72bd caf1 cabd
00000230: 32bc 81bd 7c09 c63d 4873 cd3c c2da 03be
00000240: f09b ecbc fa92 49bd 7467 053d 10e0 6c3c
00000250: 0a35 9b3d 5947 08be 2afa 063e 4082 593c
00000260: a3c4 313e 163d e6bd 9c46 ddbd 0b3a 68be
00000270: 7c78 f13d e50f c1bd 668a a0bd 86e9 cfbd
00000280: bd5e adbe 87c2 1bbe b9af 233e 76bf c5be
00000290: 00c4 cc3a 596d 7dbe f5b6 c5be a063 173c
000002a0: 9a97 bbbd 7f72 cabe 088f 9a3d e755 1cbe
000002b0: b29f 5e3e 7597 8abd 6444 063e babc 403c
000002c0: 9267 a3bd 40dd b03d eaa5 d83d 4baf f9bd
000002d0: 15ac 5cbc 66a7 15bd c45b 803d 734e 103c
000002e0: d821 2f3d dfb4 503d 2a37 53bd 1892 edbd
000002f0: ac87 6dbd 3445 d93d b7de 513e c131 d9bd
00000300: 2051 ed3c 9a5f 22bb dcac 4a3c 8c7d f6bd
00000310: 3cac 593d 589f 53bd 7d61 443e 64ec d53d
00000320: f7c5 273b 04c5 513d ab39 a2bd e668 da3d
00000330: 632e 303e cff1 513d 49a0 90bd 8050 fd3b
00000340: 206d c53b c12a 383e 29ec 543e ddfb 303e
00000350: 4bc7 0abe 3175 7c3e a429 403d 73d2 653e
00000360: eb94 c23c f812 05be 58c4 1e3e b6e9 d53d
00000370: 70d6 20bd 541f 983c a965 a4be a0c0 71bd
00000380: 19d5 d23c 0e41 203d 1c86 febd d85f 563d
00000390: 4625 98bd 507f 8dbc 7731 9c3e 59f0 333e
000003a0: e8fc 82bd 967b 9c3d 6c98 97bc 40fb 5fbd
000003b0: a6b0 f93d 1dce 2a3e 72bf 05be 021f 0cbe
000003c0: 3f7b 81be 9e0a c0bd aae1 a33d 5c83 11be
000003d0: 80ca 8e3d baf7 1b3d 983f 043e 9a39 8a3d
000003e0: 6c56 0ebd f46b 1bbd 126e 893d 5017 b93c
000003f0: 111f 8ebd ebe1 fcbd 1ecb db3d 70ae b53c
-0.11966942 -0.059555538 0.11492287 -0.021936757 -0.1292827 0.057514355 -0.13051678 0.05926311
0.12577574 0.008996211 -0.030140689 -0.04304179 0.040265348 -0.04970303 -0.050262734 0.041147113
-0.11547562 -0.13735229 0.013076864 0.11868273 -0.05283121 0.106453374 -0.13343577 0.11943759
-0.048452713 0.1286287 0.021108106 -0.11078122 -0.13940094 -0.0659007 0.029415235 0.018529264
0.11013071 0.014490606 0.1011983 -0.028777236 -0.13247347 -0.026970563 0.023634315 -0.03454188
-0.08776296 -0.060537055 -0.06968562 0.091643386 -0.099449515 0.037109952 0.036591984 -0.008939713
-0.018844292 -0.1152949 0.10489316 -0.06579863 0.080869034 -0.022948267 -0.10988693 0.03984604
-0.096345544 0.14018144 0.059536204 0.034750078 0.059609696 0.13124512 -0.06739287 0.09695642
-0.07315774 0.05355242 -0.01724831 -0.07178404 -0.037117295 -0.11640766 0.107742876 0.090147294
0.12490846 -0.13617332 0.06075879 -0.023491591 0.09963709 0.1295519 -0.072793745 0.049669236
-0.13287666 -0.03541449 0.01524955 -0.12123945 0.03985919 -0.09311231 -0.07645083 0.12848446
-0.06968306 -0.09453215 0.044422492 0.0069789737 -0.06389252 0.078168906 0.092019424 0.07335097
0.093191616 0.062601194 0.038550626 -0.11658396 -0.03446886 0.028396204 0.044043213 0.12006019
0.10473363 0.015892163 0.099051654 0.003159508 -0.026716553 0.10202962 -0.09662175 -0.076309316
-0.0347915 -0.07089778 0.07109544 -0.06951909 0.0706318 0.10154301 -0.1290285 0.12023036
-0.06435627 -0.042262584 -0.00617674 0.10691589 0.04154481 -0.03057941 0.07929209 0.006812647
0.006800398 -0.09673077 -0.0125475675 -0.02132722 0.059465125 -0.09779462 -0.13844584 -0.13995223
0.10349296 0.057129174 -0.059214115 -0.09909399 -0.063347235 0.09669778 0.025079384 -0.12876418
-0.02888295 -0.049212433 0.032569364 0.014457718 0.07578476 -0.13308467 0.13181368 0.013275683
0.17360167 -0.1124212 -0.10804483 -0.22678392 0.11790559 -0.0942686 -0.078388974 -0.10151963
-0.33861342 -0.15210925 0.15985002 -0.38622636 0.0015622377 -0.24748744 -0.38616148 0.009240061
-0.09159775 -0.3954048 0.07546812 -0.15267144 0.21740606 -0.067671694 0.13112026 0.011763746
-0.07978739 0.0863595 0.105785206 -0.121916376 -0.013468762 -0.036536597 0.06267503 0.008807766
0.042756885 0.050953742 -0.05156628 -0.11600131 -0.057990715 0.106089026 0.20495115 -0.10605193
0.028969347 -0.0024776221 0.012370314 -0.12035665 0.05314277 -0.051665634 0.19177814 0.104454786
0.0025600174 0.05121328 -0.079211555 0.10664539 0.17205195 0.051255997 -0.07061822 0.0077305436
0.0060249716 0.1798506 0.20793213 0.17283578 -0.13552587 0.2465408 0.04691471 0.22443561
0.02375265 -0.12995517 0.15504587 0.104449674 -0.039267004 0.018569626 -0.3210881 -0.059021592
0.025736379 0.03912454 -0.12427923 0.052337497 -0.07428984 -0.017272621 0.3050649 0.17572154
-0.06395894 0.0764076 -0.018505298 -0.05468297 0.12191896 0.16680188 -0.13061312 -0.13683704
-0.25289342 -0.09377025 0.080020264 -0.14210266 0.069722176 0.038078047 0.12914884 0.06749268
-0.034750387 -0.03794475 0.06710447 0.022594124 -0.06939519 -0.12347778 0.10732101 0.022177905

bias f4 [25]
00000000: 4088 5ebd 27db 053d 7e27 ba3d 265f b83c
00000010: 380a ef3d 7016 5abc f312 fa3c 4c92 b4bc
00000020: f910 b5bd d920 f63a 774a 1e3e 5597 ca3d
00000030: 2e07 5abd 9602 f83d d0e3 bdbd 28fd ad3d
00000040: 3cd3 00bd 89c7 c5bd 42e1 003e a704 8bbd
00000050: 30de 1ebd 2e93 7b3c 6838 a9bc 3d25 7b3d
00000060: 7ed0 14bd
-0.054329157 0.032679703 0.09089564 0.022506308 0.11671871 -0.013311014 0.030526614 -0.022042416
-0.08841128 0.00187781 0.15458094 0.098921455 -0.053229503 0.12109868 -0.092719674 0.08495551
-0.03145145 -0.09657199 0.12585929 -0.06787997 -0.038786113 0.015354915 -0.02065678 0.06131481
-0.036331646

weight f4 [1, 25]
00000000: dd36 30be 0f7a f8bc 8965 383e c089 b7be
00000010: d9d3 3a3e c087 bf3b 7b54 483d cdaf 3e3e
00000020: cfa2 953d 4d1e 95bd ff60 1d3e b954 a63d
00000030: 6210 ed3d a29e 8abd b4a6 693e 4a1b 193e
00000040: 3e15 0abe 5066 183c bb02 623e f3d5 d73d
00000050: 1a0a c7be 0c72 2a3e e2c5 d93d 7c63 93bd
00000060: 3824 28be
-0.17208429 -0.03033164 0.18007483 -0.35847282 0.18244876 0.00584504 0.04890869 0.1862175
0.07306444 -0.0728117 0.15369032 0.08121628 0.115753904 -0.06768538 0.22817498 0.14951816
-0.13484666 0.009301737 0.22071354 0.105388544 -0.38874894 0.16645068 0.10633446 -0.071967095
-0.16420066
