mlruns/259183567906258607/models/m-41fcc9b7cdab4f90bf85e326d7ed0ebd/artifacts/data/model.pth (torch, 133029 bytes, 9 tensors)

weight_ih_l0 f4 [200, 3]
0	0xbdac013d	-0.08398674
1	0x3e127843	0.14303689
2	0xbdc4e01c	-0.09613058
3	0x3e096b9b	0.13419954
4	0x3e50f47d	0.20405765
5	0xbdfa9637	-0.122356825
6	0xbcd539cd	-0.026028538
7	0xbdaec552	-0.085337296
8	0xbb80d040	-0.0039310753
9	0xbdac3d7e	-0.08410166
10	0x3d92651e	0.07148193
11	0x3bdbe380	0.0067104697
12	0x3e2fce8c	0.17168635
13	0x3c37d886	0.011221057
14	0x3c7fddf0	0.015616879
15	0x3c85e88d	0.01634624
16	0xbc37b122	-0.011211665
17	0x3c491a10	0.01227428
18	0xbd89fbd5	-0.06737486
19	0xbd74cce5	-0.059765715
20	0x3d424820	0.047432065
21	0x3e308c0f	0.17240928
22	0xbd83e8d6	-0.06440894
23	0x3d0eec64	0.03489341
24	0xbd483977	-0.048882928
25	0x3dbd1a52	0.09233536
26	0xbdb33626	-0.08750562
27	0x3dac6f86	0.08419709
28	0x3e03e4ad	0.12880202
29	0x3d8b420e	0.06799708
30	0x3e228736	0.15871891
31	0x3d881155	0.06643931
32	0xbdba0000	-0.09082031
33	0x3e1fb770	0.1559732
34	0x3def5fc8	0.11688191
35	0x3da424c0	0.08014822
36	0x3e10ea56	0.14151892
37	0xbdcb883a	-0.099380925
38	0x3d00b208	0.031419784
39	0xbd82f293	-0.063939236
40	0x3d8d02fa	0.06885333
41	0x3d35f6d4	0.044424847
42	0x3e0cb928	0.13742507
43	0x3e1bd780	0.15218925
44	0xbdeffb0f	-0.117178075
45	0x3e4a86cc	0.19777983
46	0x3e6bfaf8	0.23044956
47	0xbdf4894a	-0.11940248
48	0x3dcdcb1d	0.100485064
49	0x3d88a703	0.0667248
50	0xbd1f3872	-0.03887219
51	0x3dfb545e	0.12271951
52	0xbe1688df	-0.1470065
53	0x3ca630a0	0.020286858
54	0x3e2d4e3a	0.16924372
55	0x3dabf6a6	0.08396654
56	0xbc06ef70	-0.008235797
57	0x3de645b7	0.11243766
58	0xbd904996	-0.070452854
59	0xbc834328	-0.016023234
60	0x3e1ecb33	0.15507202
61	0x3d459eed	0.048247267
62	0x3d277e08	0.040891677
63	0x3d5027cb	0.0508192
64	0x3dc769b3	0.097369574
65	0xbdfb69b8	-0.122760236
66	0x3dba3003	0.09091189
67	0xbcdce8fc	-0.026966564
68	0xbc966200	-0.018357277
69	0xbd1c4cb6	-0.038159095
70	0x3da5ae00	0.080898285
71	0xbd0d6c1e	-0.034526937
72	0x3d20518f	0.03914028
73	0x3dc5a844	0.09651235
74	0x3db62442	0.088936344
75	0xbcc4c543	-0.024019843
76	0x3e0fc8bc	0.14041418
77	0x3d5d04d4	0.053959683
78	0x3d982ae1	0.074300535
79	0x3e12ce96	0.14336619
80	0xbd1b07f6	-0.03784939
81	0x3ddc8436	0.10767405
82	0x3e0a510c	0.1350748
83	0xbe0ed26f	-0.13947462
84	0xbe93df6c	-0.28881395
85	0xbd3b61ce	-0.04574757
86	0x3c6995b0	0.01425688
87	0x3c70b4ab	0.014691512
88	0x3cf4b038	0.029869184
89	0xbc8c30c8	-0.017113104
90	0xbd037562	-0.032094367
91	0xbda5cb2b	-0.08095392
92	0x3d721b20	0.0591079
93	0x3e4944f7	0.19655214
94	0x3db931e7	0.09042721
95	0xbd0f9fb2	-0.035064407
96	0x3d9d34ac	0.07676062
97	0xbe195ff4	-0.1497801
98	0x3dedad8a	0.116053656
99	0x3e505b9c	0.20347446
100	0xbd9ca486	-0.07648568
101	0xbd0e0b64	-0.03467883
102	0x3eaa3a0d	0.33247414
103	0xbc28b4a2	-0.0102969725
104	0xbdc1eee8	-0.09469396
105	0x3e888e6b	0.26671156
106	0x3d0f1bd0	0.034938633
107	0xbd8e1b27	-0.06938773
108	0x3da2d996	0.079516575
109	0xbd227f2f	-0.039672073
110	0xbda29f27	-0.07940512
111	0xbd97ec78	-0.0741815
112	0xbdc5a66b	-0.09650882
113	0x3d3e6a20	0.046487927
114	0x3de62997	0.112384014
115	0x3c6841f7	0.0141758835
116	0xbd16d39a	-0.036822893
117	0x3cd83d06	0.026396286
118	0xbd0f0c28	-0.034923702
119	0xbcc72314	-0.024308719
120	0x3e252e39	0.16130914
121	0x3e4bbff3	0.19897442
122	0xbcd40218	-0.025879905
123	0x3e49fc50	0.19725156
124	0xb7f70a20	-2.944941e-05
125	0x3c6a8030	0.014312789
126	0x3dc3f1e5	0.09567622
127	0x3e04ed88	0.12981236
128	0xbc1db6c0	-0.0096260905
129	0x3d76dc7f	0.060268875
130	0xbc7ec015	-0.015548726
131	0x3be30b40	0.0069288313
132	0x3e9246d2	0.28569657
133	0x3d34c2d3	0.04413111
134	0xbde875c6	-0.113505885
135	0xbe3617ff	-0.17782591
136	0xbe080bfa	-0.13285819
137	0x3df106ce	0.11768876
138	0x3e4e1b2b	0.20127551
139	0x3de17fbe	0.11010693
140	0x3df009e6	0.11720638
141	0xbe4e121d	-0.20124097
142	0x3cf16658	0.029467747
143	0x3ddc116c	0.107455105
144	0x3e61a317	0.2203487
145	0xbda33924	-0.07969883
146	0xbdb203c5	-0.08692125
147	0x3e63b11a	0.22235528
148	0x3ab1a137	0.0013552074
149	0x3e027d89	0.127432
150	0xbe87be79	-0.26512507
151	0xbe4d330b	-0.20039003
152	0x3d1ccb14	0.038279608
153	0xbe54545f	-0.2073531
154	0x3daf770d	0.08567629
155	0x3ddc4708	0.10755736
156	0x3e3f9118	0.18707693
157	0x3dc6b1f6	0.09701912
158	0x3dfd807a	0.123780206
159	0x3d0fc728	0.03510204
160	0xbdcc71c2	-0.09982635
161	0x3cb7cf10	0.022437602
162	0x3cd9f1dc	0.026604585
163	0x3e053e29	0.13011993
164	0xbd06ef6c	-0.032943174
165	0xbe663b54	-0.2248357
166	0xbd80a352	-0.06281151
167	0xbd28dbf4	-0.04122539
168	0x3da2d91c	0.079515666
169	0xbd34f956	-0.044183098
170	0x3de7df86	0.113219306
171	0x3dba478f	0.0909568
172	0x3d859474	0.06522456
173	0x3e07891f	0.13235901
174	0xbd5b88a1	-0.053597096
175	0xbddc4150	-0.10754645
176	0xbdccb3b8	-0.09995216
177	0x3e8b9aac	0.27266443
178	0xbd1f876e	-0.038947515
179	0xbd59cae0	-0.053171992
180	0x3e1fcf77	0.15606485
181	0xbdf0d863	-0.117600225
182	0xbde6c915	-0.11268822
183	0xb9ce1782	-0.00039308897
184	0x3e135134	0.14386445
185	0xbe03244c	-0.12806815
186	0x3dc5ffd5	0.09667937
187	0xbe20ed27	-0.15715466
188	0xbdb823d0	-0.08991206
189	0x3dd9c019	0.10632343
190	0xbde18930	-0.110124946
191	0x3dc2b6f0	0.09507549
192	0x3e212096	0.15735087
193	0x3d8b671d	0.06806777
194	0xbdc29284	-0.09500602
195	0x3e9db90a	0.30805236
196	0x3d3e2dfe	0.04643058
197	0xbdb48a2c	-0.08815417
198	0xbe4d79b8	-0.20065963
199	0xbe3f8514	-0.18703109
200	0x3da79348	0.081823885
201	0x3db4e467	0.08832627
202	0x3d2ea3ff	0.042636868
203	0xbce4a210	-0.027909309
204	0x3e49e6fa	0.19717017
205	0xbcaeee93	-0.021353995
206	0x3dba3528	0.0909217
207	0x3c9f3192	0.019432817
208	0x3d265c31	0.040615264
209	0xbd3338c0	-0.043755293
210	0x3e15baf8	0.14622104
211	0x3da98726	0.08277731
212	0x3d0be90c	0.034157798
213	0x3dd80766	0.10548286
214	0xbdf60586	-0.12012772
215	0x3d1faa5c	0.038980827
216	0x3e0d009a	0.1376976
217	0xbdb39f5a	-0.08770628
218	0xbe029c35	-0.12754901
219	0x3e0ec98a	0.13944069
220	0xbcc715ad	-0.024302328
221	0xbd1f1174	-0.038835004
222	0xbd79d714	-0.06099613
223	0x3bf06a06	0.0073368577
224	0xbc77f060	-0.015132993
225	0xbda984cc	-0.08277282
226	0xbd40c88b	-0.047066253
227	0x3d1a92b0	0.03773755
228	0x3d48a826	0.048988484
229	0x3e0cb391	0.13740374
230	0xbe0487cc	-0.12942427
231	0x3e220546	0.15822324
232	0x3d25169f	0.040304776
233	0x3d114864	0.035469428
234	0xbe6a8dc4	-0.22905642
235	0x3d82bc52	0.063835755
236	0x3d80b61c	0.062847346
237	0xbba0bc46	-0.0049052564
238	0xbd7bd432	-0.061481662
239	0x3db34464	0.08753279
240	0xbb61f869	-0.003448034
241	0x3d8f1d3a	0.069879964
242	0x3e042501	0.12904741
243	0x3e238386	0.15968141
244	0xbda64f57	-0.081206016
245	0x3c5f8a00	0.013643742
246	0x3d2a97bf	0.041648623
247	0x3de743d7	0.11292236
248	0xbd681a0c	-0.056665465
249	0x3e34ac32	0.17643812
250	0x3e07142c	0.13191289
251	0xbda3b7ce	-0.07994042
252	0x3e26e3af	0.16297792
253	0xbd9c29bb	-0.07625147
254	0x3e021937	0.12704931
255	0x3e8569e2	0.26057345

weight_hh_l0 f4 [200, 50]
0	0x3dec7e9f	0.115475886
1	0xbdba678b	-0.091017805
2	0x3e9b4f4e	0.30333942
3	0xbe4575c2	-0.19283202
4	0xbe3ecd31	-0.18632962
5	0xbda41b6f	-0.08013045
6	0xbe745276	-0.23859581
7	0x3e7376b6	0.23775753
8	0xbd711414	-0.05885704
9	0xbe5a81af	-0.21338533
10	0xbe1bccc3	-0.15214829
11	0xbe9c6993	-0.30549297
12	0xbdeedd36	-0.116632864
13	0x3d8866cc	0.06660232
14	0x3dfc7542	0.12327053
15	0xbdd5d50d	-0.10441027
16	0x3e83a581	0.25712207
17	0xbdd14aef	-0.102193706
18	0x3e8b7ea3	0.27245054
19	0x3e7a6a06	0.24454507
20	0x3eb84de0	0.35996914
21	0x3e35e668	0.17763674
22	0x3d90323b	0.07040831
23	0xbddd37de	-0.108016714
24	0x3e12746f	0.14302228
25	0x3d23949b	0.039936643
26	0x3dd25279	0.10269637
27	0x3e6098d2	0.21933296
28	0xbeac9e31	-0.3371444
29	0xbe3e80e6	-0.18603858
30	0x3e82a50d	0.2551655
31	0xbe141be8	-0.1446377
32	0xbd5961a0	-0.053071618
33	0xbdd41544	-0.103556186
34	0x3d692347	0.05691841
35	0x3e9c612c	0.30542886
36	0xbc8b2241	-0.016984107
37	0x3e67b97e	0.22629353
38	0xbe156343	-0.14588647
39	0x3d34dd13	0.044156145
40	0x3e316397	0.17323147
41	0xbe5abd7b	-0.21361344
42	0xbe169bed	-0.14707918
43	0xbea48358	-0.32131457
44	0x3e89ffff	0.26953122
45	0xbcc10e1e	-0.023566302
46	0xbdd32905	-0.10310558
47	0xbe33ef8a	-0.17571846
48	0x3e944d56	0.28965253
49	0xbdbf1d46	-0.09331755
50	0x3d1fd46b	0.039020937
51	0xbe2bd83d	-0.16781707
52	0x3dd8b974	0.105822474
53	0xbe252976	-0.16129097
54	0xbe2342bb	-0.15943424
55	0xbdd9005d	-0.105957724
56	0xbe515ca0	-0.2044549
57	0x3c10db84	0.008841399
58	0xbc3b9c9a	-0.011450911
59	0xbd1e4ac7	-0.038645532
60	0xbcb4a0bb	-0.022049299
61	0xbc9bc67c	-0.019015543
62	0xbe1d4872	-0.15359667
63	0x3d146002	0.036224373
64	0x3e6b699f	0.2298951
65	0xbe755730	-0.2395904
66	0x3c30d4e5	0.0107929455
67	0xbd1595e9	-0.03651992
68	0x3db8d288	0.09024531
69	0x3e0c8e6e	0.13726208
70	0x3e7f776a	0.24947897
71	0x3e447a38	0.19187248
72	0x3e82b976	0.2553212
73	0xbe7061ee	-0.23474857
74	0x3e21cdc5	0.15801151
75	0x3e10add0	0.14128804
76	0x3d93b1c0	0.072116375
77	0x3e1ed8bc	0.15512365
78	0xbe5e2bb8	-0.21696365
79	0xbda5320b	-0.080661856
80	0x3d32c80c	0.04364781
81	0xbd5b6125	-0.05355944
82	0xbdc37c9b	-0.09545251
83	0xbd910029	-0.07080109
84	0x3ce055ff	0.027384756
85	0x3dc5ca71	0.09657753
86	0x3e0f0b38	0.13969123
87	0x3db57170	0.08859527
88	0xbe4d9fe3	-0.20080523
89	0x3e84d410	0.2594304
90	0x3d2b6e09	0.041852985
91	0xbddb8c69	-0.107201405
92	0xbd4e84a0	-0.05041945
93	0xbe6f11b9	-0.23346604
94	0x3e3d93c4	0.185134
95	0xbe21817d	-0.15772052
96	0xbdbc24b3	-0.09186687
97	0xbd2321f4	-0.039827302
98	0x3db24127	0.08703833
99	0xbe486fc4	-0.19573885
100	0xbcae9dfe	-0.02131557
101	0xbe121804	-0.14266974
102	0xbdff38a3	-0.124619745
103	0xbdec03c4	-0.11524156
104	0xbdd505f0	-0.10401523
105	0x3b9b7142	0.004743726
106	0x3ce41220	0.027840674
107	0x3e0126f8	0.12612522
108	0xbd24dc71	-0.04024929
109	0xbb56a61e	-0.0032752822
110	0xbdef217f	-0.11676311
111	0xbdb26eb8	-0.08712524
112	0xbd91eb02	-0.07124902
113	0x3df885bf	0.12134885
114	0x3cfb312d	0.030663097
115	0xbb8d5ef8	-0.0043142997
116	0xbd005d6d	-0.031339098
117	0x3e021218	0.12702215
118	0xbd555adc	-0.052088603
119	0x3d1894ac	0.03725116
120	0xbce4d333	-0.027932739
121	0xbdf52cb8	-0.1197142
122	0x3d3fab91	0.046794478
123	0xbd2f9b5f	-0.042872783
124	0x3dab7263	0.08371427
125	0x3de9c723	0.114149354
126	0xbd27516f	-0.040849146
127	0x3d142677	0.036169495
128	0xbd9a4890	-0.075333714
129	0xbe07db7d	-0.13267322
130	0x3dbb5911	0.091478474
131	0x3e05ce48	0.13066971
132	0x3df0a47a	0.117501214
133	0x3d0281f8	0.03186223
134	0xbcce684d	-0.025196219
135	0x3da71b07	0.08159452
136	0xbe1242ce	-0.14283296
137	0x3dcdc6dd	0.10047696
138	0xbdab549e	-0.08365749
139	0xbd40f1a3	-0.047105443
140	0xbd8b6d13	-0.06807914
141	0x3dfce366	0.1234806
142	0xbe10bb9a	-0.14134064
143	0xbd5111c7	-0.051042344
144	0xbd1a8ef7	-0.037734
145	0x3b4dc9ea	0.0031400868
146	0xbcc5ffe1	-0.024169864
147	0xbdeb0f3a	-0.114775136
148	0xbde5d252	-0.11221756
149	0x3df5fe9d	0.12011454
150	0x3d04cc03	0.032421123
151	0xbdb9c0d8	-0.09069985
152	0x3d9447d5	0.072402634
153	0x3dcc6d79	0.09981818
154	0xbe09806e	-0.13427898
155	0x3d02f2fc	0.03197001
156	0x3e0ad903	0.13559346
157	0x3d0b76ac	0.03404872
158	0x3ddaf1b7	0.10690635
159	0x3dd745f7	0.105113916
160	0xbdbed994	-0.093188435
161	0x3d886d52	0.06661476
162	0x3db25ed9	0.08709497
163	0xbd3ba280	-0.04580927
164	0x3db49c6c	0.088188976
165	0x3de92d91	0.11385644
166	0x3e0e81b1	0.13916661
167	0xbe0afa71	-0.13572098
168	0xbde33ce8	-0.11095601
169	0x3c9024cc	0.017595671
170	0xbd984488	-0.07434946
171	0x3c847b1a	0.01617198
172	0xbd88f348	-0.06687027
173	0xbd2c3226	-0.042040013
174	0x3d8a0081	0.06738377
175	0x3e12e5aa	0.14345422
176	0xbae364e0	-0.0017348789
177	0x3d317d15	0.04333218
178	0x3e18a9c2	0.14908507
179	0x3d448542	0.047978647
180	0x3db1465c	0.08655998
181	0xbd175d1b	-0.036954027
182	0x3c8a005d	0.016845876
183	0xbde0c658	-0.10975331
184	0x3c8b2242	0.016984109
185	0xbd2c25fc	-0.042028412
186	0xbde44173	-0.11145296
187	0x3d7fc3dc	0.062442645
188	0x3d76d52f	0.0602619
189	0x3c04b23f	0.008099138
190	0x3d501a3e	0.050806277
191	0x3d93305e	0.0718696
192	0x3dc26d78	0.09493536
193	0x3dd63c22	0.10460688
194	0xbd296dc1	-0.041364435
195	0x3cee551f	0.029093323
196	0xbda198dd	-0.078904845
197	0x3ddcbb79	0.10777945
198	0x3df93507	0.12168317
199	0xbde3322a	-0.110935524
200	0x3e0cdf57	0.13757072
201	0xbdfda8e0	-0.12385726
202	0x3da9a283	0.0828295
203	0xbd870292	-0.06592287
204	0xbe555f01	-0.20837022
205	0xbdab3096	-0.083588764
206	0xbde5ef1c	-0.11227247
207	0x3d2172d7	0.03941616
208	0xbd323890	-0.043510973
209	0x3cff40d7	0.031158848
210	0xbda937fb	-0.082626306
211	0xbd9aaecb	-0.0755287
212	0xbde2606e	-0.11053549
213	0xbd6ae8f4	-0.057351068
214	0xbd4d8c0e	-0.050182395
215	0xbd93481f	-0.071914904
216	0x3e15a14d	0.14612313
217	0x3d30bfc4	0.043151632
218	0x3d07c24c	0.03314428
219	0x3e754c47	0.23954879
220	0x3d6ca74a	0.057776727
221	0x3e2be888	0.16787922
222	0x3d153d34	0.03643532
223	0xbdcafd3c	-0.09911582
224	0x3e166518	0.14687002
225	0x3e7b8173	0.245611
226	0x3d8f9c6a	0.070122555
227	0x3db52a61	0.08845974
228	0x3bd10629	0.006378908
229	0xbe5aeb8b	-0.21378915
230	0x3e0f6d99	0.14006652
231	0xbe0ec008	-0.13940442
232	0xbd60b171	-0.05485672
233	0xbe5ce5db	-0.21572058
234	0xbe02edd5	-0.12786038
235	0x3e406508	0.1878854
236	0xbd5da2a9	-0.054110203
237	0x3e4d1f33	0.20031433
238	0xbd77c42f	-0.06048983
239	0x3d472d45	0.048627157
240	0x3de87841	0.113510616
241	0xbdf9af9e	-0.121916994
242	0xbd6c766f	-0.057730135
243	0xbe3953f1	-0.18098427
244	0x3de6df23	0.11273029
245	0xbe5678fc	-0.2094459
246	0xbe5b8219	-0.21436347
247	0xbc855b04	-0.016278751
248	0x3e6feb66	0.23429641
249	0xbd9b83b4	-0.0759348
250	0x3d2f5b45	0.04281165
251	0xbdc6f073	-0.09713831
252	0x3e1b0392	0.1513808
253	0xbe5339ec	-0.20627564
254	0xbe08977c	-0.13339037
255	0xbe5c36f7	-0.21505342

bias_ih_l0 f4 [200]
0	0x3e88b41a	0.26699907
1	0x3da3a621	0.07990671
2	0xbd8c553c	-0.06852195
3	0xbdb8dc12	-0.0902635
4	0x3d661bcd	0.056178857
5	0x3e8ec1e0	0.2788229
6	0x3df21c52	0.11821808
7	0xbdd17077	-0.10226529
8	0x3e15e4fd	0.14638133
9	0xbc31efce	-0.010860397
10	0xbe11a924	-0.14224678
11	0xbda1e70a	-0.07905395
12	0x3d395490	0.04524666
13	0x3dcaa3f9	0.098945566
14	0xbcfdf2a4	-0.03099949
15	0x3e4ab232	0.19794539
16	0x3ead0b9f	0.3379793
17	0x3dd13313	0.1021482
18	0x3d88bf0c	0.06677064
19	0x3db4a5e7	0.08820706
20	0x3e07cdef	0.13262151
21	0xbd11e14f	-0.03561526
22	0x3e118610	0.14211297
23	0x3c9ea40d	0.019365335
24	0x3e5157ae	0.20443603
25	0xbd2066b8	-0.03916046
26	0x3e04ab4b	0.12955968
27	0x3e010251	0.1259854
28	0xbd0c9c6b	-0.03432886
29	0xbdba2b37	-0.09090274
30	0x3dea98e2	0.11454941
31	0x3e05b83a	0.13058558
32	0x3da3a1eb	0.07989868
33	0x3d38a763	0.045081507
34	0x3e38e02a	0.18054262
35	0xbdae5252	-0.08511795
36	0xbdb72536	-0.08942644
37	0x3d87ab02	0.06624414
38	0x3dd9cdfb	0.10634991
39	0x3e03399b	0.12814943
40	0x3e1a1b42	0.1504946
41	0xbdd5e32c	-0.1044372
42	0x3da41217	0.08011263
43	0x3d41cc21	0.047313813
44	0xbd35f8f1	-0.044426862
45	0x3c710444	0.01471049
46	0xbd35cb73	-0.044383477
47	0x3e01cf8c	0.12676829
48	0x3d9bbe98	0.07604712
49	0x3d795364	0.060870543
50	0x3d333a2b	0.043756645
51	0xbe08ee23	-0.13372092
52	0x3d3ffe8e	0.04687362
53	0xbdefe6c1	-0.11713935
54	0x3cc79981	0.024365189
55	0x3d878a44	0.06618169
56	0x3e115158	0.14191186
57	0xbdb5e54f	-0.08881628
58	0x3dc85d7a	0.09783454
59	0x3da45979	0.08024878
60	0xbd928f7c	-0.07156274
61	0x3d539256	0.05165323
62	0x3c11495e	0.00886759
63	0x3cb04a56	0.021519821
64	0x3c32399f	0.010877996
65	0xbce1949f	-0.027536688
66	0xbdfc7f55	-0.12328974
67	0xbdd0584d	-0.10173092
68	0x3dc961a4	0.098330766
69	0xbc92cacb	-0.017918965
70	0xbd19792e	-0.03746908
71	0xbc92a71d	-0.017901951
72	0xbd978578	-0.07398504
73	0x3d9b7cac	0.07592139
74	0x3d7c6d1f	0.061627503
75	0xbdef94cf	-0.11698305
76	0xbdc8d58b	-0.09806355
77	0xbd9d1c17	-0.07671373
78	0x3ddc57f5	0.10758964
79	0xbe1c1b98	-0.15244901
80	0x3dcba017	0.09942644
81	0x3cb1c079	0.021698223
82	0x3da88850	0.082291245
83	0xbdcc1cc1	-0.09966422
84	0xbdc72892	-0.09724535
85	0xbe08f90e	-0.13376257
86	0xbe0c41e6	-0.13697013
87	0x3d9b50aa	0.07583745
88	0xbcdacf98	-0.026710317
89	0xbdced92f	-0.10100018
90	0xbd529804	-0.051414505
91	0x3e1a1643	0.15047555
92	0x3d9d198c	0.07670888
93	0x3d3da960	0.046304107
94	0x3de5b598	0.11216277
95	0xbc87757f	-0.016535519
96	0xbce808f4	-0.028324582
97	0x3d3e2cc7	0.04642942
98	0x3d96c5c6	0.07361941
99	0x3ccf3eb5	0.025298456
100	0xbdf57f26	-0.11987142
101	0xbdced99c	-0.101000994
102	0x3db823f5	0.08991233
103	0xbe152446	-0.14564618
104	0x3d3c9fba	0.046050765
105	0x3db11b78	0.086478174
106	0xbe207457	-0.1566938
107	0x3d0940c4	0.03350903
108	0xbd8a39d0	-0.06749308
109	0xbe2321b3	-0.15930824
110	0xbdbd215e	-0.0923488
111	0xbcf5bd07	-0.029997362
112	0xbd48bdcc	-0.04900913
113	0xbd87caa5	-0.06630448
114	0x3dda444f	0.1065756
115	0xbe00c31a	-0.12574425
116	0xbd8b2174	-0.0679349
117	0xbe09d237	-0.13459097
118	0x3c8b5429	0.017007904
119	0x3d146c50	0.036236107
120	0xbc9bec00	-0.019033432
121	0x3da03da6	0.078242585
122	0xbdaf5f32	-0.08563079
123	0xbdd5cd71	-0.104395755
124	0x3d14e50c	0.03635125
125	0x3dd1cbb0	0.102439284
126	0xbdfb95be	-0.122844204
127	0x3dc2fbfa	0.09520717
128	0x3db8b18d	0.0901824
129	0x3ca2b76f	0.019862859
130	0xb820129a	-3.8164297e-05
131	0x3c3fff48	0.011718579
132	0x3cdb39eb	0.026761016
133	0xbdf15ff8	-0.11785883
134	0xbd8d5aed	-0.06902108
135	0x3e0b1e7a	0.13585845
136	0xbc51de1e	-0.0128093045
137	0xbdefb48a	-0.11704357
138	0xbdc48f85	-0.09597687
139	0x3dac79c4	0.084216624
140	0xbcc1e657	-0.023669405
141	0x3da28f90	0.079375386
142	0xbda5248e	-0.08063613
143	0xbda24a56	-0.07924335
144	0x3da924b4	0.08258954
145	0xbdd4f282	-0.10397817
146	0xbdccdd1e	-0.10003112
147	0x3d3e94c3	0.04652859
148	0xbcd0b610	-0.02547744
149	0xbd851d57	-0.06499737
150	0x3e844dbc	0.25840557
151	0x3da956d7	0.082685165
152	0x3d84cc84	0.06484321
153	0x3e0bf864	0.13668972
154	0xbd0e37db	-0.034721237
155	0x3e05b8c1	0.1305876
156	0x3d122b90	0.035686076
157	0xbdc39939	-0.09550709
158	0x3d6983cd	0.05701046
159	0x3dcd4500	0.10022926
160	0x3d9b6c49	0.07589013
161	0x3dc33b85	0.09532837
162	0x3dde8988	0.10866076
163	0xbdb7a8a1	-0.0896771
164	0xbd8fbd08	-0.07018477
165	0x3d269400	0.040668488
166	0x3e8e905b	0.2784451
167	0x3d336553	0.043797802
168	0xbe025f75	-0.12731726
169	0x3d9d4b3c	0.076803654
170	0x3b4336e5	0.0029787358
171	0x3e198a1f	0.14994095
172	0x3de326e1	0.110914
173	0xbe0b69bc	-0.13614553
174	0x3e90649c	0.2820176
175	0x3e143629	0.14473785
176	0x3e420181	0.18945886
177	0xbd9fea4e	-0.07808362
178	0x3df4cc36	0.11953013
179	0xbce55e7f	-0.02799916
180	0xbc19ae9d	-0.00938001
181	0x3de23c3a	0.110466436
182	0x3bc39c83	0.0059695854
183	0x3da84779	0.08216757
184	0x3e94d46e	0.2906832
185	0xbdb30647	-0.08741432
186	0xbd2db673	-0.042410325
187	0x3d118c9b	0.035534482
188	0x3dcb3239	0.099216886
189	0x3d9eae78	0.07748121
190	0x3e20b942	0.1569567
191	0x3deab86b	0.11460956
192	0x3e6db466	0.23213348
193	0xbd789b6b	-0.060695093
194	0x3e259ac0	0.16172314
195	0xbe03c073	-0.12866382
196	0xbd923abf	-0.07140111
197	0x3c53f0b7	0.012935809
198	0xbdb10e08	-0.086452544
199	0xbdd65da3	-0.104670785

bias_hh_l0 f4 [200]
0	0x3e381f60	0.17980719
1	0x3d30fd23	0.04321016
2	0x3c1c1fd3	0.009529072
3	0x3bea56e5	0.007151472
4	0x3d2d0001	0.04223633
5	0x3d4c14f9	0.04982469
6	0x3d6a7802	0.057243355
7	0x3d80d1d7	0.06290024
8	0x3e255964	0.16147381
9	0x3dc96770	0.09834182
10	0x3e0651ff	0.13117217
11	0xbda40606	-0.080089614
12	0xbd115d54	-0.035489395
13	0x3d6d75a6	0.057973526
14	0x3bc4ad06	0.0060020713
15	0x3e82e741	0.25567058
16	0x3e27c128	0.16382277
17	0xbceaf37b	-0.028680554
18	0x3dbc1efa	0.09185596
19	0xbdcfc51d	-0.10145018
20	0xbd7f9055	-0.062393505
21	0x3d9a9247	0.075474314
22	0xbdd8cd3a	-0.10586019
23	0x3bcd9e66	0.006274986
24	0x3e8ee15b	0.27906308
25	0x3df4d097	0.11953848
26	0x3e3ece00	0.1863327
27	0x3d31b0bd	0.04338144
28	0x3d14353d	0.036183584
29	0x3d5cd156	0.053910576
30	0xbd4749c7	-0.048654344
31	0x3d371f03	0.04470731
32	0x3dfb8efd	0.12283132
33	0x3af1408d	0.0018406078
34	0x3e624470	0.2209642
35	0x3c1dbcb9	0.0096275145
36	0xbcd2f29a	-0.025750447
37	0xbddd93f6	-0.10819237
38	0xbdf21245	-0.11819891
39	0xbcf58189	-0.029968994
40	0x3c44c315	0.012009402
41	0x3da3d474	0.079995066
42	0x3e4387e0	0.19094801
43	0x3e1c884d	0.1528637
44	0x3e0a4dfd	0.13506313
45	0xbb57c19c	-0.0032921797
46	0x3df07850	0.11741698
47	0x3e0bc522	0.13649419
48	0x3e011b09	0.1260797
49	0x3db6ab4f	0.08919393
50	0x3d8339e9	0.0640753
51	0xbddda5a5	-0.1082261
52	0xbd87f8bd	-0.0663924
53	0x3e048b94	0.1294387
54	0xbd9c17ae	-0.07621704
55	0xbc1a654c	-0.009423565
56	0xba425985	-0.0007413852
57	0xbd948e99	-0.07253761
58	0x3d6ae2e3	0.057345282
59	0x3d4bb015	0.04972847
60	0x3d528954	0.051400498
61	0xbd898968	-0.06715661
62	0x3dcaf86b	0.09910663
63	0x3d44a1ec	0.048005983
64	0x3da016fa	0.078168824
65	0xbc03d48d	-0.0080462815
66	0xbd95f375	-0.07321826
67	0xbe01a27c	-0.12659639
68	0x3d4e280a	0.050331153
69	0x3e02afd5	0.12762387
70	0x3d124490	0.035709918
71	0x3e02f20a	0.12787643
72	0xbc9c058b	-0.019045612
73	0x3bb02842	0.005375893
74	0xbe035afb	-0.12827675
75	0x3db99815	0.090622105
76	0x3e095bba	0.13413897
77	0xbc5a2ce3	-0.013316366
78	0xbdb6f73b	-0.08933874
79	0xbca3c659	-0.01999204
80	0x3da8fa0b	0.08250817
81	0xbd1c2d74	-0.038129285
82	0xbd6e187c	-0.05812882
83	0x3d0f3504	0.03496267
84	0xbdaa2210	-0.08307278
85	0xbc2f9cb7	-0.010718516
86	0xbd85557c	-0.065104455
87	0xbd5e2739	-0.054236624
88	0xbda9fdd1	-0.08300365
89	0xbe202624	-0.1563955
90	0xbe371abd	-0.17881294
91	0x3df9825d	0.12183068
92	0xbdd13288	-0.10214716
93	0x3d26e59c	0.040746316
94	0xbe02c602	-0.12770846
95	0xbd77b7f5	-0.06047817
96	0x3df59bde	0.1199262
97	0xbd7cf1a3	-0.06175388
98	0x3dbd8e02	0.092556015
99	0x3dcbe52b	0.0995582
100	0x3dd7ea82	0.10542776
101	0x3d8363a6	0.06415491
102	0x3c022024	0.007942233
103	0xbe12971a	-0.14315453
104	0xbd84bb21	-0.064810045
105	0x3dbea8c8	0.09309536
106	0x3dbf9c72	0.093560115
107	0x3cea6c46	0.028616082
108	0xbd08244c	-0.03323774
109	0xbcaf22ea	-0.021378953
110	0xbdcbfa32	-0.0995983
111	0xbe0f9a6d	-0.14023753
112	0xbd48f5fa	-0.049062707
113	0xbda53f7d	-0.0806875
114	0xbc230c54	-0.00995167
115	0x3dd0ed7d	0.10201547
116	0x3d9c7520	0.07639527
117	0x3d83dee5	0.06438998
118	0x3d0ce2ef	0.03439611
119	0x3d2a01c0	0.041505575
120	0x3e0829bb	0.13297169
121	0x3c8331a7	0.016014887
122	0x3e16da8b	0.14731805
123	0xbdd85252	-0.10562576
124	0x3ceaeb89	0.028676765
125	0x3ca13e1e	0.01968294
126	0x3dd5c45a	0.10437842
127	0x3d9070ba	0.07052751
128	0xbe17b55d	-0.14815278
129	0x3d81e3b9	0.06342263
130	0x3e0f54d9	0.1399721
131	0xbe12a21a	-0.1431965
132	0xbd8dea9e	-0.06929515
133	0xbdb99c52	-0.09063019
134	0xbda9c48d	-0.08289442
135	0xbd077571	-0.033070985
136	0x3dbcbb78	0.09215444
137	0x3d2edca0	0.042690873
138	0xbdee5ddf	-0.11638998
139	0xbd280c62	-0.041027434
140	0xba966242	-0.0011473375
141	0xbe1714d7	-0.14754044
142	0xbb010146	-0.0019684597
143	0xbda8b710	-0.082380414
144	0x3d5c8ae7	0.053843405
145	0x3dc8fc9a	0.09813805
146	0x3ca22332	0.019792173
147	0x3b58c68b	0.0033077325
148	0x3e139ddb	0.14415686
149	0xbdf17786	-0.117903754
150	0x3e271138	0.16315162
151	0x3e855570	0.26041746
152	0x3e12e370	0.14344573
153	0x3dd0d900	0.101976395
154	0x3d2bc8e9	0.04193965
155	0x3dd1f0c0	0.102509975
156	0x3da82073	0.08209314
157	0x3e06a133	0.1314743
158	0xbdd85ff4	-0.105651766
159	0xbd6ea808	-0.058265716
160	0x3d145340	0.036212206
161	0xbd835b8f	-0.06413948
162	0xbdf35f05	-0.11883358
163	0xbdb11cae	-0.08648048
164	0x3cc90051	0.024536284
165	0x3e88aa1e	0.2669229
166	0x3e04cab6	0.12967953
167	0xbd2f8dcd	-0.04285984
168	0x3dde8a09	0.10866172
169	0xbc01560c	-0.00789405
170	0xbc8d6b2b	-0.017263016
171	0xbc6bb546	-0.014386481
172	0x3dba5777	0.09098714
173	0x3daa156f	0.083048694
174	0x3e7accd7	0.24492203
175	0xbcab3083	-0.020897156
176	0x3d097eff	0.03356838
177	0x3e2e4f00	0.17022324
178	0x3bbd5bd1	0.0057787676
179	0xbe08df42	-0.13366416
180	0xbdc7743a	-0.09738965
181	0xbced219c	-0.02894669
182	0xbd980de7	-0.07424527
183	0xbd743b94	-0.05962713
184	0x3e5ad9b7	0.21372114
185	0xbd645f69	-0.055755053
186	0xbd3ffeaf	-0.046873745
187	0x3d9af479	0.07566161
188	0x3cb7e5b4	0.022448398
189	0xbd8ad3f0	-0.06778705
190	0x3c67c772	0.014146673
191	0x3dcfd997	0.10148924
192	0x3dfed113	0.124422215
193	0xbcdf016a	-0.027222354
194	0xbd838d6e	-0.0642346
195	0x3e0b40e5	0.13598974
196	0x3cfdcb79	0.030980812
197	0x3dd57f2c	0.10424647
198	0xbd9649b0	-0.073382735
199	0xbda94647	-0.082653575

weight_ih_l1 f4 [200, 50]
0	0xbe4d1099	-0.20025863
1	0x3d738845	0.05945613
2	0xbc7b379c	-0.0153330825
3	0xbdfe3c5e	-0.12413858
4	0xbd16a958	-0.036782593
5	0x3cabe6f1	0.020984145
6	0xbcebc6d3	-0.02878133
7	0xbda04ba9	-0.07826931
8	0x3dfd7449	0.12375695
9	0x3dd72e79	0.10506911
10	0xbd615e44	-0.05502154
11	0xbe04e926	-0.12979564
12	0xbd8a2198	-0.06744689
13	0x3da4451d	0.08020995
14	0x3dc47558	0.09592694
15	0xbe3801f0	-0.17969489
16	0xbd9e6169	-0.07733423
17	0xbdafb9d2	-0.08580364
18	0x3e0379b6	0.12839398
19	0xbcb9e956	-0.022694271
20	0x3d9162ae	0.070989
21	0x3da05b96	0.07829969
22	0x3dce99fa	0.100879624
23	0x3d487fe2	0.048950084
24	0xbe09ad38	-0.13444984
25	0xbd7470bf	-0.059677836
26	0xbb23170b	-0.002488556
27	0xbd02e26e	-0.03195422
28	0x3db9e81e	0.09077476
29	0x3d092fa8	0.033492714
30	0x3dd22099	0.10260124
31	0x3d5c5d22	0.053799756
32	0x3db47a24	0.08812359
33	0xbe266bcc	-0.16252059
34	0x3e6f6ae8	0.23380625
35	0xbdce914b	-0.10086306
36	0x3dc4e579	0.09614081
37	0x3e27fa5a	0.16404095
38	0x3d6af4d9	0.05736241
39	0x3e21a36e	0.15785
40	0xbd9a88ff	-0.07545661
41	0xbd8ecd6d	-0.069727756
42	0x3e409073	0.18805103
43	0xbe09fff0	-0.13476539
44	0x3d7850d3	0.060623955
45	0x3db056dc	0.08610317
46	0x3d39865e	0.04529416
47	0x3e2d4fa2	0.16924909
48	0xbdc6febd	-0.09716556
49	0xbda987f4	-0.08277884
50	0xbd6cd079	-0.057816003
51	0xbd3b79c8	-0.045770437
52	0x3d000c69	0.031261835
53	0xbe07a29c	-0.13245624
54	0xbd620fd3	-0.055190872
55	0x3e440201	0.1914139
56	0x3de1d2f1	0.11026562
57	0x3d97795d	0.07396195
58	0xbc6e3ab7	-0.014540366
59	0x3dff2e07	0.12459951
60	0x3e0521c6	0.13001165
61	0xbe089494	-0.13337928
62	0xbd182a95	-0.037149984
63	0x3d90398a	0.07042225
64	0xbc6c16fd	-0.014409778
65	0xbd9c4498	-0.07630271
66	0xbe47f96e	-0.19528744
67	0x3ceaaeb7	0.028647764
68	0x3b2e2bc0	0.002657637
69	0xbd3bc2da	-0.04584012
70	0x3db40bf5	0.08791343
71	0xb8e8b65b	-0.000110965884
72	0xbd23f1bf	-0.04002547
73	0xbd3ed340	-0.046588182
74	0xbe0aa4ae	-0.13539383
75	0xbd9fe2ca	-0.078069285
76	0xbd32d700	-0.04366207
77	0x3da03a1c	0.078235835
78	0x3e1b1cd0	0.1514771
79	0x3d9fb1c3	0.07797577
80	0xbcddae44	-0.027060635
81	0x3dd9da8b	0.10637387
82	0x3c896bdf	0.01677507
83	0x3b977e84	0.004623236
84	0x3e2ad3d6	0.16682371
85	0xbdb34686	-0.08753686
86	0x3d7875a1	0.060659055
87	0xbd148480	-0.036259174
88	0x3d9f2d05	0.07772259
89	0x3d530773	0.051520776
90	0x3d2a4b99	0.041576
91	0x3d907ad4	0.070546776
92	0x3dc1731d	0.09445784
93	0xbdeb9e12	-0.11504759
94	0xbc287e14	-0.010283966
95	0xbd2add83	-0.041715156
96	0xbcb323d3	-0.021867668
97	0xbda86f14	-0.082243115
98	0x3dffe51d	0.12494872
99	0x3de50995	0.11183468
100	0xbe60cf75	-0.21954139
101	0x3e09cb56	0.13456473
102	0xbdaf7db9	-0.085689016
103	0xbdd81e2f	-0.10552632
104	0xbddcd0ad	-0.10781989
105	0x3e3db086	0.1852437
106	0x3e0e74f4	0.13911802
107	0xbdf0fc6a	-0.11766894
108	0xbd077bfc	-0.033077225
109	0xbe35a3d0	-0.17738271
110	0xbd6b5330	-0.05745238
111	0x393e6ea6	0.00018161032
112	0xbdceac15	-0.10091416
113	0xbd1b0ae2	-0.037852176
114	0x3d9d4c30	0.07680547
115	0xbe4426e3	-0.19155459
116	0x3c4dc70a	0.012559662
117	0xbdd3195c	-0.10307571
118	0xbd9911ce	-0.07474099
119	0x3e012554	0.12611896
120	0x3e016d0b	0.12639253
121	0x3c1d377f	0.009595751
122	0xbcaa6ba7	-0.020803286
123	0x3dda9fbf	0.106750004
124	0x3d1d4ddd	0.038404334
125	0x3d354395	0.044253904
126	0x3d9d3177	0.0767545
127	0xbdd6fd38	-0.104975164
128	0x3ce46dc0	0.027884364
129	0x3bbeb00a	0.0058193253
130	0x3b1dd90f	0.0024085676
131	0xbdf92083	-0.12164404
132	0xbda80b6a	-0.08205302
133	0xbdc89a59	-0.097950645
134	0xbc8352aa	-0.016030628
135	0xbb47cccd	-0.003048706
136	0x3b8e5960	0.0043441504
137	0xbd1f1da6	-0.038846634
138	0x3debb91e	0.11509918
139	0x3ddd0ba8	0.10793239
140	0xbe26e2e9	-0.16297497
141	0xbd7fccd0	-0.062451184
142	0x3e0820f5	0.13293822
143	0x3d573f5d	0.052550662
144	0x3e1959f8	0.14975727
145	0x3e0848e3	0.13309054
146	0xbcd7c37a	-0.026338328
147	0x3c55bf85	0.01304615
148	0x3d6e09a3	0.05811466
149	0x3cad91ee	0.021187749
150	0xbe5a1024	-0.2129522
151	0x3ca6474f	0.020297674
152	0xbc8c2a16	-0.017109912
153	0xbd8ea411	-0.06964887
154	0x3d691568	0.05690518
155	0x3dbf86a8	0.093518555
156	0x3e024095	0.12719949
157	0xbd7d4853	-0.061836552
158	0x3d90cfad	0.07070861
159	0xbd10043d	-0.035160292
160	0xbcb9a927	-0.022663666
161	0xbe2e9d97	-0.17052303
162	0xbdfbd46d	-0.122963764
163	0x3dac0521	0.08399416
164	0x3c63ac79	0.013896101
165	0xbde85f60	-0.11346316
166	0x3c9dd75e	0.019267734
167	0x3d9f063b	0.0776486
168	0xbd3eabd1	-0.046550576
169	0x3cfb9e22	0.030715052
170	0x3db7154f	0.08939611
171	0x3daa4b65	0.083151616
172	0x3aa5defe	0.0012654958
173	0x3c0d7ddb	0.008635963
174	0xbded374a	-0.11582811
175	0x3da490ca	0.08035429
176	0xbd4d3e2b	-0.050108116
177	0xbdbac12f	-0.09118878
178	0x3e25cece	0.16192171
179	0xbd9a3305	-0.075292625
180	0x3e21719c	0.15765995
181	0xbe13c891	-0.14431979
182	0x3de8a5b2	0.11359729
183	0xbd91ef82	-0.071257606
184	0x3e2a1748	0.16610444
185	0xbdb08c73	-0.086205386
186	0x3de9f47c	0.11423585
187	0x3dfc4b72	0.123190776
188	0x3d695c35	0.0569727
189	0x3e37b020	0.1793828
190	0x3b7e1556	0.0038770041
191	0x3d6052aa	0.054766335
192	0x3b547f83	0.0032424636
193	0x3dabfa88	0.083973944
194	0xbdddb502	-0.1082554
195	0xbdc7a931	-0.097490676
196	0xbd820f1d	-0.06350539
197	0xbdca2bf5	-0.098716654
198	0xbccf7fc8	-0.025329486
199	0xbe192c09	-0.14958204
200	0xbc995452	-0.018716965
201	0x3da513d3	0.08060422
202	0xbdc8ba84	-0.098012
203	0x3de0611b	0.109560214
204	0xbe33b12a	-0.17548051
205	0x3e08f3a2	0.13374189
206	0x3d2ed038	0.04267904
207	0xbd8231e9	-0.06357176
208	0x3d0212f4	0.031756356
209	0xbd183244	-0.037157312
210	0xbd1656d2	-0.036703892
211	0xbd5e0c97	-0.054211225
212	0x3d55b9cf	0.052179154
213	0xbc6b2342	-0.014351668
214	0x3d7b71ca	0.061387815
215	0xbc3c94ad	-0.011510056
216	0xbd87b787	-0.06626802
217	0x3df9c461	0.121956594
218	0x3d9a915c	0.07547256
219	0xbd6998df	-0.057030555
220	0x3db28843	0.08717396
221	0x3dc28de0	0.09499717
222	0xbd8ee543	-0.06977322
223	0xbd33b690	-0.043875277
224	0xbdb3ea15	-0.08784882
225	0x3dc43ae0	0.09581542
226	0x3cd1ccdc	0.02561038
227	0xbdf42f76	-0.11923115
228	0x3ded4545	0.11585478
229	0x3d85370f	0.06504642
230	0x3d88e9b1	0.06685198
231	0x3e0d0867	0.13772736
232	0x3d3125cb	0.043248933
233	0x3dea65ea	0.1144522
234	0x3bf44572	0.0074545676
235	0x3e2595b3	0.16170387
236	0xbd7d728a	-0.06187681
237	0xbd82ed25	-0.06392888
238	0x3dc3bd18	0.09557551
239	0xbbc95ed7	-0.006145339
240	0xbca9a488	-0.020708337
241	0x3dbfe8be	0.09370564
242	0xbd854a3a	-0.06508298
243	0x3da76c7b	0.08174988
244	0x3c636a35	0.013880302
245	0x3d81c601	0.063365944
246	0xbd484a50	-0.048898995
247	0x3e2da90d	0.16959019
248	0x3d99222b	0.0747722
249	0x3da2139b	0.07913896
250	0xbcc6dc5f	-0.024275003
251	0xbcf03442	-0.029321793
252	0xbd924d61	-0.07143665
253	0xbd9556bf	-0.07291936
254	0xbe1ba701	-0.15200426
255	0xb9d1bb5f	-0.0004000319

weight_hh_l1 f4 [200, 50]
0	0xbdb67597	-0.08909147
1	0xbd881946	-0.066454455
2	0x3d7d9218	0.061906904
3	0x3c2b7349	0.010464498
4	0xbd965a3a	-0.07341428
5	0x3ce4c37a	0.027925242
6	0x3e0b232f	0.1358764
7	0x3df3b4dc	0.118997306
8	0x3d318097	0.043335523
9	0xbdf9a3a5	-0.12189416
10	0x3de23e26	0.1104701
11	0xbd70fab0	-0.058832824
12	0xbddaccd2	-0.106835976
13	0x3e202cc4	0.15642077
14	0xbd3c0da9	-0.045911465
15	0xbe285765	-0.16439588
16	0xbdce9a8c	-0.10088071
17	0x3d651298	0.055925936
18	0xbdb67bf1	-0.08910359
19	0x3c918fab	0.017768702
20	0xbc2a7143	-0.01040298
21	0xbaf0537c	-0.0018335427
22	0xbe31e8e2	-0.17373994
23	0xbc8b3c4a	-0.016996522
24	0xbd8ed593	-0.0697433
25	0xbb4f67ab	-0.0031647484
26	0x3d791260	0.06080854
27	0xbd4baf2d	-0.049727608
28	0xbe2fa976	-0.17154488
29	0xbe853321	-0.2601557
30	0x3e823181	0.25428393
31	0xbe0480aa	-0.12939706
32	0xbe32e5ee	-0.17470524
33	0x3e30f5eb	0.1728131
34	0xbe573122	-0.21014836
35	0x3dccddc4	0.10003236
36	0x3dfe101e	0.12405418
37	0x3e31cfd8	0.17364442
38	0xbcaed80a	-0.02134325
39	0x3e25c512	0.16188458
40	0xbdc89dca	-0.09795721
41	0xbdfc94e1	-0.12333084
42	0x3e60eac6	0.21964559
43	0xbd7f1ad9	-0.062281463
44	0xbd6fd7c4	-0.05855538
45	0xbd8e5c54	-0.06951204
46	0xbd2f1b3b	-0.04275058
47	0xbd9fd1a5	-0.078036584
48	0x3d7dada3	0.06193317
49	0x3d31719d	0.04332124
50	0xbb863b69	-0.0040964377
51	0xbcd51477	-0.026010735
52	0xbdd2abf0	-0.10286701
53	0xbd4bc641	-0.049749617
54	0x3da4862e	0.08033405
55	0xbdfcf986	-0.1235228
56	0xbd6ef5d6	-0.058339916
57	0xbc813ffc	-0.01577758
58	0x3d38bf8e	0.045104556
59	0x3d8e2e72	0.069424525
60	0xbbbeec4f	-0.00582651
61	0xbd1237da	-0.035697795
62	0x3c8d8f87	0.017280353
63	0x3dffac9a	0.12484093
64	0x3ac0153b	0.0014654765
65	0x3d5e9a3c	0.054346308
66	0x3dbc7099	0.09201164
67	0x3d3b56ee	0.0457372
68	0x3c743bab	0.014906804
69	0x3d31d9df	0.04342067
70	0xbd9202cf	-0.07129442
71	0x3d372850	0.04471618
72	0xbd03634f	-0.03207713
73	0x3cf5384e	0.029934075
74	0xbdd4f965	-0.10399131
75	0x3ced0d09	0.02893688
76	0x3dbdddf9	0.092708535
77	0xbd95212d	-0.072817184
78	0x3db7a6e0	0.08967376
79	0xbe01c438	-0.12672508
80	0x3e864eee	0.26232094
81	0xbc587433	-0.013211298
82	0x3dadb6f7	0.084821634
83	0xbcf82b13	-0.030293977
84	0xbd795aca	-0.0608776
85	0xbcde1ab9	-0.027112352
86	0xbdaeba11	-0.08531583
87	0x3bfe2a62	0.0077565173
88	0xbdda6124	-0.10663059
89	0x3dfb7ab2	0.12279262
90	0xbd0887c8	-0.033332616
91	0x3ce8e15b	0.02842777
92	0x3d3d77c0	0.04625678
93	0x3dbeeb20	0.0932219
94	0xbbefcc2a	-0.0073180394
95	0x3d0f00c2	0.034912832
96	0x3e0100ab	0.12597911
97	0xbd86c4b9	-0.065804906
98	0xbd0d7fdd	-0.034545768
99	0xbd723892	-0.05913598
100	0xbe0e4b39	-0.13895883
101	0x3b40e4e2	0.00294333
102	0xbd01ceb0	-0.031691253
103	0xbc3495cd	-0.011022043
104	0x3dcd7090	0.10031235
105	0xbd5bc70d	-0.053656626
106	0xbe06673a	-0.13125315
107	0x3b950b16	0.0045484407
108	0x3d9f1498	0.077676
109	0x3d963ef2	0.073362246
110	0x3db2bc43	0.08727314
111	0xbdae500a	-0.0851136
112	0xbe0b89e7	-0.13626824
113	0xbd3f7a53	-0.046747517
114	0xbdedbc17	-0.11608141
115	0x3dfdec52	0.1239859
116	0x3df657f5	0.12028495
117	0x3dcf57d9	0.101241775
118	0x3dae2f57	0.08505123
119	0xbd5c4c0e	-0.05378347
120	0x3dd738c6	0.105088755
121	0x3d45762b	0.048208397
122	0xbdb5b4c6	-0.088723704
123	0x3a5a7dfe	0.00083348143
124	0x3d509cfe	0.05093097
125	0xbd0f1d70	-0.034940183
126	0x3d5d5eed	0.054045606
127	0xbc8bce7e	-0.017066237
128	0xbdb38dd4	-0.08767286
129	0x3d4d2057	0.05007967
130	0x3e925c74	0.2858616
131	0xbd848739	-0.06471104
132	0x3dbfcea6	0.09365587
133	0xbd3dd21d	-0.046342958
134	0xbd912628	-0.07087356
135	0x3dfe85ce	0.12427865
136	0x3e0cbb7d	0.13743396
137	0x3dffbf1c	0.12487623
138	0x3b84e348	0.0040554143
139	0x3d9655b3	0.073405646
140	0x3d78d822	0.060752995
141	0xbe3566af	-0.17714952
142	0x3d85ba59	0.065296836
143	0x3bb9ce7c	0.005670367
144	0xbe241308	-0.16022885
145	0xbe0939b4	-0.13400918
146	0x3dc21145	0.0947595
147	0x3cb89509	0.022532003
148	0x3dec4e58	0.115383804
149	0x3d1c70df	0.03819358
150	0x3d02b632	0.031912036
151	0xbd423d61	-0.047421817
152	0x3d8bda40	0.06828737
153	0xbd941f52	-0.072325364
154	0xbcdaa2e9	-0.02668901
155	0xbdae8dbb	-0.08523127
156	0xbd9bb853	-0.076035164
157	0x3e764d92	0.24053028
158	0x3db3e8e9	0.087846585
159	0xbdc87d65	-0.09789542
160	0x3c6bdd38	0.014396004
161	0xbd6f1de6	-0.058378123
162	0xbe287d5f	-0.16454075
163	0xbca4b410	-0.020105392
164	0xbd7c3a11	-0.061578814
165	0xbe067747	-0.13131438
166	0x3da00dc0	0.078151226
167	0x3db33b9b	0.08751603
168	0xbc9519df	-0.018200813
169	0xbe0c40f8	-0.13696659
170	0xbdf90e5b	-0.12160941
171	0x3dc7a764	0.09748724
172	0xbe666ad0	-0.22501683
173	0x3de55778	0.11198324
174	0xbe01d551	-0.1267903
175	0x3d453975	0.0481505
176	0xbe1fa6d0	-0.15590978
177	0xbd700d5e	-0.058606498
178	0xbbb3cb56	-0.005486886
179	0xbddc16c4	-0.1074653
180	0x3d9988e9	0.07496817
181	0xbd90f18f	-0.07077324
182	0xbc93181f	-0.017955838
183	0x3e23e818	0.16006505
184	0xbe44f3e6	-0.19233665
185	0xbdc15c48	-0.094414294
186	0x3d546426	0.05185332
187	0x3da64f90	0.08120644
188	0xbe0919aa	-0.13388696
189	0x3e23d857	0.16000496
190	0x3dc95f50	0.098326325
191	0x3af0f43f	0.0018383338
192	0x3dfa9207	0.12234884
193	0x3de5ac6f	0.1121453
194	0xbdd15733	-0.1022171
195	0xbde16bb8	-0.11006874
196	0xbde3f0ab	-0.11129888
197	0xbd8fa725	-0.07014302
198	0xbe0b0222	-0.13575032
199	0x3c13b29e	0.009014754
200	0xbd8f89c1	-0.07008696
201	0x3a566393	0.000817829
202	0xbdbaf457	-0.091286354
203	0x3dbd39f2	0.09239568
204	0xbc8064ec	-0.015673123
205	0x3ca665f7	0.020312293
206	0x3d8a15f5	0.06742469
207	0x3e4bf2d9	0.19916858
208	0xbd8e116e	-0.06936918
209	0xbe0f1a54	-0.13974887
210	0x3d1d5706	0.03841307
211	0xbb20deec	-0.0024546934
212	0x3d2bfd58	0.041989654
213	0x3cae81bb	0.021302095
214	0xbe0c20d7	-0.13684402
215	0x3d8c5155	0.0685145
216	0xbe00e60c	-0.12587756
217	0xbd96f29b	-0.07370492
218	0x3d37a9ee	0.044839792
219	0x3d7516f9	0.05983636
220	0x3b882b4f	0.0041555534
221	0xbdf01937	-0.11723559
222	0xbdcdb8c9	-0.100450106
223	0x3bb89a1d	0.005633606
224	0x3d9996d7	0.074994735
225	0x3daf7edb	0.08569118
226	0xbd8f55d6	-0.06998794
227	0x3dc763df	0.09735846
228	0x3bf6607c	0.007518826
229	0xbd8b1285	-0.06790642
230	0x3e79f28a	0.24408928
231	0x3c4d33db	0.01252457
232	0xbe3647f6	-0.17800888
233	0x3e2c4ec4	0.16826922
234	0xbe2a5e0d	-0.1663744
235	0x3d60c787	0.054877784
236	0x3d57ad03	0.05265523
237	0x3e3562ee	0.1771352
238	0xbb8bc314	-0.0042651985
239	0xbdcacf30	-0.09902799
240	0xbd06dba4	-0.03292431
241	0xbe1a4bea	-0.15068021
242	0xbcf463a7	-0.029832674
243	0x3de828d1	0.1133591
244	0xbc901034	-0.017585851
245	0x3db44479	0.088021226
246	0x3dbf56f2	0.093427554
247	0x3df0a0fa	0.11749454
248	0xbddd5acb	-0.10808333
249	0x3d9faf69	0.07797129
250	0x3db450e6	0.08804493
251	0xbd01edaa	-0.031720795
252	0xbdd3e29a	-0.10345955
253	0xbd7c4e11	-0.061597887
254	0x3ded2f67	0.11581307
255	0xbd2d38e6	-0.04229059

bias_ih_l1 f4 [200]
0	0xbdf3e969	-0.11909754
1	0x3d58f32d	0.052966285
2	0xbd08521d	-0.033281434
3	0x3c2b8e5a	0.010470951
4	0x3d4205bd	0.047368754
5	0xbd81229a	-0.06305428
6	0xbd6671c8	-0.056260854
7	0x3e532423	0.20619254
8	0xbd99fb16	-0.07518594
9	0x3da39783	0.07987883
10	0x3d8f296d	0.06990323
11	0x3dca5009	0.09878547
12	0xbad6c9c7	-0.0016387039
13	0xbb7dbd1c	-0.0038717454
14	0xbc880d1a	-0.01660781
15	0xbcee0642	-0.029055718
16	0xbdde1483	-0.10843756
17	0x3e098b9e	0.13432166
18	0xbc950be1	-0.01819414
19	0x3daef0a4	0.08541992
20	0x3d92cba5	0.07167748
21	0xbbd324cc	-0.0064435955
22	0x3cfccf0b	0.030860445
23	0x3da7aca0	0.081872225
24	0xbd7d4330	-0.061831653
25	0x3bd6c048	0.0065536834
26	0xbd724dee	-0.05915635
27	0xbe066a5e	-0.13126513
28	0xbd69802a	-0.057006992
29	0x3e1e9cac	0.15489453
30	0x3eb45310	0.35219622
31	0x3e05ce12	0.13066891
32	0x3c47eb4a	0.012202093
33	0x3b2c1be2	0.0026261737
34	0x3d29f8cc	0.041497037
35	0x3dca6efe	0.09884451
36	0x3c9ef389	0.019403236
37	0x3e29e722	0.16592076
38	0x3d23cd13	0.039990496
39	0xbc96408e	-0.018341329
40	0xbda0b7bb	-0.07847544
41	0xbdf5c91b	-0.120012484
42	0x3e37c1d3	0.17945032
43	0xbc3a2fb1	-0.01136391
44	0x3dda7efc	0.106687516
45	0x3d39b648	0.045339853
46	0xbd954fcf	-0.07290613
47	0x3dc145a5	0.09437112
48	0xbd9ae014	-0.07562271
49	0xbd27f0c4	-0.041001096
50	0xbd914659	-0.07093496
51	0x3d45fe8a	0.04833845
52	0x3dfa571b	0.12223645
53	0xbdff8fbd	-0.12478588
54	0x3da20574	0.07911196
55	0xbdc97072	-0.098359
56	0xbd90136f	-0.07034957
57	0xbdb6bc0a	-0.08922584
58	0x3d30f7e5	0.04320516
59	0x3d1130fa	0.0354471
60	0x3d3bc50b	0.04584221
61	0xbc959e0c	-0.01826384
62	0x3c27c38a	0.010239491
63	0xbe0c3067	-0.13690339
64	0xbdd3dade	-0.1034448
65	0xbceb879f	-0.028751193
66	0x3c1b9f93	0.009498495
67	0x3d1f3c74	0.038876012
68	0x3dd30c36	0.103050634
69	0x3d0c3fae	0.034240417
70	0x3cd19525	0.025583813
71	0xbe10f15a	-0.14154568
72	0xbe22a0ac	-0.15881604
73	0xbdde7e6b	-0.10863956
74	0xbdf82e05	-0.121181525
75	0x3db01c40	0.08599138
76	0xbc7316cd	-0.014836979
77	0xbde0e840	-0.10981798
78	0xbdbbf9b9	-0.0917849
79	0xbdb7944d	-0.08963833
80	0xbe453fd6	-0.19262633
81	0xbe056bdc	-0.13029426
82	0x3d755aa9	0.059900913
83	0x3d59621f	0.05307209
84	0x3d134526	0.035954617
85	0xbd71a030	-0.058990657
86	0x3d350072	0.044189878
87	0x3d0084a9	0.031376515
88	0xbdafd3c3	-0.08585312
89	0x3b26c33e	0.0025445963
90	0x3deb57a0	0.114913225
91	0xbe23380c	-0.15939349
92	0x3c9f8e07	0.019476904
93	0x3d3e4954	0.04645665
94	0xbdb62d2d	-0.08895335
95	0xbda056a4	-0.078290254
96	0x3d7f8735	0.062384803
97	0xbdacffb7	-0.08447211
98	0xbd2a7cb7	-0.041622844
99	0x3e134fb2	0.1438587
100	0x3c198bc3	0.009371701
101	0x3dc68233	0.09692802
102	0x3dbe87ff	0.09303283
103	0xbcc8c9fe	-0.02451038
104	0x3e1e6f72	0.154722
105	0xbdd33c1e	-0.10314201
106	0x3d8714ca	0.06595762
107	0x3cb3bfe7	0.021942092
108	0xbde5b501	-0.112161644
109	0xbd9e67d7	-0.0773465
110	0xbcb8cf61	-0.022559823
111	0xbe0b7d6c	-0.13622063
112	0xbde3f9bd	-0.11131618
113	0x3dcbf836	0.09959452
114	0xbc125284	-0.008930806
115	0x3d1b1b5a	0.03786788
116	0x3d13fe01	0.03613091
117	0x3cd6f2c0	0.0262388
118	0x3d485907	0.048913028
119	0xbdf63a74	-0.12022868
120	0xbd12adf8	-0.03581044
121	0xbb5a27ed	-0.0033287958
122	0xbd696363	-0.05697955
123	0x3e0d577c	0.13802904
124	0x3e00c742	0.12576011
125	0x3ce898ce	0.028393175
126	0x3b8d9afe	0.004321455
127	0x3d1e51c2	0.03865219
128	0xbd9103f8	-0.07080835
129	0xbdeaf0af	-0.11471688
130	0xbcaf1a02	-0.021374706
131	0x3d5dbff5	0.054138143
132	0xbd36f5c5	-0.044667978
133	0x3d4f5f3b	0.05062793
134	0x3d664b90	0.056224406
135	0x3ce6469d	0.028109843
136	0x3d15f833	0.036613654
137	0x3cc6de9d	0.024276072
138	0x3d02b9af	0.031915363
139	0x3d7c8691	0.06165177
140	0xbdeb59cc	-0.11491737
141	0xbd7e62f3	-0.062106084
142	0x3cec9c41	0.028883101
143	0xbe0aad07	-0.13542567
144	0xbd11c504	-0.03558828
145	0xbc76c318	-0.015061162
146	0xbdcf9155	-0.10135142
147	0x3c6fddcb	0.014640282
148	0x3d71b997	0.059014883
149	0xbcdf06fc	-0.02722501
150	0x3db3d86d	0.08781514
151	0xbd602cbd	-0.054730166
152	0x3d8ab2a4	0.06772354
153	0xbdce6a7d	-0.10078905
154	0xbd244556	-0.040105186
155	0xbcfa9bd0	-0.030591875
156	0x3c005f1d	0.007835177
157	0x3ec13b71	0.37740663
158	0xbdd644d9	-0.104623504
159	0xbde7a18f	-0.11310112
160	0xbcd07ea3	-0.02545101
161	0x3e0ff271	0.14057328
162	0xbd45594e	-0.04818087
163	0x3d7cc712	0.061713286
164	0xbe0d64e7	-0.13808022
165	0xbdef5d09	-0.11687667
166	0x3c0e4fe8	0.008686043
167	0xbdb2a5fc	-0.08723065
168	0x3de01ab3	0.109425925
169	0x3d536663	0.051611315
170	0x3dc86cd2	0.09786381
171	0x3bdef547	0.0068041417
172	0x3e8846bc	0.26616466
173	0x3ddee3d3	0.10883298
174	0xbd6a4d75	-0.057202775
175	0xbde9cbb4	-0.114158064
176	0xbd9eb719	-0.07749767
177	0x3db7c1e8	0.089725316
178	0xbcaed962	-0.02134389
179	0x3e456b37	0.1927918
180	0x3e9dc6d2	0.3081575
181	0xbdb6eeb6	-0.08932249
182	0x3de0a2c2	0.109685436
183	0x3d866253	0.065617226
184	0x3d1c1713	0.038107943
185	0x3e04692c	0.12930745
186	0xbdfc345a	-0.12314673
187	0x3df068ef	0.117387645
188	0xbd5f9b02	-0.054591186
189	0x3d8d55ff	0.06901168
190	0x3b8fe6a7	0.0043915096
191	0xbc63873c	-0.013887223
192	0x3d1346f8	0.035956353
193	0xbd399af9	-0.04531381
194	0xbdf50e1f	-0.11965584
195	0xbc81ec76	-0.015859824
196	0xbdbcff62	-0.09228398
197	0xbd2c8645	-0.042120237
198	0x3d2997b8	0.041404456
199	0x3d8e9c0f	0.069633596

bias_hh_l1 f4 [200]
0	0x3c8064e5	0.01567311
1	0x3d4f064d	0.05054312
2	0xbdd9229b	-0.106023036
3	0x3cd6187f	0.026134728
4	0xbd1eee89	-0.038801704
5	0xbcfb9af1	-0.03071353
6	0xbd04c160	-0.03241098
7	0x3ec66cea	0.3875497
8	0x3dce8551	0.10084022
9	0x3ca9da0a	0.020733852
10	0x3dc0b143	0.0940881
11	0x3df4dadb	0.11955806
12	0xbc7d4a43	-0.0154596
13	0xbd1fb371	-0.038989488
14	0x3d35d953	0.04439671
15	0xbaf83700	-0.001893729
16	0xbded0d43	-0.11574795
17	0x3d4855a8	0.048909813
18	0x3d840f58	0.06448239
19	0x3e13b90e	0.14426062
20	0xbd2bb1ae	-0.041917495
21	0x3e265d7a	0.16246596
22	0x3cab2df5	0.020895937
23	0x3d35fc58	0.044430107
24	0x3dacebc9	0.0844341
25	0xbc5501e1	-0.013000936
26	0xbd460942	-0.048348673
27	0xbc630a4d	-0.013857436
28	0xbd95c17c	-0.07312295
29	0x3ebcd16b	0.36878523
30	0x3eacf7b2	0.33782727
31	0xbdef2e20	-0.116787195
32	0x3dab1002	0.083526626
33	0xbbd01361	-0.0063499664
34	0x3d994922	0.07484652
35	0xbd3572c7	-0.044298913
36	0x3dfebda3	0.12438514
37	0xbcc1892a	-0.023624975
38	0xbd077e55	-0.033079464
39	0xbd8e5206	-0.069492385
40	0x3daff505	0.08591656
41	0x3df830fc	0.12118718
42	0xbd587e65	-0.052854914
43	0x3d0e16ce	0.034689717
44	0xbd908cb2	-0.070580855
45	0xbd7587fa	-0.05994413
46	0xbc94df12	-0.018172774
47	0xbd653c15	-0.0559655
48	0xbccae1c0	-0.02476585
49	0x3dbf4194	0.0933868
50	0xbdc722c3	-0.09723427
51	0x3de86060	0.11346507
52	0x3e071cb5	0.13194545
53	0xbe05a7e9	-0.13052334
54	0x3e00aea0	0.12566614
55	0x3daeb2da	0.08530207
56	0xbdca6799	-0.09883041
57	0xbe0bd25b	-0.13654463
58	0x3d3230d9	0.043503616
59	0xbd853941	-0.06505061
60	0x3c54be7c	0.012984868
61	0x3e07adba	0.13249865
62	0x3d96abeb	0.073570095
63	0xbc10f4be	-0.008847414
64	0xbdbb1f14	-0.09136787
65	0x3c4b61b8	0.012413435
66	0x39bc21b0	0.00035883253
67	0x3d021c74	0.031765416
68	0x3d8f0802	0.06983949
69	0xbe0885dd	-0.13332315
70	0xbca45d7f	-0.020064114
71	0xbd9dc52c	-0.07703623
72	0x3cb68abc	0.02228295
73	0x3e07fd77	0.13280283
74	0x3d1d7e46	0.0384505
75	0xbcc979d2	-0.024594221
76	0x3bd847f2	0.0066003734
77	0x3c530618	0.012879871
78	0x3dab15aa	0.083537415
79	0x3d1cd810	0.03829199
80	0x3bab67f8	0.0052309
81	0x3d759632	0.05995769
82	0xbd5e17c3	-0.05422188
83	0xbdcc6b30	-0.09981382
84	0x3d0883d8	0.03332886
85	0x3d090272	0.033449598
86	0x3d85c408	0.065315306
87	0x3d7c80c8	0.061646253
88	0x3d99884b	0.07496699
89	0xbcb0f8f8	-0.021603093
90	0xbd9c2228	-0.07623702
91	0xbe0f6827	-0.14004575
92	0x3ca6a053	0.02034012
93	0x3e17531f	0.14777802
94	0x3d62d768	0.05538121
95	0x3c9fab0f	0.019490747
96	0xbda25364	-0.07926062
97	0x3d8c71c7	0.06857639
98	0x3dc4b69e	0.09605144
99	0x3cb025e5	0.021502445
100	0xbe142d84	-0.14470488
101	0x3e07b0a9	0.13250984
102	0xbe02cf47	-0.12774383
103	0x3e03076b	0.12795798
104	0xbd7381cd	-0.05944996
105	0x3da71b0e	0.08159457
106	0xbe1589bb	-0.14603321
107	0x3cd91611	0.02649978
108	0xbdb44a97	-0.088032894
109	0xbe0ccfe6	-0.13751182
110	0x3d310ad2	0.04322321
111	0xbdaf8507	-0.08570295
112	0xbde1988f	-0.11015426
113	0xbe1d1e1c	-0.15343517
114	0xbded435b	-0.11585113
115	0xbd9b5abc	-0.075856656
116	0xbe107811	-0.14108302
117	0x3df4c22e	0.11951099
118	0x3d633783	0.055472862
119	0x3d89fd82	0.06737806
120	0xbe10ea3a	-0.1415185
121	0x3dd79b15	0.105276264
122	0x3ddf60d7	0.109071426
123	0xbd23fcdf	-0.04003608
124	0xbc671c8b	-0.014105926
125	0xbcc3ead1	-0.02391568
126	0x3d3a34a5	0.045460362
127	0xbd797fa6	-0.06091275
128	0x3d0259bc	0.03182386
129	0x3ded79ab	0.11595472
130	0x3db782bc	0.089604825
131	0x3df5f0c6	0.120088145
132	0x3d34657b	0.04404209
133	0xbc835a44	-0.016034253
134	0xbd8cf13a	-0.06881948
135	0xbdf98314	-0.12183204
136	0x3ccb77eb	0.024837455
137	0x3d8a06ba	0.06739564
138	0xbd42204f	-0.047394093
139	0x3de9ea2a	0.114216164
140	0x3d1b788f	0.03795677
141	0xbd2dcd7d	-0.042432297
142	0x3cbf073b	0.023318877
143	0x3bf4a69a	0.0074661495
144	0xbd87c98a	-0.066302374
145	0xbe0c8748	-0.1372348
146	0x3cc58d40	0.024115205
147	0xbd4bedc6	-0.049787305
148	0x3dc3f8bc	0.09568927
149	0xbd54806b	-0.05188028
150	0x3dbb349d	0.091408946
151	0x3d965a39	0.07341427
152	0x3d68d4ad	0.05684345
153	0x3dd8fa5d	0.10594628
154	0x3e10e862	0.14151147
155	0x3dae1894	0.08500782
156	0xbcac7b82	-0.021054987
157	0x3e84f019	0.2596443
158	0x3cb64e70	0.022254199
159	0xbd92e5eb	-0.071727596
160	0x3b3aa3bf	0.0028478948
161	0xbe08b401	-0.13349916
162	0xbde92a2e	-0.11384998
163	0x3d3d80e8	0.046265513
164	0x3c3e91e0	0.011631459
165	0xbd171ab3	-0.036890697
166	0xbcd2123c	-0.02564346
167	0x3dc33d78	0.095332086
168	0x3d306d11	0.043072764
169	0x3cd8f6d9	0.026484894
170	0x3d972d3a	0.07381673
171	0x3e2320bd	0.15930457
172	0x3dab4fd0	0.083648324
173	0x3d2a8ee1	0.041640166
174	0x3e264f4a	0.16241184
175	0x3de46598	0.1115219
176	0x3d867885	0.06565956
177	0xbbbef334	-0.005827332
178	0xbd016861	-0.031593684
179	0x3e7d372b	0.24728076
180	0x3e32e146	0.17468747
181	0x3d6e32f0	0.058154047
182	0x3da600bd	0.081056096
183	0x3e4ca651	0.1998532
184	0x3d93928d	0.07205687
185	0x3cc00918	0.023441836
186	0x3e0b8773	0.13625889
187	0x3dce3ae5	0.10069827
188	0xbdf16943	-0.11787655
189	0x3cb99f9d	0.022659117
190	0xbe000edc	-0.12505668
191	0xbd60b606	-0.05486109
192	0x3dbdabdf	0.092612974
193	0x3da40c64	0.08010176
194	0x3d74a491	0.059727255
195	0xbd85eb6a	-0.06539042
196	0xbcd250f7	-0.025673373
197	0x3d7f3328	0.062304646
198	0x3d5fad04	0.05460836
199	0x3d016663	0.031591784

weight f4 [1, 50]
0	0xbdb2f91c	-0.0873892
1	0x3da26a55	0.079304375
2	0xbe0a4d8a	-0.13506141
3	0x3df40490	0.11914933
4	0x3e1c424a	0.15259662
5	0x3db53734	0.0884842
6	0xbe07dbac	-0.13267392
7	0xbe414e50	-0.1887753
8	0x3d615521	0.055012826
9	0xbc574d28	-0.013140954
10	0xbc831508	-0.01600124
11	0xbda817be	-0.082076535
12	0x3de5636a	0.11200602
13	0xbdccaaa6	-0.09993486
14	0x3d1b81ea	0.037965693
15	0x3e0b41ff	0.13599394
16	0xbe1c34e1	-0.15254547
17	0x3c9a225c	0.018815212
18	0x3dd15cfa	0.10222812
19	0x3e131c60	0.14366293
20	0xbbd2b64c	-0.006430423
21	0xbcc15926	-0.02360208
22	0x3e5604ef	0.2090032
23	0x3d98b1e6	0.074558064
24	0x3e0a5ee1	0.13512756
25	0xbdd97746	-0.10618453
26	0x3e040330	0.12891841
27	0xbcc08825	-0.023502419
28	0x3d5ccc26	0.05390563
29	0x3e6ad310	0.22932076
30	0xbe8a9f01	-0.27074435
31	0x3d4d7449	0.050159726
32	0x3de1e0d3	0.1102921
33	0xbe0052cb	-0.12531583
34	0x3e17ee0f	0.14836906
35	0xbdb495c8	-0.08817631
36	0x3d09cea9	0.033644352
37	0xbd9ac1e7	-0.07556515
38	0xbe03a1c0	-0.12854671
39	0xbd54fa4e	-0.05199652
40	0xbc13a5d3	-0.009011704
41	0x3d48556b	0.048909586
42	0xbdfa1e38	-0.12212795
43	0xbe0fc865	-0.14041288
44	0x3d53dfde	0.05172717
45	0xbd96e58c	-0.07368001
46	0xbd76876c	-0.060187742
47	0x3baba87a	0.00523859
48	0x3daf2930	0.08552778
49	0xbd2930e3	-0.041306388
